Pendulum_SAC/saved_model/0404/sac_actor_EP100.pt (torch, 20559 bytes, 6 tensors)

fc_1.weight f4 [64, 3]
0	0x3f0d20aa	0.55127966
1	0x3d0848d9	0.033272598
2	0xbef02ef4	-0.46910822
3	0xbdc2fc4b	-0.09520777
4	0xbf24d7af	-0.6439161
5	0xbf04199f	-0.51601595
6	0xbf42e2d3	-0.76127356
7	0x3ea58854	0.32330573
8	0x3edf9552	0.4366861
9	0xbe9e3816	-0.30902165
10	0x3f16d813	0.58923453
11	0x3c06a740	0.008218586
12	0x3e847122	0.25867563
13	0xbf838d4c	-1.0277495
14	0x3ee4bfea	0.4467767
15	0x3e8f3035	0.27966467
16	0xbf903b4b	-1.1268095
17	0xbf0acef7	-0.54222053
18	0xbe0f10e7	-0.13971291
19	0x3f1fde8e	0.62448967
20	0xbce1e489	-0.027574794
21	0xbe9fd933	-0.31220397
22	0xbfa0906b	-1.2544073
23	0xbebe1638	-0.37126327
24	0x3f4823b2	0.78179467
25	0x3e0b32bc	0.13593572
26	0xbebea01e	-0.37231535
27	0x3f37aa58	0.717443
28	0xbf9414af	-1.1568812
29	0xbf08a786	-0.5338062
30	0x3ec02fcc	0.37536466
31	0x3f47f4b6	0.78107774
32	0xbe83a32f	-0.25710437
33	0xbe25f31b	-0.16206019
34	0x3ec99c3d	0.39377013
35	0xbc78452a	-0.015153209
36	0xbe8cbe92	-0.27489144
37	0xbf6bde3e	-0.9213599
38	0xbdf5e5a2	-0.120066896
39	0x3e1b2860	0.1515212
40	0xbd747d96	-0.05969008
41	0x3d720ac4	0.0590923
42	0x3d89b8ae	0.06724678
43	0x3f76231e	0.96147335
44	0x3f26d20c	0.65164256
45	0x3d903fa9	0.07043392
46	0xbdb86d09	-0.09005172
47	0xbf2a2de8	-0.664763
48	0x3dfa0079	0.122071214
49	0xbf6887b7	-0.90832084
50	0x3bcc0889	0.0062266034
51	0x3f1d95f1	0.6155692
52	0x3fd5c4b4	1.6700654
53	0x3dbcae4d	0.09212933
54	0xbf553310	-0.8328104
55	0xbe2329bf	-0.15933894
56	0xbdd47972	-0.10374726
57	0xbdfa0fd6	-0.12210052
58	0x3fa31167	1.2739686
59	0x3e59538e	0.2122328
60	0xbe22bab2	-0.15891531
61	0xbfdf7da8	-1.7460222
62	0xbeade77d	-0.33965674
63	0xbeae568b	-0.34050402
64	0xbdeb9031	-0.11502112
65	0xbec3c187	-0.38233587
66	0xbe86cc52	-0.2632776
67	0x3f8086e8	1.004117
68	0x3e34e551	0.17665602
69	0x3ec49394	0.38393843
70	0xbf5ead7f	-0.86983484
71	0xbea53df5	-0.32273832
72	0xbf2a6ebc	-0.6657522
73	0xbf3fbb36	-0.74895036
74	0xbda8cd79	-0.08242316
75	0x3f0ae954	0.5426228
76	0xbec3d435	-0.3824784
77	0xbd801578	-0.06254095
78	0x3f820e84	1.016068
79	0x3f417f3c	0.7558477
80	0x3d520a60	0.051279426
81	0xbf03d08a	-0.5149008
82	0xbfc72107	-1.5556954
83	0xbeca391e	-0.39496702
84	0xbeb4227a	-0.35182554
85	0x3f2f31c8	0.68435335
86	0x3f34641f	0.7046527
87	0xbe636403	-0.2220612
88	0xbf65754a	-0.89632094
89	0xbe897919	-0.26850203
90	0x3d93dad4	0.072194725
91	0xbf5fc895	-0.8741544
92	0xbee40578	-0.44535422
93	0xbf00288f	-0.5006189
94	0xbe977ebf	-0.29588887
95	0x3e34c6d7	0.17653976
96	0xbf3aeba9	-0.7301584
97	0x3c881265	0.016610334
98	0xbd0119c0	-0.031518698
99	0x3f0ae24a	0.5425154
100	0x3dd6b4ea	0.10483725
101	0xbe06ea88	-0.13175404
102	0x3e3bc7c0	0.18337917
103	0xbf5d74be	-0.8650626
104	0xbe938211	-0.2881017
105	0x3f2ab305	0.6667941
106	0xbfa21ee4	-1.2665677
107	0xbebee3b3	-0.37283096
108	0xbe40a316	-0.18812212
109	0xbf4f12eb	-0.8088824
110	0xbeb5e3a1	-0.3552523
111	0x3ddc6abb	0.10762545
112	0xbfbdbcbf	-1.4823226
113	0xbd99c9db	-0.07509204
114	0xbf1c89c8	-0.6114774
115	0xbddd9090	-0.10818589
116	0xbea497f2	-0.32147175
117	0xbf3ccaa4	-0.73746705
118	0x3eeeacaf	0.46616122
119	0x3ebc920e	0.3683018
120	0xbe7af0a2	-0.24505857
121	0x3f2f2162	0.68410313
122	0x3d62f59d	0.055410016
123	0x3f18ce8c	0.59690166
124	0xbef8b2ab	-0.48573813
125	0xbe9ea2c2	-0.3098355
126	0xbe2d34ab	-0.16914622
127	0x3fd8eaf1	1.6946698
128	0x3ea1d827	0.31610224
129	0xbe81e040	-0.25366402
130	0x3f27b00f	0.6550302
131	0xbeb227e1	-0.3479605
132	0xbee37d64	-0.44431603
133	0xbecde9f7	-0.40217564
134	0xbae0db3a	-0.0017155178
135	0x3f24d05b	0.64380425
136	0x3e898b99	0.26864317
137	0xbf020af5	-0.5079797
138	0x3f607e22	0.87692463
139	0xbf6492f5	-0.8928674
140	0x3f026393	0.5093319
141	0x3d128288	0.035769016
142	0xbe45adb9	-0.19304551
143	0xbee02ad3	-0.43782672
144	0xbf2aadd5	-0.66671497
145	0xbde55c6b	-0.11199268
146	0xbe6a7118	-0.22894704
147	0x3e9caaff	0.3059921
148	0x3fabe14f	1.3428134
149	0x3ed4d3b4	0.41567767
150	0x3f5e2051	0.8676806
151	0x3da7fa8f	0.08202087
152	0x3ebd9c1b	0.37033162
153	0x3d9b7f95	0.07592694
154	0xbc0bd733	-0.008535194
155	0xbeef9e75	-0.4680058
156	0xbe8cac5d	-0.27475253
157	0x3f15d18d	0.58522874
158	0xbe330090	-0.17480683
159	0x3e78e4be	0.24306008
160	0xbe9a9166	-0.30189055
161	0xbead6839	-0.33868578
162	0x3e3699f7	0.1783217
163	0x3d37cbf0	0.044872224
164	0xbeb64472	-0.35599095
165	0x3f22cd60	0.6359463
166	0x3f929060	1.145031
167	0x3eeade89	0.45872906
168	0xbf52f071	-0.82398134
169	0x3e36e2d2	0.17859963
170	0xbda718a8	-0.08159
171	0xbf377da9	-0.7167612
172	0x3eeb4e84	0.4595834
173	0x3d0d5c04	0.03451158
174	0xbf2dc519	-0.6787887
175	0xbeb7acf7	-0.3587415
176	0xbe891aa9	-0.26778153
177	0x3e19b497	0.15010296
178	0x3ec54ec4	0.38536656
179	0xbf2c6545	-0.67342025
180	0x3db3b740	0.087751865
181	0xbf882258	-1.0635481
182	0xbf09150a	-0.5354773
183	0x3e63a780	0.22231865
184	0xbed96bf3	-0.4246517
185	0x3e832f0e	0.25621837
186	0xbd365c4d	-0.04452162
187	0xbf964d6b	-1.1742376
188	0xbf2641fe	-0.64944446
189	0x3e47d63f	0.19515322
190	0x3f79ef76	0.97631013
191	0xbe5f7f87	-0.21825992

fc_1.bias f4 [64]
0	0xbf0160f2	-0.5053855
1	0xba85972d	-0.0010192149
2	0xbe54d929	-0.20785965
3	0x3ea69364	0.32534325
4	0xbec1bf64	-0.37841332
5	0x3e89737e	0.26845926
6	0x3e354ed3	0.1770585
7	0x3ea0f828	0.31439328
8	0xbf45617b	-0.7710187
9	0xbf053ad7	-0.5204291
10	0xbe6515ca	-0.22371593
11	0x3f00259b	0.5005738
12	0x3ecc499b	0.39899907
13	0x3d1ee076	0.03878828
14	0xbc86ccbb	-0.016455045
15	0xbeba6486	-0.36404818
16	0xbdcf2cc9	-0.10115964
17	0xbc8f902f	-0.017524807
18	0x3e90660b	0.28202853
19	0x3e98ad7c	0.29819858
20	0xbedfcf70	-0.4371295
21	0xbeaa446f	-0.33255336
22	0x3ebd40af	0.36963412
23	0x3deda553	0.11603799
24	0x3e97a5b0	0.29618597
25	0x3e873b30	0.26412344
26	0xbe2fe280	-0.17176247
27	0xbea7ab0f	-0.32747695
28	0xbec08f59	-0.37609366
29	0x3e613f2f	0.21996759
30	0x3d8d6bf7	0.06905358
31	0xbf3d6816	-0.7398695
32	0x3f0f58ac	0.5599468
33	0x3eadb99e	0.33930677
34	0x3e5eef7e	0.21771047
35	0xbe8075aa	-0.2508977
36	0x3ea1ecb1	0.31625894
37	0x3e55577d	0.20834155
38	0xbef3656c	-0.47538316
39	0xbe56fb0c	-0.20994204
40	0x3e786c05	0.24259956
41	0xbec9f510	-0.3944478
42	0xbf0e0bb2	-0.55486596
43	0xbee03dc1	-0.43797114
44	0x3ed8649a	0.42264253
45	0xbeb03b18	-0.34420085
46	0xbee66463	-0.44998464
47	0x3db8250f	0.08991443
48	0xbe8ea560	-0.27860546
49	0xbea97e9c	-0.33104408
50	0xbf5ba4b6	-0.85798204
51	0xbe8620ca	-0.2619689
52	0x3ee8a89f	0.45441148
53	0xbf49ce4f	-0.78830427
54	0xbf9165ef	-1.1359233
55	0xbf1e8001	-0.6191407
56	0x3e200319	0.15626182
57	0xbe8d37a5	-0.27581516
58	0xbf168465	-0.5879577
59	0xbeeef570	-0.4667163
60	0x3db7f63a	0.08982511
61	0x3df5b8f1	0.119981654
62	0xbcd2f584	-0.025751837
63	0x3cdb967c	0.026805155

fc_2.weight f4 [64, 64]
0	0x3e46910e	0.19391271
1	0x3e0fac64	0.14030606
2	0x3d10d8f6	0.03536316
3	0xbdebea21	-0.11519266
4	0x3e15d0a9	0.14630379
5	0x3dd17596	0.10227506
6	0xbe17df56	-0.1483129
7	0xbcf58c72	-0.029974196
8	0x3ebd0211	0.3691564
9	0x3db9bdea	0.09069426
10	0xbe57d2b3	-0.21076469
11	0xbd16250d	-0.036656428
12	0x3ab7fc08	0.0014036903
13	0xbe00ee03	-0.12590794
14	0xbc97eb68	-0.018544868
15	0x3ba86198	0.005138587
16	0x3e2a93c6	0.16657934
17	0xbd935a45	-0.07194952
18	0xbe9ee1cd	-0.31031647
19	0xbdbbf350	-0.091772676
20	0xbdcaa59f	-0.09894871
21	0xbcb2bdce	-0.021819022
22	0xbd1fc8f9	-0.03901002
23	0x3c85a99f	0.016316233
24	0xbe0fc8c1	-0.14041425
25	0x3d632843	0.05545832
26	0xbc713b4f	-0.014723613
27	0xbeac3f2d	-0.3364195
28	0x3da07d32	0.07836379
29	0xbd3cb22a	-0.046068348
30	0x3d91f08f	0.07125961
31	0xbe25a6e5	-0.16176946
32	0xbd07e8bb	-0.033180933
33	0x3db7ca10	0.08974087
34	0x3deead4b	0.11654147
35	0xbdc27795	-0.09495465
36	0xbd2c27dd	-0.042030204
37	0x3e00b262	0.12568048
38	0xbf119aac	-0.56876636
39	0xbdbd21ce	-0.09234963
40	0xbda3bbda	-0.07994814
41	0x3daee553	0.08539834
42	0xbeca6d91	-0.39536718
43	0x3d35bdd2	0.04437048
44	0xbdb7708d	-0.08957014
45	0x3d328efc	0.04359339
46	0xbd492f23	-0.04911722
47	0xbd84feb2	-0.06493892
48	0xbedc51fb	-0.43031296
49	0xbe9ac158	-0.30225635
50	0x3e46535d	0.19367738
51	0xbe1e7dc5	-0.15477665
52	0x3cac8359	0.021058725
53	0xbcbd03c9	-0.023073094
54	0xbc6781fa	-0.01413011
55	0xbede8c32	-0.43466336
56	0xbdf3f3d0	-0.11911738
57	0x3d7307d7	0.05933365
58	0xbf2bb2be	-0.67069614
59	0xbe4c6851	-0.19961669
60	0x3d61f2b3	0.055163097
61	0x3d8da5b6	0.069163725
62	0x3dfa3cb7	0.12218612
63	0xbce2d4a5	-0.027689287
64	0xbe0d9beb	-0.13829009
65	0x3c650dfa	0.013980383
66	0xbe3c8c01	-0.18412782
67	0x3de81771	0.11332596
68	0x3ea127ab	0.31475577
69	0x3a63a72b	0.0008684273
70	0x3cdf38d3	0.027248776
71	0x3ddf6f64	0.10909918
72	0xbe883ec8	-0.26610398
73	0x3c328f06	0.010898357
74	0xbdf7251a	-0.120676234
75	0x3e036816	0.12832674
76	0x3e39609f	0.18103264
77	0x3ebb65fa	0.3660124
78	0xbdb367e6	-0.087600514
79	0x3d8a3a53	0.06749406
80	0x3dc27dae	0.09496628
81	0xbd9f3dde	-0.07775472
82	0xbe1d36a8	-0.15352881
83	0x3d2d55d2	0.042318173
84	0xbd9678e8	-0.0734728
85	0xbe6f5af7	-0.23374544
86	0xbce3ebf4	-0.027822472
87	0xbe157cad	-0.14598341
88	0x3d51dac6	0.05123403
89	0x3eb146c2	0.34624296
90	0x3dfff030	0.12496984
91	0xbe6ad3aa	-0.22932306
92	0xbfd6bf37	-1.6777104
93	0x3d9dd962	0.07707478
94	0x3d3e66f6	0.04648491
95	0xbdb3b0b8	-0.08773941
96	0x3ca114c4	0.019663222
97	0x3e73ee62	0.23821405
98	0xbe15f429	-0.14643921
99	0xbda20b49	-0.07912309
100	0xbd418231	-0.0472433
101	0x3e1aec92	0.15129307
102	0xbdc88a82	-0.09792043
103	0xbe932b14	-0.28743804
104	0xbd6866de	-0.056738727
105	0xbe321c40	-0.17393589
106	0xbf77c541	-0.9678536
107	0xbe9f3489	-0.3109477
108	0x3d40628d	0.046968985
109	0xbe080e4c	-0.13286704
110	0x3e8f7e76	0.2802617
111	0xbe522ed4	-0.20525676
112	0x3c1c5aae	0.009543104
113	0x3e97446e	0.29544395
114	0x3e6e1fa7	0.23254262
115	0x3e6c1d8c	0.23058146
116	0xbdb82bf8	-0.089927614
117	0xbed50046	-0.4160177
118	0xbd811104	-0.063020736
119	0x3e8df016	0.27722234
120	0xbc5d72a8	-0.013516106
121	0x3e24b38f	0.16084121
122	0x3e09990e	0.13437292
123	0x3cf07942	0.029354695
124	0xbe67db14	-0.22642165
125	0x3ea6c6d2	0.32573563
126	0xbde00101	-0.109376915
127	0xbdd941a0	-0.1060822
128	0x3e4edab2	0.20200613
129	0xbd7f80ec	-0.06237881
130	0x3db4c188	0.08825976
131	0x3e04762d	0.12935705
132	0x3e09b867	0.1344925
133	0x3dfb4585	0.12269119
134	0x3e46e156	0.19421896
135	0xbed96179	-0.42457178
136	0x3ddc9155	0.107699074
137	0xbec672b8	-0.38759398
138	0x3e1c0b38	0.15238655
139	0xba117065	-0.0005548059
140	0xbec6f022	-0.38855082
141	0xbb315083	-0.0027056045
142	0xb902703a	-0.00012439574
143	0x3e48f3f3	0.19624309
144	0xbd5c23f6	-0.053745233
145	0x3db53358	0.08847684
146	0xbe5c08c3	-0.21487717
147	0xbd999449	-0.07498986
148	0xc00c13d0	-2.1887093
149	0xbda1d467	-0.07901841
150	0x3d1db46e	0.03850215
151	0xbe0bb099	-0.13641585
152	0xbed4f75a	-0.41594964
153	0xbdad2472	-0.08454217
154	0x3dd40773	0.10352983
155	0xbf0aa5a6	-0.5415901
156	0x3e15281b	0.1456608
157	0xbe4a6d80	-0.19768333
158	0x3e3ad967	0.18246995
159	0x3d336666	0.043798827
160	0xbe5e511d	-0.2171063
161	0x3c9fa251	0.019486578
162	0xbda07a2d	-0.07835803
163	0xbe2f8542	-0.17140678
164	0xbe2f3ea3	-0.17113738
165	0xbe26078a	-0.16213813
166	0xbe84c331	-0.2593017
167	0x3d5aa462	0.053379424
168	0x3ded304b	0.11581477
169	0xbd1fd349	-0.039019857
170	0x3e84fb14	0.25972807
171	0x3def22d0	0.11676562
172	0xbdfb10ae	-0.12259041
173	0x3e187d94	0.14891654
174	0xbda36d7f	-0.07979869
175	0xbd9b0c35	-0.07570688
176	0x3e942b0f	0.289391
177	0xbce74336	-0.02823029
178	0xbd927a4c	-0.071522325
179	0x3eb3e7b6	0.3513772
180	0x3ddb6a8b	0.10713681
181	0xbea7dfdb	-0.32787976
182	0xbdde11f7	-0.1084327
183	0x3d6d3bc7	0.057918336
184	0xbde1241d	-0.10993216
185	0xbe991f97	-0.29906914
186	0x3e806f21	0.25084785
187	0x3e3338d6	0.1750215
188	0x3d4b3472	0.049610563
189	0xbd3fe2ca	-0.046847142
190	0xbe1d0df7	-0.15337358
191	0x3e928bc4	0.28622258
192	0xbe336dac	-0.17522305
193	0x3dc89fae	0.097960815
194	0x3d205e59	0.039152477
195	0x3e19ae51	0.15007903
196	0xbe098c49	-0.13432421
197	0xbdb86e35	-0.09005395
198	0x3d3b191a	0.045678236
199	0xbe740b8c	-0.2383253
200	0xbc7c552f	-0.015401169
201	0xbeb50797	-0.35357353
202	0x3e615bc4	0.22007662
203	0x3d726066	0.059173964
204	0xbe6a96b7	-0.22909056
205	0xbe7d7fc6	-0.24755773
206	0x3e02b3d8	0.12763917
207	0x3d604064	0.054748908
208	0xbddc6834	-0.10762063
209	0x3dbee683	0.0932131
210	0xbda5d893	-0.08097949
211	0x3d1a9cc6	0.037747167
212	0x3d8f574e	0.06999074
213	0xbcffdc65	-0.031233022
214	0x3e3f4530	0.18678737
215	0xbec8ff1d	-0.39257136
216	0xbe6c3995	-0.23068841
217	0x3c20ad59	0.009806954
218	0xbd452aed	-0.04813664
219	0xbed6c47b	-0.41946778
220	0x3df38246	0.11890082
221	0xbe4050e7	-0.18780862
222	0xbc8a18eb	-0.016857585
223	0xbe970f45	-0.29503837
224	0xbd572af2	-0.05253119
225	0x3d5de653	0.054174732
226	0xbeb98569	-0.36234596
227	0xbed01d2c	-0.40647256
228	0xbe1388c9	-0.14407648
229	0xbe5471f4	-0.20746595
230	0xbe40c4b5	-0.18825038
231	0x3da4ea87	0.08052545
232	0x3e6021da	0.21887913
233	0xbe49168d	-0.19637509
234	0x3e927506	0.28604907
235	0xbe21f324	-0.15815407
236	0xbcf63ed9	-0.030059265
237	0xbd802476	-0.06256954
238	0xbd572f89	-0.052535567
239	0xbdc58e6d	-0.09646306
240	0x3bd4d8bd	0.006495564
241	0x3d84d264	0.06485441
242	0xbe0b7302	-0.13618091
243	0x3ed50f68	0.41613317
244	0x3df0ccdf	0.11757826
245	0xbf02b071	-0.5105048
246	0xbeba8650	-0.36430597
247	0x3e39e2f2	0.18152979
248	0xbc0ebbc5	-0.00871176
249	0xbec0067e	-0.37504953
250	0xbe0f5b60	-0.139997
251	0x3e83aa0b	0.2571567
252	0x3daa5449	0.08316857
253	0xbddd3f75	-0.10803119
254	0x3d4367ae	0.0477063
255	0x3e6b0218	0.22950017

fc_2.bias f4 [64]
0	0x3d96e3c6	0.07367663
1	0x3e5e6306	0.21717462
2	0xbe14f74f	-0.14547466
3	0x3c5aaaf8	0.013346426
4	0x3d5222ca	0.05130271
5	0xbc3bf7d1	-0.011472658
6	0xbe0313e5	-0.12800558
7	0xbd06646a	-0.032810606
8	0xbdb756a0	-0.08952069
9	0x3e0cd4c9	0.13753046
10	0x3e825188	0.25452828
11	0xbdb083d1	-0.08618892
12	0x3e7a35ae	0.2443454
13	0x3defc19b	0.11706849
14	0x3e2c4e7a	0.16826811
15	0xbeaa4230	-0.33253622
16	0x3c330282	0.010925891
17	0x3e70c3e1	0.23512222
18	0x3de947ed	0.11390672
19	0xbd1c6ab7	-0.03818771
20	0xbdb07d4e	-0.0861765
21	0xb9d58f4e	-0.00040733296
22	0x3e5a738b	0.21333139
23	0x3d02d6f9	0.031943295
24	0x3dbe8efa	0.09304614
25	0x3e4c9b3e	0.19981095
26	0x3d87cfd4	0.06631437
27	0x3e6599e2	0.22421983
28	0xbdde1e65	-0.10845641
29	0x3dd03b3d	0.10167549
30	0xbe1710e0	-0.14752531
31	0xbe1caf4c	-0.15301245
32	0xbbcef7b3	-0.006316149
33	0xbe481493	-0.19539098
34	0xbda46a40	-0.08028078
35	0xbe44604c	-0.1917736
36	0x3e4f274d	0.20229836
37	0xbdb2e685	-0.08735374
38	0xbdf7d933	-0.12101974
39	0x3ddd727d	0.108128525
40	0xbd9912f8	-0.07474321
41	0xbdd32e8d	-0.10311613
42	0x3dc3c8d4	0.09559789
43	0x3dd65097	0.1046459
44	0x3ea4d8df	0.3219671
45	0xbd922a8e	-0.07137023
46	0x3ca9af18	0.020713374
47	0xbdab27e0	-0.08357215
48	0x3e00602e	0.1253669
49	0x3cd9ccd9	0.026586937
50	0xbd82a8e0	-0.063798666
51	0xbc99123e	-0.018685456
52	0xbe617306	-0.22016534
53	0xbe0ef0eb	-0.1395909
54	0x3e1f3d40	0.15550709
55	0x3df5c20d	0.11999903
56	0x3c3cc155	0.011520703
57	0x3dfb5c85	0.12273506
58	0x3dce7807	0.10081487
59	0xbbdcae14	-0.006734619
60	0x3bae2964	0.0053149927
61	0x3d8200d7	0.063478164
62	0x3e399e7a	0.1812686
63	0xbda0f72b	-0.078596435

fc_mu.weight f4 [1, 64]
0	0x3c9ff8e9	0.01952787
1	0xbe887f7b	-0.2665976
2	0x3e679e97	0.22619091
3	0x3d944909	0.07240493
4	0xbe267cef	-0.16258596
5	0x3beb050f	0.007172234
6	0x3ea2d033	0.31799468
7	0x3b50a20d	0.003183487
8	0xbb8aa084	-0.0042305607
9	0xbd110212	-0.035402365
10	0x3b9e1b80	0.0048250556
11	0xbfb56c35	-1.4173647
12	0xbbe3f679	-0.006956872
13	0xbe76ffb1	-0.24120976
14	0x4010c69f	2.2621229
15	0xbee958ed	-0.45575657
16	0x3ee56f9e	0.4481172
17	0xbe6f8ad0	-0.23392797
18	0x3ea5fbdf	0.32418725
19	0xbee4be93	-0.44676647
20	0x3e92bb55	0.28658548
21	0x3e0999c4	0.13437563
22	0x3e11a7c3	0.14224152
23	0x3f11217a	0.56691706
24	0x3deb2526	0.11481695
25	0x3e9cf6e1	0.30657104
26	0x3f47d8fa	0.78065455
27	0x3d8a27d4	0.06745878
28	0x3e14913d	0.14508529
29	0x3f9c3af1	1.2205487
30	0xbf12e49b	-0.57380074
31	0x3b98f862	0.0046682814
32	0xbde7669c	-0.11298868
33	0xbeb3ba64	-0.35103142
34	0x3f88e6af	1.0695399
35	0x3c058e6a	0.00815163
36	0x3e1a72a7	0.15082799
37	0x3c03e205	0.008049493
38	0x3b97efe7	0.004636753
39	0x3f7b558c	0.9817741
40	0x3bab9f93	0.0052375286
41	0xbc765e7b	-0.015037174
42	0xbf7d72ef	-0.990035
43	0xbd965b99	-0.073416896
44	0xbdc6e8dc	-0.09712383
45	0xbf5f4981	-0.87221533
46	0x3f760c9a	0.9611298
47	0xbeb83737	-0.35979626
48	0x3dacd8f5	0.08439819
49	0x3b52e0a2	0.0032177349
50	0xba8b4f74	-0.0010628537
51	0x3debc705	0.11512569
52	0x3f704903	0.9386141
53	0x3af12b73	0.001839979
54	0x3e67a1ff	0.2262039
55	0x3dad5796	0.08463971
56	0xbf55e38f	-0.8355035
57	0x3e471b6d	0.19444056
58	0x3f2f88c1	0.68568045
59	0x3f4650b5	0.774669
60	0xbb79df87	-0.0038127617
61	0xbeecb0b5	-0.46228567
62	0x3fb451a4	1.4087415
63	0x3cecfe26	0.028929781

fc_std.weight f4 [1, 64]
0	0xbebbd988	-0.366894
1	0xbdbbcb8c	-0.09169683
2	0xbe1864cd	-0.14882202
3	0x3eb9fefe	0.36327356
4	0x3d366ba2	0.04453624
5	0xbdc5e071	-0.096619494
6	0xbecf0c2d	-0.40438977
7	0xbe344a55	-0.1760648
8	0x3d3d0336	0.04614564
9	0xbe636b75	-0.2220896
10	0xbe09bbcb	-0.13450544
11	0x3f2bac7f	0.67060083
12	0xbee00c37	-0.4375932
13	0x3e862c34	0.262056
14	0x3f81dfce	1.0146425
15	0x3eaf50bb	0.3424128
16	0xbdda706c	-0.10665974
17	0x3c9626f9	0.01832913
18	0xbcf1bccb	-0.029508969
19	0xbd36e1e6	-0.044649027
20	0xba0a7d67	-0.00052829686
21	0x3f5fa654	0.8736317
22	0xbf04736c	-0.5173862
23	0x3ec84a0b	0.3911899
24	0xbd2769df	-0.04087245
25	0xbeabb539	-0.335367
26	0xbe07261d	-0.13198133
27	0xbef3ad3e	-0.4759311
28	0x3eca0bfd	0.3946227
29	0x3f5fd400	0.8743286
30	0x3e05833d	0.13038345
31	0x3e4861ec	0.19568604
32	0xbdafcb95	-0.08583752
33	0x3e1ac096	0.15112528
34	0xbf207401	-0.6267701
35	0x3e72180f	0.2364199
36	0xbeea5b11	-0.45772603
37	0x3dfa27b2	0.122146025
38	0x3df96007	0.12176519
39	0x3f28f704	0.66001916
40	0x3e72cbc0	0.23710537
41	0xbee805f7	-0.4531705
42	0x3f287c76	0.6581491
43	0xbea7c7b2	-0.32769543
44	0xbee257e2	-0.44207674
45	0x3ea92a2e	0.33039993
46	0x3e9c79ed	0.30561772
47	0x3d6f221a	0.05838213
48	0xbe3807c9	-0.1797172
49	0x3e011c17	0.12608372
50	0x3daa3112	0.08310141
51	0x3dbc71df	0.09201407
52	0xbe48fd3f	-0.19627856
53	0x3de17963	0.11009481
54	0x3e22fe85	0.15917404
55	0xbf043a3d	-0.51651365
56	0x3f0a3b08	0.53996325
57	0xbbdbb40d	-0.0067048133
58	0x3ef038ac	0.46918237
59	0x3b2de1c5	0.0026532274
60	0xbd9b1700	-0.07572746
61	0x3ec44a7a	0.3833807
62	0x3f022bde	0.50848186
63	0xbd642e8c	-0.055708453
