Pendulum_SAC/saved_model/0404/sac_actor_EP410.pt (torch, 20559 bytes, 6 tensors)

fc_1.weight f4 [64, 3]
0.63032144 -0.6199188 -0.46331978 -0.0006220755 -0.9400405 -0.33857855 -0.74416107 0.6132389
0.46681818 -0.28307858 0.25789377 -0.06775349 0.14173234 -0.37312195 0.8204406 0.2468176
-1.5420637 -0.5050703 -0.2502902 0.88130516 -0.22501028 -0.55655223 -1.0898869 -0.3278755
1.0176375 -0.37162295 -0.357018 0.83955234 -1.4053837 -0.50563186 0.24346155 0.9942383
-0.355571 -0.07461189 0.6870229 -0.1588738 -0.25716513 -1.1173016 -0.17166394 0.17221108
-0.06450336 0.0012302492 0.077325486 1.5075425 0.59786296 0.2612739 -0.18420519 -0.30109546
0.12664177 -0.879317 -0.027902838 0.55853504 1.7704104 -0.033826284 -1.2653799 -0.17324424
0.024009524 -0.060667362 1.4896648 0.26255482 -0.34191754 -2.108682 -0.38133368 -0.4461788
-0.11212162 -0.30917174 -0.2501622 1.1458913 0.15635696 0.3908092 -1.0567847 -0.37145847
-0.738531 -1.0654533 0.00183067 0.64976364 -0.7566318 0.042801373 0.48448506 1.104807
0.13827258 -0.4754484 -2.1661503 -0.39058143 -0.15875697 0.9209652 0.78074855 -0.16732061
-0.9112607 -0.20542245 0.070283435 -1.5063184 -0.43889126 -0.7562615 -0.22243592 0.17829867
-0.8895755 -0.058017332 -0.025289787 0.3917493 0.09941703 0.04707226 0.15449327 -0.99648714
-0.31829205 0.81249946 -1.503861 -0.3901751 -0.09126747 0.00016987916 -1.0107453 0.18762968
-1.652113 -0.14012028 -0.668154 -0.17498602 -0.27043226 -0.6952952 0.75951034 0.29518285
-0.69641334 0.25132477 -0.054679204 0.8089832 -0.93342996 -0.28009906 -0.3182333 1.943032
0.35105214 -0.2240884 0.6150851 -0.4141778 -0.6740196 -0.7529804 0.1052706 0.5376778
0.10940714 -0.64527607 0.94245416 -0.6967904 0.47384036 0.0070681083 -0.13556474 -0.6708894
-1.0178884 -0.026252965 -0.19208775 0.4499738 1.4377007 0.4769045 1.1137097 0.018520968
0.43259573 0.08076831 -0.15590091 -0.19746518 -0.60728145 0.7579082 -0.13015203 0.8015048
-0.36783245 -0.33888802 0.560164 -0.08596322 -0.3693268 0.8633742 1.4408363 0.4229948
-1.3202589 0.39824024 -0.066989295 -1.1969329 -0.1638129 0.03473481 -1.1549387 -0.96216536
-0.1726734 -0.071787424 0.5647447 -0.66023576 0.049639374 -1.6114234 -0.58783615 0.0027444325
-0.03216176 0.14248943 0.0015942156 -1.7845032 -0.574267 0.104292 1.0376655 -0.30057418
00000000: bf5c 213f 00b3 1ebf 4038 edbe c812 23ba
00000010: 7fa6 70bf 2b5a adbe 5781 3ebf 39fd 1c3f
00000020: cb02 ef3e adef 90be a70a 843e 57c2 8abd
00000030: 4822 113e d709 bfbe 6508 523f c1bd 7c3e
00000040: 5862 c5bf 4a4c 01bf 0926 80be 379d 613f
00000050: 1869 66be 357a 0ebf 6a81 8bbf 4cdf a7be
00000060: f241 823f 5d45 bebe 10cb b6be e7ec 563f
00000070: 9de3 b3bf 1771 01bf fc4d 793e 6786 7e3f
00000080: 670d b6be 1ece 98bd bce0 2f3f d0af 22be
00000090: 26ab 83be bd03 8fbf acc8 2fbe 1a58 303e
000000a0: 561a 84bd 5040 a13a d35c 9e3d 27f7 c03f
000000b0: 8c0d 193f b1c5 853e 49a0 3cbe 2f29 9abe
000000c0: 61ae 013e eb1a 61bf 7e94 e4bc 27fc 0e3f
000000d0: cf9c e23f 6e8d 0abd f8f7 a1bf f066 31be
000000e0: 9faf c43c 577e 78bd 56ad be3f 966d 863e
000000f0: d10f afbe a5f4 06c0 2b3e c3be 8c71 e4be
00000100: 05a0 e5bd c24b 9ebe 4315 80be 91ac 923f
00000110: 0a1c 203e 2518 c83e b944 87bf ce2f bebe
00000120: 5e10 3dbf c660 88bf 18f3 ef3a e956 263f
00000130: 9fb2 41bf 7e50 2f3d 6d0e f83e 516a 8d3f
00000140: 5497 0d3e f96d f3be 35a2 0ac0 4afa c7be
00000150: 3091 22be 60c4 6b3f 23df 473f 1856 2bbe
00000160: 6248 69bf 435a 52be c3f0 8f3d 0bcf c0bf
00000170: 5bb6 e0be 5b9a 41bf 3ec6 63be ed93 363e
00000180: 38bb 63bf 95a3 6dbd 872c cfbc 5d93 c83e
00000190: 289b cb3d d8ce 403d 7c33 1e3e c819 7fbf
000001a0: 2df7 a2be f7ff 4f3f 847e c0bf 08c5 c7be
000001b0: 70ea babd 9721 3239 1a60 81bf ff21 403e
000001c0: 7078 d3bf b17b 0fbe 240c 2bbf 892f 33be
000001d0: 1976 8abe defe 31bf 456f 423f 3522 973e
000001e0: 2548 32bf a4ad 803e 4df7 5fbd 8619 4f3f
000001f0: 44f5 6ebf 2569 8fbe 7aef a2be 46b5 f83f
00000200: 1bbd b33e 6e77 65be 3876 1d3f 1d0f d4be
00000210: 8c8c 2cbf 53c3 40bf 1d98 d73d 41a5 093f
00000220: da10 e03d d030 25bf ad44 713f db60 32bf
00000230: 349b f23e 979b e73b 7cd1 0abe 68bf 2bbf
00000240: 2b4a 82bf 7510 d7bc a7b2 44be f762 e63e
00000250: 9406 b83f d42c f43e 0a8e 8e3f 49b9 973c
00000260: 307d dd3e db69 a53d 7da4 1fbe 5034 4abe
00000270: cc76 1bbf 4606 423f 9346 05be 6b2f 4d3f
00000280: 8954 bcbe bb82 adbe e866 0f3f 7c0d b0bd
00000290: 6718 bdbe 1706 5d3f 536d b83f c692 d83e
000002a0: 3efe a8bf 25e6 cb3e af31 89bd 1935 99bf
000002b0: 92be 27be 1746 0e3d 08d5 93bf 7850 76bf
000002c0: 4cd1 30be 4905 93bd 1c93 103f 3605 29bf
000002d0: a852 4b3d 1f43 cebf 6e7c 16bf f0db 333b
000002e0: 0dbc 03bd c0e8 113e 00f5 d03a 9a6a e4bf
000002f0: 2a03 13bf 0b97 d53d 39d2 843f dce4 99be

fc_1.bias f4 [64]
-0.43709415 -0.038439382 -0.11277337 -0.009048188 -0.5940283 0.1599059 0.3222356 0.19433433
-1.0344347 -0.8151158 -0.35561705 0.13021241 0.31216758 -0.2153881 -0.018094065 -0.55720806
-0.3153173 0.06956505 -0.13680425 0.13232145 -0.42277068 -0.31866693 0.29474342 -0.09833106
0.34533948 0.06646214 -0.110463776 -0.4489796 -0.34317425 -0.1075815 -0.025858592 -0.937785
0.4985672 -0.14565282 0.0878844 -0.3499853 0.21013975 -0.113691576 -0.8882996 -0.21663693
0.47708 -0.49624264 -0.44530156 -0.6602954 0.34475467 -0.47091937 -0.6583848 0.0835638
-0.6488815 -0.43726552 -1.1164454 -0.4357391 0.11474706 -1.1289923 -1.5026938 -0.5340557
0.16967258 -0.14873885 -0.5055977 -0.62156385 -0.00019406117 -0.09681011 -0.093380705 0.00058596587
00000000: ceca dfbe 9d72 1dbd baf5 e6bd da3e 14bc
00000010: 3d12 18bf 5fbe 233e 11fc a43e 94ff 463e
00000020: 5b68 84bf 6eab 50bf 7013 b6be 6756 053e
00000030: 6ed4 9f3e b38e 5cbe 013a 94bc 30a5 0ebf
00000040: 4571 a1be 1f78 8e3d 6a16 0cbe 467f 073e
00000050: 6675 d8be 5028 a3be 9ce8 963e cb61 c9bd
00000060: 56d0 b03e 4d1d 883d d53a e2bd a7e0 e5be
00000070: 89b4 afbe b153 dcbd 66d5 d3bc ae12 70bf
00000080: 3344 ff3e 0326 15be bcfc b33d 4631 b3be
00000090: e02e 573e 21d7 e8bd 9a67 63bf 12d6 5dbe
000000a0: d443 f43e 8413 febe 91fe e3be 1f09 29bf
000000b0: af83 b03e 581c f1be e88b 28bf 7f23 ab3d
000000c0: 191d 26bf 44e1 dfbe afe7 8ebf 3219 dfbe
000000d0: 8200 eb3d d282 90bf 4558 c0bf e0b7 08bf
000000e0: a6be 2d3e ff4e 18be da6e 01bf cf1e 1fbf
000000f0: e67c 4bb9 6144 c6bd 623e bfbd 819b 193a

fc_2.weight f4 [64, 64]
0.3155677 0.28380272 -1.2556511 -0.42616394 0.13632087 0.2903419 -0.30897298 0.010836429
0.4097123 0.36716935 -0.24433716 -0.25401774 0.082732916 -0.14082 -0.46105254 0.042825084
0.4776925 -0.22067322 -1.3876809 -0.23511088 0.34829164 -0.093807615 -0.1029178 0.16742375
-0.3367713 0.15379599 -0.1088853 0.21034396 -0.07072523 0.008004299 0.31623918 -0.19095252
-0.5645793 0.07597153 0.28339776 0.17281175 0.030180052 0.34951007 -0.87200534 -0.19714384
-0.20008697 0.3377587 -0.4074949 -0.2035933 -0.27786022 0.09431015 -0.034392513 0.005055368
-1.0528419 -1.5138547 0.32990476 -0.2042281 -0.24036524 0.18348232 -0.008437781 -0.64597774
-1.4850495 -1.2574457 -1.7009147 -0.1916132 0.27938086 -0.015097257 0.29601556 -0.1406335
0.029588753 -0.12328342 -0.20738125 -0.07265871 0.47072792 0.085480936 -0.64458877 0.12081553
-0.3583302 -0.1218099 -0.5775087 -0.13514051 0.24934402 0.35119665 -0.1269228 -0.19937755
0.3322988 -0.30291864 -0.67050743 -0.39688775 -0.14503415 -0.42475894 -0.6879734 0.056014344
0.0020275472 0.4135364 -0.08488341 -0.16270046 -1.4868609 -0.3821828 -0.98471344 -0.5858371
-0.5081829 0.121870406 0.058708534 0.09045525 -0.34178185 0.276148 -0.25200012 -0.94802445
-0.30509436 0.0514743 -1.674567 -0.46911544 0.04257969 -0.19359383 0.46538183 -0.1876257
-0.18847467 0.09910537 0.5164713 0.012824855 -0.22666346 -0.61314654 -0.1610112 0.18857735
-0.30966377 0.16708636 0.081420444 -0.19087228 -1.073045 0.5025794 -0.44848734 -1.3308586
0.041220807 -0.09700967 0.12331063 0.3082565 0.23004761 -0.029728215 0.039068203 -0.8279214
0.045731485 -0.41296417 0.2636525 -0.20527057 -1.0283397 -0.089600004 0.055239994 0.2044263
1.0459229 0.18453616 -0.58183235 -0.052558225 -2.0759034 -0.1222378 -0.022880359 -0.34582117
-0.77459455 0.038789414 0.043703463 -0.6547752 0.18646929 -0.6552239 0.16389224 0.075278044
-0.47747305 -0.495207 -0.28326985 -0.4364524 -0.2582003 -0.2794513 -0.60003304 0.06143104
-0.12321921 -0.12522304 0.3296555 0.20899054 -0.32557318 -0.018941503 0.07148855 -0.22068731
0.2737343 0.10105137 0.23500834 0.36713505 0.40218616 -0.36113483 -0.07887262 0.20298934
-0.6830675 -0.6675584 0.53901494 0.18394421 -0.009379423 0.016874485 -0.392116 0.31085187
-0.2142147 0.02949183 0.035761792 0.30383605 -0.16660814 -0.27455702 0.11131128 -0.29062626
-0.1927404 -1.0526295 0.35084948 0.07545902 -0.45717308 -0.11085419 0.09088689 0.049223024
1.4269377 0.33590472 -0.26802674 0.09461761 0.32608718 -0.06828443 0.22206546 -0.7546552
-0.48157278 0.23976277 -0.024612185 -0.8877517 0.092360266 -0.19612876 -0.2587927 -0.4356978
-0.08833052 0.23602206 -0.7207758 -0.7907424 -0.23763359 -0.50471205 0.16556798 0.06193127
0.29906264 -0.7804738 0.28664115 -0.1776038 -0.17131762 -0.08866677 0.041976046 -0.17657356
0.25121632 0.039810713 -0.12377003 0.26692492 0.32945856 -1.7116057 -1.010644 0.09324038
-0.03658701 -0.5003814 -0.48130664 0.3149415 -0.14856645 -0.14533737 -0.3466329 0.34508073
00000000: 1792 a13e 974e 913e 2db9 a0bf 2932 dabe
00000010: b397 0b3e b2a7 943e b531 9ebe 478b 313c
00000020: d0c5 d13e 9ffd bb3e 8533 7abe 9d0e 82be
00000030: e06f a93d 1e33 10be 140f ecbe 5b69 2f3d
00000040: 1d94 f43e 29f8 61be 879f b1bf e8c0 70be
00000050: 4853 b23e 351e c0bd 91c6 d2bd 2271 2b3e
00000060: 4a6d acbe b27c 1d3e 42ff debd 6864 573e
00000070: 64d8 90bd 7724 033c 1aea a13e 0f89 43be
00000080: 4588 10bf f696 9b3d 8319 913e 90f5 303e
00000090: 283c f73c fcf2 b23e be3b 5fbf 13e0 49be
000000a0: 99e3 4cbe b5ee ac3e 2ca3 d0be c37a 50be
000000b0: b243 8ebe ae25 c13d 2adf 0cbd 80a7 a53b
000000c0: 86c3 86bf fec5 c1bf 47e9 a83e 2c21 51be
000000d0: 4e22 76be cae2 3b3e 9e3e 0abc cc5e 25bf
000000e0: 1a16 bebf fbf3 a0bf 93b7 d9bf 4036 44be
000000f0: 020b 8f3e 7c5a 77bc 5a8f 973e 3a02 10be
00000100: 1d64 f23c 057c fcbd c05b 54be 17ce 94bd
00000110: 4003 f13e a110 af3d c503 25bf 226e f73d
00000120: 0e77 b7be 7877 f9bd 9cd7 13bf 4662 0abe
00000130: 0a54 7f3e 0cd0 b33e 0df8 01be a129 4cbe
00000140: 1123 aa3e 2718 9bbe 60a6 2bbf df34 cbbe
00000150: d583 14be 017a d9be 061f 30bf 4c6f 653d
00000160: 99e0 043b 0bbb d33e 5ad7 adbd f39a 26be
00000170: 7551 bebf 77ad c3be 2e16 7cbf 6cf9 15bf
00000180: 4618 02bf 3197 f93d 5c78 703d 9a40 b93d
00000190: 08fe aebe 4563 8d3e 2906 81be bbb1 72bf
000001a0: 5435 9cbe b7d6 523d 3658 d6bf e62f f0be
000001b0: 0b68 2e3d 763d 46be 8746 ee3e f420 40be
000001c0: 81ff 40be c2f7 ca3d 7737 043f 571f 523c
000001d0: 771a 68be 2cf7 1cbf 1fe0 24be 6c1a 413e
000001e0: 408c 9ebe b018 2b3e c3bf a63d 0674 43be
000001f0: 8a59 89bf 0ba9 003f 22a0 e5be 9359 aabf
00000200: 26d7 283d 02ad c6bd 498a fc3d ccd3 9d3e
00000210: 9a91 6b3e 9688 f3bc fb05 203d a8f2 53bf
00000220: f050 3b3d 0a70 d3be 76fd 863e 7332 52be
00000230: a3a0 83bf 3580 b7bd 5543 623d 2155 513e
00000240: cde0 853f 0cf7 3c3e f7f2 14bf 4b47 57bd
00000250: 9adb 04c0 d057 fabd 976f bbbc 790f b1be
00000260: d44b 46bf a6e1 1e3d 6702 333d 599f 27bf
00000270: cef1 3e3e c1bc 27bf 5ed3 273e 602b 9a3d
00000280: 5977 f4be c68b fdbe bf08 91be b076 dfbe
00000290: d432 84be 3e14 8fbe c49b 19bf 1d9f 7b3d
000002a0: 5a5a fcbd 783a 00be 9bc8 a83e 9e01 563e
000002b0: 87b1 a6be 362b 9bbc 9768 923d dbfb 61be
000002c0: e726 8c3e 05f4 ce3d 07a6 703e 20f9 bb3e
000002d0: 58eb cd3e aae6 b8be f887 a1bd 70dc 4f3e
000002e0: 83dd 2ebf 1be5 2abf e2fc 093f df5b 3c3e
000002f0: 27ac 19bc 5c3c 8a3c 6ec3 c8be fa27 9f3e
00000300: 195b 5bbe da98 f13c f57a 123d 6690 9b3e
00000310: 539b 2abe bd92 8cbe 2bf7 e33d f7cc 94be
00000320: bd5d 45be 90bc 86bf 8ba2 b33e 428a 9a3d
00000330: 9712 eabe 8607 e3bd e822 ba3d 159e 493d
00000340: e5a5 b63f b4fb ab3e cd3a 89be e1c6 c13d
00000350: e6f4 a63e b5d8 8bbd 2165 633e 1531 41bf
00000360: b590 f6be 5f84 753e 7e9f c9bc b243 63bf
00000370: 6127 bd3d fad5 48be 7a80 84be c813 dfbe
00000380: a2e6 b4bd c4af 713e c384 38bf 186e 4abf
00000390: 3856 73be cf34 01bf a78a 293e a5ab 7d3d
000003a0: bd1e 993e 22cd 47bf a1c2 923e c5dd 35be
000003b0: e36d 2fbe ec96 b5bd 13ef 2b3d b3cf 34be
000003c0: 6d9f 803e 8f10 233d 247b fdbd 62aa 883e
000003d0: cbae a83e e515 dbbf c85c 81bf d0f4 be3d
000003e0: 43dc 15bd ff18 00bf d36d f6be 0340 a13e
000003f0: ce21 18be 52d3 14be de79 b1be 6cae b03e

fc_2.bias f4 [64]
0.098391816 0.19809996 -0.4938716 0.013321339 0.096485384 0.02223255 -0.20717016 0.11201976
-0.1428427 0.03862113 0.3520061 -0.09959661 0.32737154 0.013091706 0.06648926 -0.34223348
0.12991786 0.3755511 0.13758391 -0.14707829 -0.24628711 0.11529937 0.27491003 0.067024685
0.034825895 0.14785649 0.10445243 0.10574132 -0.09125287 0.053497083 -0.09725072 -0.1270215
-0.056795526 -0.16765788 -0.06887271 -0.10463937 0.19632688 -0.18874383 -0.26877427 0.038156327
-0.13276711 -0.1329574 0.107948385 0.18460527 0.41721603 0.044918165 -0.00057922205 -0.034460347
0.1965435 -0.19591758 -0.13890089 -0.0889144 -0.22425593 -0.17932145 0.025440848 0.15922625
-0.040807348 0.0015750101 0.1687214 0.015286762 -0.107452236 0.075931475 0.21595123 -0.4014751
00000000: a681 c93d b7da 4a3e bddc fcbe bf41 5a3c
00000010: 219a c53d 0921 b63c 6a24 54be 9e6a e53d
00000020: 5b45 12be 3131 1e3d 253a b43e 4ff9 cbbd
00000030: 3e9d a73e 987e 563c 852b 883d 3a39 afbe
00000040: 3009 053e 3c48 c03e cce2 0c3e b19b 16be
00000050: b032 7cbe 1322 ec3d 02c1 8c3e 3d44 893d
00000060: 99a5 0e3d b167 173e 28eb d53d e88e d83d
00000070: c9e2 babd c21f 5b3d 632b c7bd ed11 02be
00000080: 6da2 68bd 82ae 2bbe 230d 8dbd 2b4d d6bd
00000090: ea09 493e 1046 41be c89c 89be cf49 1c3d
000000a0: 1af4 07be fc25 08be 0b14 dd3d 2a09 3d3e
000000b0: 579d d53e 1cfc 373d efd6 17ba 4b26 0dbd
000000c0: b342 493e 9e9e 48be 093c 0ebe c118 b6bd
000000d0: 59a3 65be 0ba0 37be 5369 d03c 350c 233e
000000e0: 9b25 27bd 9270 ce3a 4dc5 2c3e 5475 7a3c
000000f0: eb0f dcbd f681 9b3d 5222 5d3e 258e cdbe

fc_mu.weight f4 [1, 64]
0.3182762 -0.2524152 0.18662958 0.1375407 0.08910995 -2.3242342 0.1809215 -0.0576434
0.001195763 -0.0033518395 -0.30971247 -1.5963484 0.002657327 -0.0827137 3.33979 -0.20737424
0.68161434 -0.44144195 0.47677734 -0.6561063 -0.0005754554 0.8521937 0.8605772 1.3544022
0.14229414 0.17879604 0.7393058 -0.01400586 0.9713284 1.7457161 -0.93285483 -0.7872968
-0.17991027 -0.123285286 1.3514683 0.40676615 -0.008071305 -0.004516265 0.1322053 0.96852374
0.0030451778 -0.026584016 -2.006136 -0.03396466 -0.00879552 -0.87896746 1.3651478 -0.43386418
0.13878398 -0.0009568745 -0.007552812 0.4843443 1.24267 -0.02185839 0.0043679103 0.25086015
-1.6061342 1.3458068 0.60542405 1.1394032 0.0071097575 -0.14416845 1.5807561 -0.54935604
00000000: 19f5 a23e 913c 81be d31b 3f3e 78d7 0c3e
00000010: 477f b63d 41c0 14c0 7c43 393e 7c1b 6cbd
00000020: 26bb 9c3a 89aa 5bbb a292 9ebe 2555 ccbf
00000030: 8d26 2e3b cd65 a9bd 1fbf 5540 ea59 54be
00000040: 477e 2e3f ae04 e2be 291c f43e 95f6 27bf
00000050: 28da 16ba 5e29 5a3f ca4e 5c3f 0d5d ad3f
00000060: 8eb5 113e 4f16 373e 2543 3d3f d678 65bc
00000070: faa8 783f a073 df3f 93cf 6ebf 488c 49bf
00000080: 663a 38be ff7c fcbd eafc ac3f a743 d03e
00000090: 823d 04bc 2dfd 93bb d360 073e 2cf1 773f
000000a0: 9b91 473b b9c6 d9bc 8864 00c0 871e 0bbd
000000b0: 161b 10bc 0304 61bf 2abd ae3f 7223 debe
000000c0: 631d 0e3e c3d6 7aba 947d f7bb fafb f73e
000000d0: d00f 9f3f 5e10 b3bc b020 8f3b be70 803e
000000e0: ce95 cdbf 6643 ac3f 12fd 1a3f f7d7 913f
000000f0: f8f8 e83b e5a0 13be 3756 ca3f 99a2 0cbf

fc_std.weight f4 [1, 64]
-0.2218064 -0.48292416 -0.2559679 0.38684228 -0.18046442 0.626862 -0.29588103 -0.8140116
-0.020035723 -0.4318496 -0.033012796 0.837009 -0.25569493 -0.010460606 1.9577495 0.34247217
-0.0038386039 0.004096926 -0.17327629 -0.32296416 -0.39649752 1.1056905 -1.3408784 0.9497426
-0.037249114 -0.19408631 -1.1922328 -0.47261578 0.6331483 0.54800504 0.66376275 0.42982626
-0.06421734 0.04431195 0.19289324 0.4565109 -0.42513382 0.08364832 0.44043678 0.23402373
-0.029239837 -1.0935684 1.5824515 -1.1677814 -0.58992445 -0.34979555 -0.07977214 0.5031996
-0.24325666 0.107532054 0.014918423 0.4646411 -0.54514414 0.4930491 -0.31491095 -0.22793719
0.91303337 0.085852206 0.46658897 -0.14627363 0.030484222 0.3130903 0.5262251 0.3083839
00000000: 3821 63be d641 f7be 390e 83be 3110 c63e
00000010: aacb 38be 077a 203f b87d 97be 1063 50bf
00000020: f521 a4bc 641b ddbe 6d38 07bd 3946 563f
00000030: 72ea 82be f662 2bbc 8997 fa3f 8358 af3e
00000040: 1691 7bbb 823f 863b 576f 31be 8f5b a5be
00000050: b901 cbbe 4487 8d3f e7a1 abbf 5522 733f
00000060: 8792 18bd 90be 46be 169b 98bf b2fa f1be
00000070: 0216 223f 0f4a 0c3f 5bec 293f 3012 dc3e
00000080: 6184 83bd 7380 353d ce85 453e ccbb e93e
00000090: 24ab d9be cf4f ab3d ee80 e13e eba3 6f3e
000000a0: 6288 efbc 0dfa 8bbf c58d ca3f dc79 95bf
000000b0: 4a05 17bf 6718 b3be 935f a3bd b0d1 003f
000000c0: 4618 79be c439 dc3d 676c 743c 70e5 ed3e
000000d0: 918e 0bbf ee70 fc3e 023c a1be 5e68 69be
000000e0: 8ebc 693f 48d3 af3d c0e4 ee3e c1c8 15be
000000f0: 0cba f93c 5f4d a03e b0b6 063f 7fe4 9d3e
