Pendulum_SAC/saved_model/0404/sac_actor_EP140.pt (torch, 20559 bytes, 6 tensors)

fc_1.weight f4 [64, 3]
0.54874265 -0.11320251 -0.4703835 -0.104604535 -0.7580923 -0.4615861 -0.673064 0.47308928
0.44601414 -0.34876126 0.5383141 -0.060512953 0.31852454 -0.925856 0.44178137 0.18629965
-1.3076558 -0.48975047 -0.14022085 0.7799543 -0.06414377 -0.37742746 -1.2547926 -0.37693745
0.80385333 0.093039155 -0.35297355 0.7368662 -1.2291286 -0.5481409 0.3327315 0.91749865
-0.21430908 -0.21623275 0.36301458 -0.051100507 -0.3082112 -0.95183223 -0.1326339 0.19355987
-0.062360674 0.033899046 0.072562166 1.09272 0.64821976 0.04238562 -0.016332313 -0.6503925
0.09674612 -0.9583062 0.039441213 0.55716825 1.7196665 0.13790113 -0.84565 -0.06885166
-0.079363264 -0.1437868 1.3041893 0.21486391 -0.23859881 -1.8301798 -0.37631842 -0.46976304
-0.035614304 -0.32198876 -0.24384895 0.999307 0.12755683 0.3495323 -0.9408829 -0.3347398
-0.7090085 -0.7256979 -0.031773604 0.5123803 -0.48138675 -0.07244134 0.88965863 0.9186529
0.055164564 -0.49828663 -1.6375808 -0.4532914 -0.1950231 0.9429842 0.7693138 -0.1991203
-0.94518995 -0.2794823 0.00040432834 -1.0268385 -0.46175492 -0.47038892 -0.30718634 0.1658767
-0.7570846 0.10374192 -0.0161806 0.5044013 0.13403781 -0.106690705 0.14860347 -0.9507666
-0.26755357 0.67747176 -1.3127234 -0.39304134 -0.18089707 -0.8953162 -0.4556512 0.13165598
-1.5387362 -0.03267919 -0.63093793 -0.060841076 -0.3552974 -0.6258287 0.62914044 0.38539174
-0.2914691 0.54298115 0.055235963 0.5795061 -0.63789505 -0.3112398 -0.172792 1.7486818
0.34127605 -0.33148167 0.5053058 -0.37277198 -0.49550122 -0.4450357 -0.0075756363 0.58330315
0.20879063 -0.524219 0.87476176 -0.92279816 0.5291697 -0.056495745 -0.1855731 -0.46693155
-0.79751885 -0.054187536 -0.25305122 0.33799666 1.357596 0.43760848 0.9361275 0.10655321
0.3792776 -0.020615598 -0.00012522377 -0.4227302 -0.38950923 0.57336146 -0.19380124 0.25214732
-0.39623863 -0.32987922 0.19508001 -0.09083823 -0.31062755 0.6786659 1.2174126 0.4576492
-0.82961917 0.18736036 -0.0899147 -0.7659737 0.4835958 0.05347951 -0.84699094 -0.37811765
-0.22724558 0.06991583 0.4972096 -0.6803749 -0.013385047 -1.2037244 -0.5942949 0.20995271
-0.26208943 0.19866411 -0.12808052 -1.3388934 -0.58453035 0.27627355 1.0210886 -0.19989765
00000000: 667a 0c3f b8d6 e7bd 1bd6 f0be e73a d6bd
00000010: 5612 42bf 0355 ecbe ec4d 2cbf c238 f23e
00000020: f75b e43e d690 b2be f4ce 093f 6edc 77bd
00000030: a615 a33e e604 6dbf 2b31 e23e 56c5 3e3e
00000040: 4461 a7bf 93c0 fabe 0e96 0fbe 16ab 473f
00000050: cf5d 83bd 2c3e c1be 0b9d a0bf f2fd c0be
00000060: 55c9 4d3f 508b be3d f3b8 b4be 43a3 3c3f
00000070: 1654 9dbf f652 0cbf c85b aa3e 31e1 6a3f
00000080: d773 5bbe 1e6c 5dbe 0cdd b93e c44e 51bd
00000090: dccd 9dbe 47ab 73bf 2ed1 07be 8f34 463e
000000a0: e86d 7fbd bad9 0a3d 799b 943d 40de 8b3f
000000b0: bbf1 253f 8b9c 2d3d 58cb 85bc 1f80 26bf
000000c0: d422 c63d 8e53 75bf 1c8d 213d 94a2 0e3f
000000d0: 081e dc3f f435 0d3e 857c 58bf 1902 8dbd
000000e0: 3589 a2bd d93c 13be adef a63f 4905 5c3e
000000f0: 3f53 74be 5543 eabf cfac c0be c884 f0be
00000100: 4ee0 11bd b6db a4be 8ab3 79be 95d2 7f3f
00000110: 429e 023e e6f5 b23e b4dd 70bf 0463 abbe
00000120: 9581 35bf 56c7 39bf 0a25 02bd 5b2b 033f
00000130: 5378 f6be 205c 94bd abc0 633f d62c 6b3f
00000140: 3df4 613d 6d1f ffbe 3f9c d1bf cf15 e8be
00000150: 23b4 47be 6a67 713f c0f1 443f 31e6 4bbe
00000160: f8f7 71bf 4e18 8fbe 08fc d339 726f 83bf
00000170: 246b ecbe d1d6 f0be 8747 9dbe 95db 293e
00000180: 4cd0 41bf a576 d43d 2d8d 84bc 7220 013f
00000190: 3541 093e a880 dabd 822b 183e 7165 73bf
000001a0: c8fc 88be ca6e 2d3f 5207 a8bf b73c c9be
000001b0: 153d 39be 7133 65bf 1d4b e9be d3d0 063e
000001c0: 4ff5 c4bf 9dda 05bd 2685 21bf 7e34 79bd
000001d0: 8ae9 b5be 4f36 20bf 590f 213f 1152 c53e
000001e0: 703b 95be d000 0b3f 1b3f 623d 835a 143f
000001f0: 174d 23bf d35a 9fbe 63f0 30be ced4 df3f
00000200: bcbb ae3e f7b7 a9be b95b 013f f8db bebe
00000210: 56b2 fdbe b8db e3be 0b3d f8bb 5b53 153f
00000220: 36cd 553e 3733 06bf 63f0 5f3f 803c 6cbf
00000230: aa77 073f 1568 67bd e006 3ebe a711 efbe
00000240: 322a 4cbf c0f3 5dbd ee8f 81be e60d ad3e
00000250: b5c5 ad3f 380e e03e 0da6 6f3f 9238 da3d
00000260: ac30 c23e 0be2 a8bc 804e 03b9 1870 d8be
00000270: c16d c7be d1c7 123f d573 46be 7419 813e
00000280: cadf cabe eee5 a8be 0ec3 473e 6509 babd
00000290: 930a 9fbe 0cbd 2d3f 2dd4 9b3f ff50 ea3e
000002a0: ec61 54bf 65db 3f3e 3325 b8bd da16 44bf
000002b0: de99 f73e 550d 5b3d 66d4 58bf a398 c1be
000002c0: 11b3 68be 0830 8f3d 4292 fe3e 0d2d 2ebf
000002d0: f54c 5bbc a413 9abf b623 18bf d8fd 563e
000002e0: 9630 86be 9b6e 4b3e 8a27 03be dc60 abbf
000002f0: c8a3 15bf ba73 8d3e 08b3 823f f8b1 4cbe

fc_1.bias f4 [64]
-0.53706986 0.052443586 -0.2808132 0.25184235 -0.5179591 0.23575501 0.1485851 0.35083887
-0.80400944 -0.52171415 -0.15853082 0.3767819 0.414029 0.0092048235 -0.018003764 -0.35246512
-0.16174585 0.010737132 0.31682727 0.25167522 -0.29555932 -0.36597782 0.3701933 0.10038125
0.46834826 0.07858052 -0.1353322 -0.38426363 -0.28834286 0.17596315 0.07689088 -0.7466126
0.5781306 0.2364142 0.1899546 -0.26647994 0.24632981 0.1382559 -0.5103298 -0.17561331
0.2156383 -0.4271311 -0.50207394 -0.3736977 0.34959546 -0.40278012 -0.44247842 0.07346605
-0.3289623 -0.32966775 -0.87535095 -0.22671938 0.36444622 -0.8260691 -1.2438112 -0.6005657
0.14467777 -0.22799939 -0.6416935 -0.47336295 0.10523621 -0.055084873 -0.02461181 0.022432918
00000000: 697d 09bf 16cf 563d bfc6 8fbe 7bf1 803e
00000010: f898 04bf c369 713e b126 183e 27a1 b33e
00000020: 90d3 4dbf 0f8f 05bf e755 22be 8fe9 c03e
00000030: 9cfb d33e d4cf 163c a17c 93bc 4f76 b4be
00000040: b4a0 25be ccea 2f3c 2f37 a23e 93db 803e
00000050: 8d53 97be 7261 bbbe fa89 bd3e af94 cd3d
00000060: 58cb ef3e d3ee a03d 8694 0abe 34be c4be
00000070: ada1 93be af2f 343e f778 9d3d 0122 3fbf
00000080: 5e00 143f 9016 723e 7583 423e 0f70 88be
00000090: e23d 7c3e f492 0d3e f9a4 02bf fad3 33be
000000a0: 49d0 5c3e edb0 dabe eb87 00bf 4e55 bfbe
000000b0: 2dfe b23e 3239 cebe 888c e2be 5e75 963d
000000c0: bf6d a8be 36ca a8be 0017 60bf 2029 68be
000000d0: b298 ba3e 4479 53bf 3535 9fbf acbe 19bf
000000e0: 6926 143e ac78 69be 0646 24bf a15c f2be
000000f0: 1586 d73d ada0 61bd b59e c9bc 3dc5 b73c

fc_2.weight f4 [64, 64]
0.2687289 0.17494726 -0.07891747 -0.09475035 0.16278076 0.10827637 -0.12402261 -0.101054676
0.46166608 0.13510987 -0.1417409 -0.030056398 -0.0059455344 -0.16971208 -0.08990255 0.081962556
0.14907132 -0.081281945 -0.5481382 -0.106962696 -0.013607995 -0.050607357 -0.045018323 0.015634365
-0.26684454 0.042579014 -0.0006480157 -0.19486985 0.08326687 -0.120189235 0.119478375 -0.19831209
-0.18362828 0.09913779 0.11019884 -0.09499256 -0.012238549 0.10872125 -0.70455676 -0.20235185
-0.030638482 0.116156906 -0.3874486 0.07471769 -0.1621665 0.09986522 -0.05310906 0.004748116
-0.91814846 -0.64726025 0.23717304 -0.08246571 0.072283834 -0.015855594 -0.06970814 -0.5543661
-0.5737874 0.06331891 -0.96930975 -0.12035752 0.10287981 0.04052988 0.12653328 0.01142124
-0.12828626 0.10590017 -0.065011 -0.00024518723 0.37050793 0.0040439107 -0.08440623 0.15392652
-0.2796284 0.05888264 -0.20069836 0.072022445 0.23797664 0.3310948 -0.038246505 0.06778776
0.15424044 -0.09949218 -0.22719711 0.018564297 -0.055813838 -0.3512375 -0.0769044 -0.13349676
0.10272927 0.33991298 0.0997458 -0.25173083 -1.5826553 0.12111301 -0.030285329 -0.104703285
0.0046599507 0.21211556 -0.1304944 -0.06083683 -0.06997278 0.19247146 -0.1585974 -0.16864643
-0.18363328 -0.14215791 -1.2986377 -0.34204134 0.09839114 -0.13019542 0.3095358 -0.26036045
-0.033198953 0.2765436 0.25257656 0.23078863 -0.15031374 -0.47846532 -0.08650224 0.24852575
0.028281048 0.20951287 0.119001135 0.040804863 -0.28792956 0.35341567 -0.13079713 -0.1437063
0.19731545 -0.05639273 0.112038426 0.16471502 0.13013968 0.09206461 0.25364622 -0.43448606
0.10181162 -0.41408533 0.17627248 0.0025184623 -0.33981627 -0.099718176 0.009473332 0.21491778
-0.0036699828 0.17457846 -0.19965371 -0.036755376 -2.3752377 -0.07467282 0.07361614 -0.17908823
-0.51555747 -0.2311459 0.035980713 -0.42977536 0.16061297 -0.20492107 0.17004809 0.100903444
-0.19777806 -0.026318055 -0.12274964 -0.23039377 -0.19494502 -0.048164383 -0.2642168 0.07938927
0.15139464 -0.0754488 0.31983975 0.13608187 -0.19973895 0.1445108 -0.0799176 -0.09090634
0.2703442 -0.0057082516 -0.081655644 0.36459586 0.15326159 -0.3232588 -0.08685456 0.059851095
-0.07600255 -0.36964333 0.37281162 0.18765275 0.03489178 -0.05914032 -0.14352767 0.321456
-0.18030903 0.100504085 0.048514757 0.17235136 -0.13435917 -0.12780543 0.115407154 -0.3076258
-0.019648204 -0.41304955 0.28129923 0.07414396 -0.22731614 -0.22088964 0.13833682 0.08026374
-0.035783473 0.25903788 -0.19355871 0.082770966 0.08917199 -0.023615817 0.22226459 -0.4324829
-0.3571477 0.04383294 -0.036655694 -0.52986944 0.1282399 -0.258529 -0.05396628 -0.2597103
-0.0903423 0.06381991 -0.42248374 -0.46512437 -0.1624507 -0.048947647 -0.21898927 0.08712207
0.22680444 -0.24514398 0.32396632 -0.1415129 -0.122728914 -0.049485918 -0.0435863 -0.103786565
-0.2717773 0.09641279 -0.14949735 0.43614775 0.1654683 -0.5847712 -0.49842006 0.18763265
-0.06483678 -0.43685535 -0.3964166 0.2718706 0.04869658 -0.109031804 0.03622366 0.32582808
00000000: d696 893e 6025 333e 7c9f a1bd 790c c2bd
00000010: 00b0 263e 00c0 dd3d 91ff fdbd c1f5 cebd
00000020: 7f5f ec3e 3e5a 0a3e 8724 11be d638 f6bc
00000030: c2d2 c2bb 01c9 2dbe d41e b8bd fcdb a73d
00000040: 27a6 183e 2677 a6bd c952 0cbf 420f dbbd
00000050: 11f4 5ebc a949 4fbd 2265 38bd a413 803c
00000060: d99f 88be 5567 2e3d 99df 29ba f68b 47be
00000070: d287 aa3d c625 f6bd 14b1 f43d 5312 4bbe
00000080: 0d09 3cbe c108 cb3d eeaf e13d 768b c2bd
00000090: 3284 48bc 3fa9 de3d d55d 34bf 5335 4fbe
000000a0: 8efd fabc ace3 ed3d aa5f c6be 9705 993d
000000b0: fa0e 26be 2386 cc3d e388 59bd 1596 9b3b
000000c0: c70b 6bbf d9b2 25bf 7ddd 723e c8e3 a8bd
000000d0: 8c09 943d 97e3 81bc 24c3 8ebd f0ea 0dbf
000000e0: bbe3 12bf 58ad 813d af24 78bf 017e f6bd
000000f0: a6b2 d23d a902 263d f191 013e 2720 3b3c
00000100: 795d 03be 30e2 d83d 7d24 85bd 798c 80b9
00000110: 37b3 bd3e c882 843b 2cdd acbd ea9e 1d3e
00000120: 742b 8fbe ec2e 713d df83 4dbe 8180 933d
00000130: 26b0 733e 4285 a93e 5ea8 1cbd 4fd4 8a3d
00000140: 35f1 1d3e 8ec2 cbbd 5ca6 68be 2714 983c
00000150: 0d9d 64bd 67d5 b3be 0e80 9dbd 60b3 08be
00000160: b963 d23d 1309 ae3e 8747 cc3d dde2 80be
00000170: 7394 cabf 190a f83d f018 f8bc ad6e d6bd
00000180: 80b2 983b d234 593e 53a0 05be 0a30 79bd
00000190: e44d 8fbd 3d17 453e 5b67 22be a6b1 2cbe
000001a0: 5d0a 3cbe d891 11be c339 a6bf 0b20 afbe
000001b0: 4b81 c93d f351 05be 7a7b 9e3e f74d 85be
000001c0: a0fb 07bd 1f97 8d3e b751 813e db53 6c3e
000001d0: d8eb 19be 68f9 f4be 1628 b1bd 897d 7e3e
000001e0: a8ad e73c 8b8a 563e deb6 f33d 0023 273d
000001f0: 816b 93be e6f2 b43e afef 05be bf27 13be
00000200: 100d 4a3e 10fc 66bd 6774 e53d 0eab 283e
00000210: 5643 053e 5f8c bc3d ebdd 813e f574 debe
00000220: 9c82 d03d fe02 d4be c680 343e c90c 253b
00000230: 66fc adbe 0b39 ccbd 0936 1b3c 6813 5c3e
00000240: 1884 70bb b2c4 323e 0672 4cbe ce8c 16bd
00000250: e503 18c0 10ee 98bd 0fc4 963d e862 37be
00000260: 93fb 03bf 83b1 6cbe 8360 133d 840b dcbe
00000270: ba77 243e d4d6 51be 1621 2e3e 77a6 ce3d
00000280: 5586 4abe f698 d7bc 2a64 fbbd 58ec 6bbe
00000290: ab9f 47be 0448 45bd 6d47 87be d796 a23d
000002a0: 3207 1b3e e784 9abd 09c2 a33e 0c59 0b3e
000002b0: 5e88 4cbe a4fa 133e d7ab a3bd 1a2d babd
000002c0: 8e6a 8a3e 490c bbbb 133b a7bd 4fac ba3e
000002d0: 9bf0 1c3e 2d82 a5be cee0 b1bd 6c26 753d
000002e0: 3aa7 9bbd e441 bdbe 2ae1 be3e 0b28 403e
000002f0: afea 0e3d 1f3d 72bd ebf8 12be e195 a43e
00000300: eea2 38be 16d5 cd3d 69b7 463d e07c 303e
00000310: 7395 09be 6ddf 02be 965a ec3d 2181 9dbe
00000320: 45f5 a0bc 3b7b d3be 7406 903e cad8 973d
00000330: 90c5 68be e530 62be 2ba8 0d3e 5161 a43d
00000340: b191 12bd 9da0 843e 4134 46be d383 a93d
00000350: ce9f b63d f575 c1bc 5499 633e 666e ddbe
00000360: 10dc b6be 2b8a 333d 4824 16bd 86a5 07bf
00000370: 5251 033e ea5d 84be bf0b 5dbd c0f8 84be
00000380: 6205 b9bd 03b4 823d ca4f d8be c824 eebe
00000390: 7a59 26be 547d 48bd b93e 60be 0e6d b23d
000003a0: 6c3f 683e 0607 7bbe eade a53e c2e8 10be
000003b0: 4c59 fbbd bfb1 4abd 8c87 32bd 0d8e d4bd
000003c0: 6526 8bbe 1274 c53d d515 19be c24e df3e
000003d0: 8670 293e 91b3 15bf ea30 ffbe c622 403e
000003e0: 25c9 84bd 81ab dfbe 1ef7 cabe a032 8b3e
000003f0: 1176 473d 114c dfbd 435f 143d f0d2 a63e

fc_2.bias f4 [64]
0.05728655 0.2079597 -0.20118265 0.0059252586 0.07144359 -0.11716456 -0.16128817 -0.04842504
-0.11392569 0.11390292 0.33033937 -0.06677738 0.26744094 0.104198486 0.15288435 -0.32697695
-0.032631494 0.22627093 0.11259272 -0.055491187 -0.103460774 0.02401826 0.213873 0.03223078
0.07916197 0.19207887 0.03847669 0.18589611 -0.084650874 0.083156765 -0.085187055 -0.17800044
0.016676104 -0.22734013 -0.098640315 -0.18889286 0.18536139 -0.07363587 -0.14913823 0.10600332
-0.10468122 0.00062778086 0.14677717 0.11319276 0.3338366 -0.091071054 -0.0073154327 -0.14206927
0.11003273 -0.037820928 -0.11595196 0.021176927 -0.25289765 -0.156406 0.14762616 0.11542662
-0.046765294 0.048333496 0.12559901 -0.045561768 -0.0019907998 0.07649886 0.2031545 -0.102019735
00000000: 4da5 6a3d 63f3 543e d302 4ebe ac28 c23b
00000010: 0451 923d f9f3 efbd ba28 25be 5659 46bd
00000020: df51 e9bd ef45 e93d 3e22 a93e 94c2 88bd
00000030: 05ee 883e 0466 d53d b78d 1c3e 8669 a7be
00000040: 9aa8 05bd 91b3 673e 0397 e63d ba4a 63bd
00000050: 3ee3 d3bd f1c1 c43c 8601 5b3e 6c04 043d
00000060: ac1f a23d 53b0 443e bc99 1d3d 8d5b 3e3e
00000070: 705d adbd 184e aa3d 8d76 aebd bf45 36be
00000080: 539c 883c dacb 68be ef03 cabd 216d 41be
00000090: 60cf 3d3e 67ce 96bd b1b7 18be 4518 d93d
000000a0: 1c63 d6bd a991 243a c14c 163e 9bd1 e73d
000000b0: a1ec aa3e 7683 babd 4cb6 efbb 9b7a 11be
000000c0: d758 e13d 1eea 1abd 3978 edbd 3c7b ad3c
000000d0: cd7b 81be e528 20be 502b 173e cb64 ec3d
000000e0: f78c 3fbd 58f9 453d 079d 003e fa9e 3abd
000000f0: 1478 02bb 6fab 9c3d bc07 503e b9ef d0bd

fc_mu.weight f4 [1, 64]
0.06638884 -0.1914008 0.22148964 0.110369146 -0.11438577 -0.5447386 0.17839181 0.030344842
-0.022863429 0.030280378 -0.16829316 -1.5011674 0.0044425717 -0.16928124 2.4743233 -0.3974266
0.56903845 -0.34660554 0.37789395 -0.4691565 0.23205356 0.4037609 0.22384162 0.9408059
0.13112587 0.3160557 0.7552217 0.009182643 0.18647897 1.2803167 -0.7609452 -0.0058163917
-0.1226212 -0.31974813 1.2394639 -0.0015423917 0.10465315 -0.00029187 -0.0032704005 1.0449489
-0.020081712 0.0011789013 -1.3263559 -0.033014458 -0.06862969 -0.9070515 1.0120778 -0.5082906
0.10412923 0.004841138 -0.01573878 0.08327406 1.0413047 0.0025964098 0.19304977 0.0871353
-0.9648896 0.3757903 0.7145044 0.8582034 0.004419985 -0.3029114 1.4695646 0.00094145274
00000000: dff6 873d 92fe 43be 2ece 623e 3809 e23d
00000010: 1643 eabd fd73 0bbf 58ac 363e bf95 f83c
00000020: 164c bbbc 8e0e f83c 0b55 2cbe 4126 c0bf
00000030: fe92 913b 1058 2dbe 505b 1e40 807b cbbe
00000040: 81ac 113f 4876 b1be 517b c13e 4835 f0be
00000050: 739f 6d3e c0b9 ce3e bd36 653e a8d8 703f
00000060: dc45 063e 0dd2 a13e 3656 413f cc72 163c
00000070: 58f4 3e3e 6be1 a33f 4ecd 42bf 6e97 bebb
00000080: d320 fbbd 07b6 a3be c1a6 9e3f 142a caba
00000090: 6454 d63d 2106 99b9 3754 56bb e3c0 853f
000000a0: 6782 a4bc 5d85 9a3a 08c6 a9bf 2b3a 07bd
000000b0: b98d 8cbd 8734 68bf c48b 813f 551f 02bf
000000c0: b541 d53d 69a2 9e3b 9dee 80bc 978b aa3d
000000d0: 7949 853f 8728 2a3b d7ae 453e fe73 b23d
000000e0: 0103 77bf 9667 c03e c3e9 363f 38b3 5b3f
000000f0: 86d5 903b 3417 9bbe b11a bc3f d3cb 763a

fc_std.weight f4 [1, 64]
-0.4732393 -0.16999123 -0.110312566 0.4653626 -0.03583715 0.17767407 -0.5545396 -0.3112293
0.0039374093 -0.4032491 -0.17091244 0.8166799 -0.4240082 0.34547812 1.473175 0.3119717
-0.09831161 -0.04313925 0.03424306 -0.13535668 0.040189497 0.94553053 -0.79898506 0.8623445
-0.05050117 -0.39384118 -0.25162575 -0.5193842 0.49874723 0.741704 0.31960794 0.20444798
-0.16057618 0.2154419 -0.34907493 0.29533398 -0.5173026 0.06290744 0.104857914 0.4956292
0.16411689 -0.88177985 0.13882002 -0.59928644 -0.50851566 0.4432651 0.24181205 0.4444929
-0.17059077 0.11127338 0.026481336 0.28182304 -0.075127445 0.057209138 0.13726515 -0.6599128
0.72860384 0.25821725 0.6821217 0.012064267 -0.16189262 0.49355558 0.45231283 0.13444637
00000000: 6c4c f2be 2e12 2ebe 8eeb e1bd 0244 ee3e
00000010: fac9 12bd 31f0 353e 4ff6 0dbf 7259 9fbe
00000020: 6205 813b ab76 cebe ac03 2fbe ef11 513f
00000030: 9a17 d9be 82e2 b03e 0091 bc3f c1ba 9f3e
00000040: 9957 c9bd c8b2 30bd 7342 0c3d f19a 0abe
00000050: be9d 243d 4a0e 723f 498a 4cbf 9cc2 5c3f
00000060: 51da 4ebd 8da5 c9be 17d5 80be 5df6 04bf
00000070: cc5b ff3e 50e0 3d3f a7a3 a33e d05a 513e
00000080: 156e 24be cd9c 5c3e f3b9 b2be 0436 973e
00000090: f16d 04bf 9ed5 803d bfbf d63d 1cc3 fd3e
000000a0: 420e 283e 53bc 61bf d626 0e3e d66a 19bf
000000b0: 152e 02bf a5f3 e23e 949d 773e 9394 e33e
000000c0: 59af 2ebe 4ce3 e33d 63ef d83c 1c4b 903e
000000d0: 6bdc 99bd 2154 6a3d 3c8f 0c3e 0cf0 28bf
000000e0: c885 3a3f 0d35 843e 879f 2e3f 34a9 453c
000000f0: 2ec7 25be 51b3 fc3e 8c95 e73e 4fac 093e
