Pendulum_SAC/saved_model/0404/sac_actor_EP250.pt (torch, 20559 bytes, 6 tensors)

fc_1.weight f4 [64, 3]
000000 f3 9b 26 3f ca cc dc be 15 40 f3 be 53 c1 ba bd
       0.6508171 -0.43124992 -0.47509828 -0.09118905
000010 ee 17 37 bf f9 ff cf be f7 49 35 bf 29 0f 2a 3f
       -0.7152089 -0.4062498 -0.70815986 0.6642938
000020 5a ed e0 3e f0 71 d0 be 21 d7 a7 3e c8 85 20 bd
       0.43931085 -0.40711927 0.32781318 -0.039190084
000030 e1 1e 08 3f 3d 8c 25 bf 24 09 fb 3e 13 7e 6c 3e
       0.5317212 -0.6466711 0.4903041 0.23094968
000040 ed 33 c5 bf 00 ca f2 be 90 9d 8d bc f5 df 5f 3f
       -1.5406471 -0.4741974 -0.017287046 0.87451106
000050 0c 13 46 be 4b ab d3 be 03 30 a0 bf 6d cb b2 be
       -0.19343203 -0.41341624 -1.2514652 -0.34920827
000060 48 98 65 3f d9 27 fa bd 5c 55 bc be 60 a3 43 3f
       0.8968549 -0.122146316 -0.36783874 0.76421165
000070 07 97 9e bf e4 bd 18 bf 01 30 61 3e af 90 83 3f
       -1.238984 -0.5966475 0.21990968 1.0278529
000080 8c 51 8d be 2a cd 76 3d 39 71 32 3f 2d ae 38 be
       -0.27601278 0.060254253 0.69704014 -0.18035193
000090 01 24 92 be 90 1c 81 bf 71 26 48 be d6 10 36 3e
       -0.28543094 -1.0086842 -0.19545914 0.1777986
0000a0 43 0d e3 bd 2f 3b 04 3a c5 8f 54 3c f5 e8 a3 3f
       -0.11086514 0.00050442194 0.01297373 1.2805468
0000b0 e4 35 19 3f 9d 17 18 3e 61 c9 6f 3d da 76 07 bf
       0.59847856 0.14852758 0.05854166 -0.5291573
0000c0 90 91 8c 3e 1e 32 42 bf de 04 7b 3b 10 c0 d4 3e
       0.27454805 -0.7585772 0.0038302462 0.41552782
0000d0 12 cc f1 3f 4c 5e 35 3c c7 67 86 bf 7e 7e b6 be
       1.8890402 0.011069845 -1.050042 -0.3564338
0000e0 b3 77 be bb af 2f 97 bd 75 40 b0 3f 4c 72 85 3e
       -0.005812609 -0.07382142 1.3769671 0.26063764
0000f0 4e 34 d2 be 78 46 f3 bf 83 12 b9 be a6 78 b2 be
       -0.4105553 -1.900588 -0.36146936 -0.34857672
000100 93 ca 10 3d ba 2b b4 be df 4b 87 be 3b 58 7e 3f
       0.03534944 -0.3518961 -0.26425073 0.9935338
000110 5e ca 13 3e 83 51 a8 3e 16 1c 87 bf e6 80 ae be
       0.14432666 0.32874689 -1.0555446 -0.34082717
000120 e7 a5 2e bf 2b 83 75 bf 54 b0 06 bd b1 bd 0a 3f
       -0.68221897 -0.9590327 -0.032883003 0.54195696
000130 7b 8d 12 bf 90 a2 f4 3c 30 26 1c 3f 26 f7 88 3f
       -0.5724713 0.029862672 0.6099577 1.0700424
000140 68 4a f3 3d f0 14 ef be 7d a3 f2 bf ea 29 d8 be
       0.11879426 -0.46695662 -1.8956143 -0.42219478
000150 86 7c 08 be 3c 14 8d 3f 63 ee 31 3f 26 2d 37 be
       -0.13328752 1.10218 0.69504374 -0.17888317
000160 73 a7 65 bf 83 62 77 be f4 04 4e 3d 27 2f aa bf
       -0.8970863 -0.24158673 0.050297692 -1.329564
000170 af 0e e4 be c4 a7 21 bf 31 80 81 be 44 df 4d 3e
       -0.44542453 -0.63146615 -0.25293115 0.201047
000180 97 29 4d bf 45 14 b6 3d 62 c3 c3 bc 9a e0 fb 3e
       -0.80141586 0.08890585 -0.023896877 0.49194795
000190 e1 5d f2 3d 9e 5f 4b bd 5d 9e 2b 3e 21 d5 80 bf
       0.11834312 -0.049651735 0.1675963 -1.0065042
0001a0 fb 8e a0 be 3c 93 47 3f 75 0c b8 bf c4 99 bc be
       -0.31359085 0.77959037 -1.4378802 -0.36836064
0001b0 8b b5 15 bd f1 2b 48 bf 9a 14 28 bf 37 0a e0 3d
       -0.036550086 -0.7819205 -0.65656435 0.10939448
0001c0 30 64 be bf b1 11 26 be 88 16 0a bf 54 3f 9a bd
       -1.4874325 -0.16217686 -0.5394063 -0.0753161
0001d0 33 ad 9b be 0b 05 3a bf 23 85 52 3f af 3e 9f 3e
       -0.30405578 -0.72663945 0.822344 0.3110251
0001e0 e6 d7 28 bf 22 9e c3 3e c1 95 19 bc c7 0c 2f 3f
       -0.65954435 0.38206583 -0.009374083 0.6837887
0001f0 59 87 42 bf 38 07 9a be 83 c2 ab be 94 5c ea 3f
       -0.75987774 -0.30083632 -0.33546838 1.8309503
000200 4d c9 af 3e a4 1a d2 be 20 d9 2e 3f 1e 57 ac be
       0.34333268 -0.4103595 0.68300056 -0.33660215
000210 64 49 1c bf fa 9e 31 bf 02 e0 a7 3d 9f 5c 1f 3f
       -0.61049485 -0.69383204 0.08197023 0.62250704
000220 2e 87 3d be 5e 05 0d bf f8 f5 5c 3f e0 3b 55 bf
       -0.18508598 -0.55086315 0.8631282 -0.83294487
000230 34 06 09 3f 95 cd 8f 3d f5 97 7a be 9d 57 ff be
       0.5352509 0.070216335 -0.2447203 -0.4987153
000240 03 dc 4d bf cb 58 45 be af f2 43 be fa a0 c1 3e
       -0.80413836 -0.19272153 -0.19135545 0.37818128
000250 5d 35 ab 3f 60 e0 f7 3e d7 2d 86 3f 3c 64 f1 3b
       1.337566 0.48413372 1.0482739 0.007366685
000260 99 49 c4 3e 5f a0 3b 3d 82 3b d1 3c 43 8c a7 be
       0.383374 0.04580724 0.02554107 -0.327242
000270 bb a3 06 bf 46 3e 27 3f 7b a8 10 be 7c 63 11 3f
       -0.5259358 0.65329397 -0.1412677 0.56792426
000280 32 97 b7 be b4 12 98 be 00 bc b5 3e 09 77 87 bc
       -0.3585754 -0.2970177 0.35494995 -0.016536253
000290 e0 b2 af be b9 07 4a 3f c4 ee ad 3f a6 7f d8 3e
       -0.34316158 0.78918034 1.358849 0.42284888
0002a0 ae 9d 82 bf c3 85 89 3d bb e0 94 bd ad 0d 85 bf
       -1.020437 0.06714966 -0.072694264 -1.0394799
0002b0 2d d6 22 bd 6e 4b 19 3d d9 70 89 bf 3e 1e 38 bf
       -0.039755035 0.03742545 -1.0737563 -0.71921146
0002c0 1b aa 18 be eb 05 93 3d 6e 4b e2 3e 9a 0c 14 bf
       -0.1490864 0.07178863 0.44198173 -0.5783173
0002d0 1e 1f 06 3d 8a 00 be bf b4 77 19 bf e2 19 1e 3e
       0.03274452 -1.4843915 -0.5994828 0.15439561
0002e0 3f f5 e5 bd ff 02 11 3e b1 ef eb bd 37 c6 c8 bf
       -0.112284176 0.14161299 -0.11520327 -1.568549
0002f0 8a 4a 07 bf 70 22 e2 3c 06 3c 7d 3f d3 2b a0 be
       -0.5284811 0.027604312 0.98919713 -0.31283435

fc_1.bias f4 [64]
000000 ff 50 e4 be 65 0f a1 3c 5e 8b 07 be 38 67 0d 3e
       -0.44593045 0.019660661 -0.13236758 0.13808906
000010 12 5a 2e bf cf ba fd 3d cb b8 32 3e 47 74 55 3e
       -0.68106186 0.123891465 0.17453305 0.20845138
000020 cc ed 62 bf 56 90 22 bf 92 be d3 be fe b3 8d 3e
       -0.886441 -0.6350149 -0.4135633 0.27676386
000030 e8 85 af 3e 26 61 6f be 67 3d 31 bd b7 02 f7 be
       0.3428185 -0.23376903 -0.04327145 -0.4824426
000040 04 31 a7 be 40 0f df 3a 68 4e 13 3e 88 fe 4d 3e
       -0.32654583 0.0017018095 0.14385378 0.20116627
000050 8f 42 b3 be 42 11 b3 be cb 61 98 3e e6 d8 9f bb
       -0.35011718 -0.34974104 0.2976211 -0.004878151
000060 0c 78 f5 3e e4 53 aa bd ed 7d 5a bd 1e e8 04 bf
       0.4794315 -0.08316782 -0.05334275 -0.5191668
000070 14 d2 fb bd f1 dd 51 3d d1 de 7f bc 9a a3 63 bf
       -0.122959286 0.05123705 -0.015617088 -0.8892151
000080 23 e5 21 3f 27 b6 1f 3d bb 23 d4 3d a5 51 8f be
       0.6324026 0.038992073 0.103583775 -0.27991977
000090 e8 62 80 3e db bb a1 bc 53 e4 0a bf 1b df 44 be
       0.2507546 -0.019742897 -0.54254645 -0.19225733
0000a0 3f cc d0 3e ad ad fd be c1 5b ca be f3 2f 16 bf
       0.40780827 -0.49546567 -0.39523128 -0.58666915
0000b0 eb 19 b0 3e ce 44 ac be 84 62 0c bf 64 bb 18 3e
       0.34394774 -0.33646244 -0.5483782 0.14915234
0000c0 cb 97 e2 be 58 cd c5 be 61 b2 82 bf f0 23 c0 be
       -0.44256434 -0.38633227 -1.0210687 -0.37527418
0000d0 f2 1c 9f 3e 09 25 81 bf 34 75 b0 bf 79 3c 0d bf
       0.3107677 -1.0089427 -1.3785768 -0.551704
0000e0 09 7a 5b bd af 67 00 be 02 a5 15 bf 5b 6d 2e bf
       -0.05358318 -0.12539552 -0.58454907 -0.68135613
0000f0 1b 63 3a 3d 28 8c 0c be 94 16 40 be 4d 98 ad bd
       0.04550467 -0.1372534 -0.18758613 -0.08476315

fc_2.weight f4 [64, 64]
000000 52 ee a8 3e 69 33 49 3e 48 28 03 bf a2 58 7d be
       0.32994324 0.19648518 -0.5123334 -0.24740842
000010 23 9e 8b 3e 6f 23 11 3e 42 bd 7c be c5 85 07 be
       0.27269086 0.14173673 -0.24681571 -0.13234623
000020 29 43 0a 3f 37 7a 92 3e 08 e0 63 be a2 cf 1e be
       0.5400873 0.28608868 -0.2225343 -0.15508893
000030 81 a4 bb bd 32 12 a2 3c 9b 22 cf bd bb 6e 10 3e
       -0.09162236 0.019784067 -0.10114022 0.1410474
000040 7e 86 b8 3d ad c1 84 be a9 c8 ba bf 2c ba 74 be
       0.09010027 -0.25929013 -1.4592487 -0.23899144
000050 c4 34 e3 3d b7 a5 6d 3d 8d a6 3e be c6 43 77 3d
       0.110940486 0.058019366 -0.18618222 0.06036737
000060 67 a6 1a bf 1f 16 16 3e de 48 ab bc d4 c5 d7 bb
       -0.6041016 0.14656876 -0.02090877 -0.0065848622
000070 e7 e4 0b 3e 5e 8d e7 bd fc 02 26 3e 31 de 4e be
       0.13661538 -0.113062605 0.16212076 -0.20201947
000080 f8 0e 3d bf 06 7e 29 3e 7d 6b 11 3e c9 87 59 3d
       -0.73850965 0.1655198 0.1420116 0.05310801
000090 25 9d a0 bc 3e ce 9b 3d ca a2 b7 be 4c 66 60 be
       -0.019606182 0.07607697 -0.35866386 -0.21914023
0000a0 88 a4 81 be 38 55 95 3e a1 4e d7 be af 8e 06 bd
       -0.2532084 0.2916658 -0.42052177 -0.032850917
0000b0 b4 a3 34 bf 30 65 f1 3d 81 c9 bc 3d d1 6b dc bc
       -0.7056229 0.11786878 0.09218121 -0.02690688
0000c0 62 cd 05 bf 2a 52 61 bf 69 03 98 3e ac d0 17 bd
       -0.52266514 -0.88016 0.29690102 -0.03706424
0000d0 e1 64 7b bd 70 e0 f9 3e 44 2c 11 3f b9 6c e5 be
       -0.061375502 0.48804045 0.5670817 -0.4480951
0000e0 e5 08 4a bf 80 e0 84 bd 0e af d8 bf ef 2f 8f bd
       -0.7891982 -0.064881325 -1.6928422 -0.069915645
0000f0 fc d3 10 3e c8 b7 02 3e b8 0a 36 3e fa ff 91 bd
       0.14143366 0.1276542 0.17777526 -0.07128902
000100 bd 11 e2 bd ba 78 fc 3c 1b b0 0b be c6 75 b4 3c
       -0.110385396 0.030819286 -0.13641398 0.022028815
000110 4e 48 dc 3e a0 77 ce bd 9f 57 8b be 80 c6 7e 3d
       0.43023914 -0.100814104 -0.27215287 0.062201023
000120 51 05 b1 be e6 35 fd bd 8c 64 e6 be ee 8e ae bc
       -0.3457437 -0.12363796 -0.44998586 -0.021308389
000130 96 31 84 3e 54 71 a2 3e ee e0 3f bc 4e 53 03 bd
       0.2581908 0.31727087 -0.011711342 -0.032061867
000140 88 78 5d 3e f9 dc 32 be c1 45 0c bf a3 aa bb bd
       0.2162801 -0.17467107 -0.54793936 -0.09163406
000150 56 c7 5d bd a5 1b b5 be 02 c9 53 be e9 c1 47 be
       -0.05414518 -0.35372654 -0.20682147 -0.19507565
000160 24 3d 6b 3d d2 9f 9b 3e 4d bc c7 3b 4e 50 81 be
       0.057431355 0.3039537 0.0060954452 -0.2525658
000170 d7 d3 c2 bf 0f ca 92 3c 8f 79 dc be ed a4 f3 be
       -1.5220898 0.017918615 -0.43061492 -0.47586766
000180 ce a0 93 be 33 60 03 3e 16 5c 44 be 64 ea f2 bd
       -0.28833622 0.12829666 -0.19175753 -0.11861113
000190 e5 88 90 be de 81 88 3e a9 b1 27 be 85 40 07 bf
       -0.28229442 0.2666158 -0.16376366 -0.52832824
0001a0 a7 56 c6 be 0b c8 28 be 6d 33 b3 bf b3 c9 ab be
       -0.38737985 -0.1648256 -1.4000069 -0.33552322
0001b0 2c 78 92 3d 2f bf 36 be 42 5d ba 3e 56 4b 73 be
       0.07151827 -0.17846368 0.36399275 -0.23759207
0001c0 d5 d6 a5 bd 47 c6 9f 3e b1 2e be 3e 73 b1 04 3e
       -0.080976166 0.3120596 0.37144998 0.12958317
0001d0 8c dd 19 be fd 27 ee be a4 ab 08 bd ed 9d 7f 3e
       -0.1502592 -0.46514884 -0.033366814 0.24962588
0001e0 97 1a 42 be 96 22 05 3e bb 15 d1 3c 8b 6a 80 bd
       -0.18955456 0.13001475 0.025523057 -0.062703215
0001f0 d9 46 2c bf 23 63 e1 3e bc 36 88 be a4 cb 0e bf
       -0.67295605 0.44020948 -0.2660426 -0.5577948
000200 79 67 08 3e 3c d6 90 bd ff 17 12 3e 5b 61 40 3e
       0.13320722 -0.07072112 0.14266966 0.18787138
000210 db c5 60 3e de 45 50 3d 8a 69 3d 3e 54 95 04 bf
       0.21950476 0.05084788 0.18497291 -0.51790357
000220 bf c5 17 3d 78 27 e0 be 27 3a 3d 3e 05 22 a0 bd
       0.03705382 -0.43780112 0.18479215 -0.07818989
000230 f3 45 0f bf 0d 67 64 be b3 0f 49 3d c4 b3 47 3e
       -0.5596611 -0.22304936 0.049087238 0.19502169
000240 00 de f0 3e 76 28 eb 3d d7 06 c2 be 3e 21 0f bd
       0.47044373 0.11482327 -0.37895843 -0.03494381
000250 b7 55 0a c0 1b af f7 bd 0d ba a9 3c 48 ca 7b be
       -2.1614816 -0.120939456 0.020718599 -0.24588883
000260 11 0c 28 bf 84 3b a9 be c0 94 b6 bc 79 25 3f bf
       -0.6564341 -0.3305322 -0.022287726 -0.74666554
000270 24 b8 4b 3e 61 81 97 be a5 b8 1e 3e 9d a4 4f 3e
       0.19894463 -0.29590896 0.15500124 0.20277639
000280 42 79 aa be 1d bc 32 be 89 3d 2c be 4d 8e 84 be
       -0.33295637 -0.17454572 -0.16820349 -0.25889817
000290 77 c6 76 be 71 e7 b9 bd 20 61 a1 be 16 21 c4 3d
       -0.24099146 -0.09077347 -0.31519413 0.09576623
0002a0 61 27 5b 3d 2e e1 e7 bd c2 5c b7 3e 9c e5 bd 3d
       0.05350435 -0.113222465 0.35812956 0.0927231
0002b0 c2 4a 81 be 5a b9 a6 3d 26 6f 11 3c 93 14 20 be
       -0.25252348 0.08140822 0.0088765975 -0.15632848
0002c0 28 88 29 3e b9 05 81 3d ed 08 59 3a 29 8e ac 3e
       0.16555846 0.0629992 0.0008279223 0.3370221
0002d0 94 73 aa 3d 45 38 dd be c0 bc 1a be ce b9 0b 3e
       0.08322826 -0.43206993 -0.15111065 0.13645098
0002e0 55 63 e4 be c1 cc f5 be 37 d5 e6 3e 1e c2 23 3e
       -0.44607034 -0.48007777 0.45084545 0.15992019
0002f0 7d 2c 08 3c 5c ae 07 bb 13 f4 85 be 99 0e 99 3e
       0.008311388 -0.0020703292 -0.26162776 0.2989395
000300 6f 71 71 be 78 12 c8 3d ed bf 3f 3d 30 26 9a 3e
       -0.23578428 0.09769148 0.046813894 0.3010726
000310 b0 d2 f9 bd c2 e9 3f be ea cf 03 3e 56 eb d2 be
       -0.121983886 -0.18741515 0.12872282 -0.41195172
000320 6e 99 a5 bd 28 3a 01 bf 22 5b aa 3e ad 86 b2 3d
       -0.08085905 -0.50479364 0.33272654 0.087170936
000330 10 fd 30 bf 68 26 a1 bd c5 a6 03 3e 2d 83 d5 3d
       -0.6913614 -0.078686535 0.12856586 0.104254104
000340 f2 46 08 3f 4f 98 9c 3e 68 e6 92 be 3a 17 e3 3d
       0.53233254 0.30584952 -0.2869141 0.110884145
000350 c8 dd 1c 3e 5c 57 86 bc 66 62 79 3e 52 3c fd be
       0.15318978 -0.016399078 0.24353942 -0.49460083
000360 9b f7 ff be b8 e2 48 3d 66 98 5b bd 18 21 88 bf
       -0.49993595 0.04904434 -0.053612135 -1.06351
000370 b9 5e ef 3d f5 f5 d4 be e1 c6 00 be 88 23 75 be
       0.11687989 -0.415939 -0.12575866 -0.23939335
000380 b4 2f b3 bd db 60 a0 3c ee 1b 02 bf 6d e5 11 bf
       -0.08749333 0.019577434 -0.5082387 -0.569907
000390 c3 e9 83 be e3 1e 26 be bc 41 56 be 12 29 b2 3d
       -0.25764284 -0.1622272 -0.20923513 0.0869924
0003a0 c1 4e 86 3e 6d 38 d8 be 08 53 b8 3e 75 af 25 be
       0.2623196 -0.4223055 0.36000848 -0.16180213
0003b0 a0 cf 46 be e0 21 e9 bd 2b a5 a1 bc bd 4a 36 be
       -0.1941514 -0.11383414 -0.019732079 -0.17801948
0003c0 66 23 59 be 3e 41 cb 3d 85 48 14 be 28 09 ed 3e
       -0.2120491 0.09924553 -0.14480789 0.46296048
0003d0 75 3f 74 3e 0f 11 5a bf b5 f8 25 bf 07 5f 1e 3e
       0.23852332 -0.8518228 -0.6483262 0.15465938
0003e0 fb 85 0f be e1 fb 02 bf 2f 62 2f bf 23 e4 90 3e
       -0.14015953 -0.51165587 -0.6850919 0.28299055
0003f0 da 7e 91 bc 23 13 0a be 85 07 14 be e1 e8 ae 3e
       -0.017760683 -0.13483863 -0.14455993 0.34162048

fc_2.bias f4 [64]
000000 a1 30 41 3d ef 21 20 3e fb 49 b3 be da 7b 06 bd
       0.047165517 0.15637945 -0.3501738 -0.032832958
000010 80 4d 2c 3d 27 db 87 bd 98 7e 1d be af c5 a6 3d
       0.042066097 -0.06633597 -0.15380323 0.08143174
000020 c6 3d ba bd 46 8f 07 3d 62 1e b2 3e d4 74 ff bc
       -0.090938136 0.03309562 0.34788805 -0.031183638
000030 98 be d4 3e 63 3e 92 3d 60 24 53 3d 95 12 99 be
       0.41551661 0.071408056 0.05154836 -0.2989699
000040 5f e0 39 3d a0 98 7f 3e f7 0e e2 3d 57 a4 59 be
       0.045379993 0.24960566 0.110380106 -0.21254097
000050 3b f4 37 be 5d 16 69 3d 86 4c 82 3e d4 d9 eb 3b
       -0.1796426 0.056906093 0.25449008 0.007197598
000060 5c 37 fd 3d a7 10 38 3e 92 50 76 3d 98 e6 56 3e
       0.123640746 0.17975102 0.06013543 0.20986402
000070 46 a1 7c bc dd 97 51 3d 9b 3c 1b bd 27 c3 c1 bd
       -0.01541931 0.05117022 -0.037899595 -0.094610505
000080 16 73 4e bd 2c bc 85 be 07 7c 83 bd 44 ab c9 bd
       -0.050402723 -0.26120126 -0.06420141 -0.098471195
000090 1b 2f 44 3e 4f 38 0c be 2d f4 86 be df a6 01 3e
       0.19158594 -0.13693355 -0.26358166 0.12661313
0000a0 cd 1a b8 bd 7e f0 cd bd 4e de 25 3e 37 5e e8 3d
       -0.08989487 -0.10055636 0.16198084 0.11346095
0000b0 5c 3e 9c 3e 16 dc d6 bc 66 80 5a 3c c4 1b 10 be
       0.30516326 -0.026227992 0.013336277 -0.14073092
0000c0 de 04 42 3e 17 fb 19 be 2c 77 98 bd ef 76 4d 3b
       0.18947169 -0.1503719 -0.07444605 0.0031351408
0000d0 b5 86 87 be 61 34 28 be 24 5d bf 3d 71 8a 65 3e
       -0.2646996 -0.16426231 0.09343937 0.22416092
0000e0 b6 0c a4 bd 4f bd 06 3c 38 85 17 3e d9 44 81 bd
       -0.08010237 0.008223846 0.14796913 -0.0631196
0000f0 69 ef c0 bc 4b b5 86 3d b0 07 41 3e b5 78 53 be
       -0.02355166 0.06577548 0.18850589 -0.20651515

fc_mu.weight f4 [1, 64]
000000 3e 1d 4e 3e 65 19 19 be aa e6 fa 3d 3f 96 e6 3d
       0.20128343 -0.14951093 0.12251027 0.11259126
000010 1e 68 49 bd 48 ab ba bf dc 8f 4f 3e 35 62 9f 3c
       -0.04917156 -1.4583521 0.20269722 0.019456008
000020 46 d7 dc b9 7b 57 e3 3a c8 ef 5d be ae 40 c5 bf
       -0.0004212206 0.0017344797 -0.216735 -1.5410364
000030 3d b6 ff 3d 84 32 1f be 4e 16 34 40 07 26 84 be
       0.12485931 -0.15546614 2.8138614 -0.25810263
000040 9d 33 21 3f 01 80 0a bf 22 b8 f7 3e 0c 8b e4 be
       0.6296938 -0.5410157 0.4838267 -0.44637334
000050 74 17 1a 3e d0 7a 09 3f fc 02 b3 3e 7d b4 8a 3f
       0.15048009 0.5370302 0.34963214 1.0836331
000060 13 91 a8 3d e4 a3 ab 3d 89 6a 2e 3f 78 ab 19 3d
       0.08230796 0.08380869 0.6813131 0.03751704
000070 c1 b2 27 3f b4 e2 c6 3f 13 d4 77 bf 5a b7 34 be
       0.6550713 1.5537934 -0.96807975 -0.17648068
000080 96 3f c4 bd 3b 56 66 be 09 b1 a0 3f 91 93 d7 3d
       -0.095824406 -0.22493832 1.2554027 0.10526193
000090 fb 56 aa 3b 1c 43 1a bc 6b e9 78 3d c0 aa 71 3f
       0.005198357 -0.009415414 0.06076948 0.9440117
0000a0 21 53 8c 3a c1 ec 8e 3b 0d fb da bf ec 18 e6 b9
       0.0010705927 0.0043617194 -1.7107865 -0.00043887587
0000b0 c6 05 65 3a 8f 74 58 bf 09 a3 9f 3f e1 98 03 bf
       0.0008736517 -0.84552854 1.2471629 -0.5140515
0000c0 62 5b 9b 3d 4d 56 08 3b d2 26 c6 b9 39 8a 3f 3e
       0.07585789 0.0020803392 -0.00037794426 0.18705072
0000d0 a0 15 a9 3f 39 02 8a bc 99 66 08 3c 17 e3 40 3d
       1.3209724 -0.016846763 0.008325242 0.04709157
0000e0 a3 ad bc bf a0 ff 6c 3f 69 c1 31 3f 94 a3 84 3f
       -1.474049 0.9257755 0.69435745 1.036242
0000f0 f1 0e 3c 3c eb cb 74 be db 87 b2 3f 98 ef a1 be
       0.011478172 -0.23905914 1.394771 -0.31628108

fc_std.weight f4 [1, 64]
000000 00 79 c2 be 88 3c 64 be 92 2f 26 be f9 be e7 3e
       -0.3798294 -0.22288716 -0.16229084 0.45262888
000010 5b 1b f3 bd 10 1d 83 3e fd 77 f1 be b5 c6 19 bf
       -0.11870452 0.2560811 -0.47161856 -0.6006883
000020 09 9a 23 bd 65 40 ab be 23 0a fe bd 20 cf 53 3f
       -0.03994182 -0.33447567 -0.12404277 0.8273792
000030 61 5c eb be 9d 63 39 3e dc f7 fa 3f d6 f4 8b 3e
       -0.45968917 0.18104406 1.9606891 0.27335232
000040 12 e2 52 be 50 67 c9 bc 7e 44 15 be e9 bb ba bb
       -0.20594051 -0.024585396 -0.14576909 -0.00569867
000050 91 18 14 be f8 30 7b 3f 95 26 98 bf 53 e7 a8 3f
       -0.14462496 0.98121595 -1.1886774 1.3195595
000060 bc 1e 21 be ea 82 85 be 6b 8a 6d bf f1 41 d5 be
       -0.1573438 -0.26076442 -0.92789334 -0.41651872
000070 a4 82 0e 3f 06 46 1e 3f 4d dd 06 3f 51 36 af 3e
       0.5566809 0.618256 0.5268143 0.34221128
000080 3c 4e e0 bd e6 77 f3 3d 34 0e 14 bd cf 91 a9 3e
       -0.10952422 0.11888103 -0.036146358 0.33119056
000090 b8 43 10 bf 8a 5b 8b 3d 58 a1 e5 3e ad ec c2 3e
       -0.5635333 0.06804569 0.44849658 0.38071194
0000a0 ea 5b aa 3d e2 4b 96 bf 96 64 51 3f 1b 8b 8a bf
       0.083183125 -1.1741908 0.81794107 -1.0823702
0000b0 bf bf 09 bf 3d 7c 81 3e 4a 05 be bd a2 3b 15 3f
       -0.53808206 0.252901 -0.092783526 0.5829412
0000c0 b8 be 70 be 9f ee 49 3e 4f a4 2a 3d 15 00 20 3f
       -0.23510253 0.19719933 0.041660603 0.62500125
0000d0 d8 1d d0 be 81 fc 76 bb b5 a6 4a be d1 76 db be
       -0.4064777 -0.0037687125 -0.19790156 -0.42864087
0000e0 14 15 5c 3f e6 8e f7 3d b4 bb 0b 3f b9 a7 88 be
       0.8596966 0.120878026 0.5458329 -0.26690462
0000f0 d4 58 01 3e e0 ae bb 3e e1 40 a4 3e 51 3c aa 3e
       0.12631541 0.36656857 0.3208075 0.33249143
