Pendulum_SAC/saved_model/0404/sac_actor_EP430.pt (torch, 20559 bytes, 6 tensors)

fc_1.weight f4 [64, 3]
0	0x3f1a76fb	0.603378
1	0xbf25770e	-0.6463479
2	0xbef044e2	-0.46927553
3	0xbc15d0e8	-0.009144045
4	0xbf6ee0b8	-0.93311644
5	0xbeaf94c4	-0.34293187
6	0xbf4250e3	-0.75904673
7	0x3f1f2f8e	0.6218194
8	0x3eee1f11	0.46508077
9	0xbe7cbcf9	-0.24681462
10	0x3e6bad49	0.23015322
11	0xbd489f7b	-0.048980217
12	0x3e24404c	0.16040152
13	0xbeba39f6	-0.36372346
14	0x3f541e76	0.8285898
15	0x3e5c0a37	0.21488272
16	0xbfbf3fc9	-1.4941341
17	0xbf0c0b4b	-0.5470473
18	0xbe7e9e24	-0.24865013
19	0x3f691267	0.91043705
20	0xbe68a792	-0.22720173
21	0xbf217e2a	-0.63083136
22	0xbf874057	-1.056651
23	0xbe8933dc	-0.26797378
24	0x3f844381	1.03331
25	0xbec80199	-0.3906372
26	0xbeb4cede	-0.35314077
27	0x3f5aa398	0.85405874
28	0xbfb65c4b	-1.4246916
29	0xbeff2e5a	-0.4984005
30	0x3e905b52	0.28194672
31	0x3f73fd1c	0.9530809
32	0xbea855a2	-0.32877833
33	0xbd8ed31a	-0.06973858
34	0x3f3c3f31	0.7353392
35	0xbe339eb2	-0.17541006
36	0xbe66a7e5	-0.22524984
37	0xbf91bf7e	-1.1386564
38	0xbe38a99b	-0.1803345
39	0x3e2a6472	0.1663988
40	0xbd731699	-0.059347723
41	0xbb8e77a4	-0.0043477584
42	0x3daa96ff	0.083295815
43	0x3fc18137	1.5117558
44	0x3f1b4bf3	0.60662764
45	0x3e94330a	0.2894519
46	0xbe6a7bdc	-0.22898811
47	0xbe85a125	-0.26099506
48	0x3dd02b60	0.10164523
49	0xbf654e35	-0.8957246
50	0xbd8bd1dd	-0.068271376
51	0x3f0e6e30	0.5563688
52	0x3fdff24a	1.7495816
53	0xbd2d5a72	-0.042322583
54	0xbfa62fa6	-1.2983291
55	0xbe342c5e	-0.1759505
56	0x3ca2e1a6	0.019882988
57	0xbd9214a0	-0.0713284
58	0x3fbeaa3a	1.4895699
59	0x3e90a139	0.28248003
60	0xbeb55d8e	-0.3542294
61	0xc00729c2	-2.1119237
62	0xbed12fa5	-0.40856662
63	0xbee1edea	-0.44126827
64	0xbd9fc6e5	-0.07801608
65	0xbe9769b4	-0.29572833
66	0xbe89bf97	-0.26903984
67	0x3f93b999	1.1541015
68	0x3e29a80b	0.1656801
69	0x3ec85c4b	0.39132914
70	0xbf8584ff	-1.0431212
71	0xbec15ace	-0.3776459
72	0xbf41daf0	-0.757247
73	0xbf885d8a	-1.0653546
74	0x39a078ff	0.00030607727
75	0x3f273a8e	0.6532372
76	0xbf42bb82	-0.76067364
77	0x3d2dc0a8	0.04242006
78	0x3ef20f4f	0.47277305
79	0x3f8f0e99	1.117633
80	0x3e1e225f	0.15442799
81	0xbee1c7ec	-0.4409784
82	0xc00adc3a	-2.1696916
83	0xbeccfa32	-0.40034634
84	0xbe5a94ce	-0.21345827
85	0x3f62254b	0.88338155
86	0x3f4783ba	0.77935374
87	0xbe515175	-0.2044123
88	0xbf660c8b	-0.8986289
89	0xbe5cd7f2	-0.21566752
90	0x3c78ec4a	0.015193054
91	0xbfba48f5	-1.4553515
92	0xbf006330	-0.5015135
93	0xbf482d19	-0.78193814
94	0xbe916500	-0.2839737
95	0x3e4515a4	0.19246536
96	0xbf62188a	-0.88318694
97	0xbdb01aa3	-0.085988306
98	0xbce2b9ea	-0.027676541
99	0x3ebf7763	0.37395772
100	0x3de25ac4	0.110524684
101	0x3d731e4a	0.059355058
102	0x3e10c92c	0.14139241
103	0xbf7a3167	-0.9773163
104	0xbea61d2e	-0.32444137
105	0x3f542a6f	0.8287725
106	0xbfc05583	-1.5026096
107	0xbeca1e0e	-0.39476055
108	0xbdb5ace2	-0.088708654
109	0x3d4425d8	0.047887653
110	0xbf7f6c0a	-0.9977423
111	0x3e4bc91e	0.19900939
112	0xbfd5088d	-1.6643234
113	0xbe13c874	-0.14431936
114	0xbf2236a3	-0.6336462
115	0xbe2f8595	-0.17140801
116	0xbe94b95c	-0.29047668
117	0xbf2d7c2c	-0.67767596
118	0x3f420e57	0.7580313
119	0x3e9e9f87	0.30981085
120	0xbf314d8b	-0.69258946
121	0x3e7426b2	0.23842886
122	0xbd58e1c8	-0.052949697
123	0x3f50cdba	0.81563914
124	0xbf67052a	-0.90242255
125	0xbe9e55fc	-0.30924976
126	0xbea0736f	-0.3133807
127	0x3ffae92b	1.9602407
128	0x3eb54d4c	0.35410535
129	0xbe59803b	-0.21240322
130	0x3f1f09f9	0.6212459
131	0xbed31caf	-0.4123282
132	0xbf2b9ff1	-0.67040926
133	0xbf481c79	-0.78168446
134	0x3dd682dd	0.10474179
135	0x3f0a2d21	0.5397511
136	0x3e0ba5b7	0.13637434
137	0xbf250a1e	-0.6446856
138	0x3f703972	0.93837655
139	0xbf2154c6	-0.6301998
140	0x3ef4f7fe	0.47845453
141	0x3c2e26a7	0.010629333
142	0xbdd722d5	-0.105046906
143	0xbf285143	-0.65748996
144	0xbf808906	-1.0041816
145	0xbd46fbf7	-0.048580136
146	0xbe4da935	-0.20084079
147	0x3eea2cd6	0.45737332
148	0x3fb892bd	1.4419781
149	0x3ef9a938	0.48761916
150	0x3f90e5ef	1.132017
151	0x3d2f7ce7	0.042843726
152	0x3ee00475	0.437534
153	0x3dbbc1c2	0.09167816
154	0xbe262355	-0.16224416
155	0xbe4458be	-0.19174477
156	0xbf16e4a5	-0.58942634
157	0x3f3a25d9	0.72714
158	0xbdf402f5	-0.119146265
159	0x3f527f6f	0.822257
160	0xbebb8c67	-0.36630556
161	0xbeb0a6dc	-0.34502304
162	0x3f0ea1e3	0.5571577
163	0xbdce0931	-0.10060347
164	0xbebff6b3	-0.37492904
165	0x3f5e0d92	0.86739457
166	0x3fb8b7d1	1.4431096
167	0x3edc22d9	0.42995337
168	0xbfab9fec	-1.3408179
169	0x3ebaab3a	0.3645876
170	0xbd805559	-0.06266279
171	0xbf96a287	-1.176835
172	0xbe3abbbf	-0.18235682
173	0x3cf00823	0.029300755
174	0xbf906046	-1.127938
175	0xbf7e263b	-0.99277085
176	0xbe361c86	-0.17784318
177	0xbde7a127	-0.11310034
178	0x3f13b64a	0.57700026
179	0xbf2e85ac	-0.6817272
180	0x3cefb88f	0.02926281
181	0xbfce9368	-1.6138735
182	0xbf189edd	-0.59617406
183	0x3bea3527	0.0071474495
184	0xbd129634	-0.035787776
185	0x3df9bcf8	0.12194246
186	0xbcd9f549	-0.026606219
187	0xbfdddf72	-1.7333815
188	0xbf237344	-0.63847756
189	0x3e1f53a8	0.15559256
190	0x3f81973d	1.0124279
191	0xbe9a56d6	-0.30144376

fc_1.bias f4 [64]
0	0xbee98faa	-0.4561742
1	0xbd0c34a2	-0.034229882
2	0xbdff08e7	-0.1245287
3	0xbd0e1870	-0.034691274
4	0xbf153fc9	-0.58300453
5	0x3e3d9fee	0.1851804
6	0x3ea65df5	0.3249356
7	0x3e2338b0	0.15939593
8	0xbf852567	-1.0402039
9	0xbf525de0	-0.8217449
10	0xbec1c282	-0.3784371
11	0x3e0c1a49	0.13681902
12	0x3e964cd5	0.29355493
13	0xbe58f9a1	-0.21188976
14	0xbc358202	-0.01107836
15	0xbf0e5454	-0.55597425
16	0xbe8e0730	-0.2773986
17	0x3d203f05	0.0391226
18	0xbe12d6ca	-0.14339748
19	0x3e04007f	0.12890814
20	0xbec298b6	-0.38007134
21	0xbe9c104d	-0.30481187
22	0x3e9a1c96	0.30099934
23	0xbded9f27	-0.116026215
24	0x3eabb6c4	0.33537877
25	0x3d813b3b	0.063101254
26	0xbded100b	-0.115753256
27	0xbef11f4a	-0.47094184
28	0xbecbbadf	-0.3979101
29	0xbe093c6e	-0.13401958
30	0x3bf4debb	0.0074728406
31	0xbf695b48	-0.9115491
32	0x3ef7e5de	0.48417562
33	0xbe23e9d1	-0.16007163
34	0x3e09f97d	0.13474078
35	0xbeb2d302	-0.3492661
36	0x3e4f3c8c	0.2023794
37	0xbdf3f415	-0.11911789
38	0xbf6b1137	-0.9182314
39	0xbe40c757	-0.18826042
40	0x3efc91d9	0.49330023
41	0xbf0062a1	-0.50150496
42	0xbed477b6	-0.41497582
43	0xbf293454	-0.6609547
44	0x3ea9f08a	0.3319133
45	0xbef3c963	-0.47614583
46	0xbf2d0e11	-0.6759959
47	0x3d993b21	0.07481981
48	0xbf28afc4	-0.658932
49	0xbee17244	-0.4403249
50	0xbf90112e	-1.1255243
51	0xbedde1f9	-0.43336466
52	0x3df28924	0.11842564
53	0xbf90fba2	-1.1326792
54	0xbfc2a22a	-1.5205739
55	0xbf083de9	-0.5321947
56	0x3e1da474	0.15394765
57	0xbe3a2cf3	-0.1818121
58	0xbefb5906	-0.49091357
59	0xbf145358	-0.5793967
60	0x3beff316	0.0073226793
61	0xbda8de00	-0.08245468
62	0xbd3ba066	-0.045807265
63	0xbcbf37c9	-0.02334203

fc_2.weight f4 [64, 64]
0	0x3e9df148	0.30848145
1	0x3e907c0f	0.2821965
2	0xbfac2c75	-1.3451067
3	0xbf0192cf	-0.5061464
4	0x3e087681	0.13326456
5	0x3e97b844	0.2963277
6	0xbeb0cd50	-0.3453164
7	0x3c21c0ce	0.009872628
8	0x3eccd0d8	0.40003085
9	0x3ebd3d8a	0.36961013
10	0xbe859367	-0.26089022
11	0xbe8d10dd	-0.27551928
12	0x3db509b1	0.08839739
13	0xbdfb2624	-0.12263134
14	0xbeec5464	-0.46158135
15	0x3cc8ead5	0.02452604
16	0x3efe17f9	0.49627665
17	0xbe3cb698	-0.18429029
18	0xbfb4c49a	-1.4122498
19	0xbe5c126d	-0.21491404
20	0x3eb7f4e8	0.35929036
21	0xbe0208e7	-0.12698708
22	0xbd86633a	-0.06561895
23	0x3e3143b3	0.17310981
24	0xbea2316c	-0.3167833
25	0x3e2eb44c	0.17060965
26	0xbdaa7df2	-0.083248034
27	0x3e63c704	0.22243887
28	0xbd9d6bd0	-0.07686579
29	0x3c143c34	0.009047557
30	0x3ea3df5d	0.3200635
31	0xbe55131a	-0.20808068
32	0xbf101c15	-0.5629285
33	0x3db8d4e6	0.09024982
34	0x3e94d60b	0.29069552
35	0x3e3e314b	0.18573491
36	0x3cb5f4c5	0.022211442
37	0x3ebaf5d4	0.36515677
38	0xbf6689f9	-0.9005428
39	0xbe4ae76f	-0.19814847
40	0xbe595f49	-0.21227755
41	0x3eb12e48	0.34605622
42	0xbece1c20	-0.40255833
43	0xbe6fa39b	-0.23402254
44	0xbe8428f0	-0.25812483
45	0x3da94771	0.082655795
46	0xbc83f416	-0.0161076
47	0xbb456cd7	-0.0030124688
48	0xbf8d8511	-1.1056234
49	0xbfc436c3	-1.5329212
50	0x3eb0fcaa	0.34567767
51	0xbe6b2cea	-0.22966352
52	0xbea1828b	-0.3154491
53	0x3e289b09	0.16465391
54	0xbd2e9395	-0.042621214
55	0xbf2230ab	-0.6335551
56	0xbfc9d3dd	-1.576778
57	0xbfa2d2bc	-1.2720561
58	0xbfd6ada3	-1.677174
59	0xbe626992	-0.22110584
60	0x3e90acb7	0.2825677
61	0xbca07430	-0.019586653
62	0x3e978096	0.2959029
63	0xbe25f788	-0.16207707
64	0x3da708c3	0.08155968
65	0xbe0905ae	-0.13381073
66	0xbe3c6392	-0.18397358
67	0xbdaecf21	-0.085356005
68	0x3eedf667	0.46477053
69	0x3dfc28f5	0.123124994
70	0xbf35716e	-0.70876205
71	0xbccc8fe2	-0.024970952
72	0xbeba6edd	-0.36412707
73	0xbdee99d9	-0.11650438
74	0xbf148c36	-0.58026445
75	0xbe5dd01f	-0.21661423
76	0x3e5f25f0	0.21791816
77	0x3eabb4a6	0.3353626
78	0xbe05ae6f	-0.13054822
79	0xbe581278	-0.21100795
80	0x3e9885f2	0.29789692
81	0xbeab7493	-0.33487377
82	0xbf385273	-0.7200081
83	0xbee71bd8	-0.4513843
84	0xbeb869fb	-0.36018357
85	0xbedfb0ae	-0.43689483
86	0xbf4554d5	-0.7708257
87	0x3dc4cfe9	0.09609968
88	0xbd3c6a65	-0.045999903
89	0x3ed2f6f7	0.41204044
90	0xbdcfc721	-0.10145403
91	0xbeb306e5	-0.34966198
92	0xbfbd49a2	-1.4788096
93	0xbefba394	-0.49148238
94	0xbf84575b	-1.0339159
95	0xbf1f9477	-0.62335914
96	0xbf25861d	-0.64657766
97	0x3debfb2f	0.11522519
98	0x3dc0d30e	0.094152555
99	0x3defdfd7	0.11712616
100	0xbec2968c	-0.38005483
101	0x3e8025b5	0.25028768
102	0xbe84f7cf	-0.25970313
103	0xbf80532c	-1.0025382
104	0xbec00587	-0.37504217
105	0x3dc0ba0b	0.09410485
106	0xbfd7118e	-1.6802232
107	0xbef57b2d	-0.47945538
108	0x3bdf75fa	0.006819484
109	0xbe6d8984	-0.2319699
110	0x3eed4322	0.4634028
111	0xbe4578c4	-0.1928435
112	0xbe4b7edd	-0.19872613
113	0x3de0b2f9	0.10971636
114	0x3f071cf9	0.52778584
115	0x3c12502b	0.008930246
116	0xbe711a81	-0.23545267
117	0xbf1b5d17	-0.6068892
118	0xbe2440ae	-0.16040298
119	0x3e42cf35	0.19024356
120	0xbea8b0e2	-0.3294745
121	0x3dc8d548	0.09806305
122	0x3d5032a9	0.050829563
123	0xbe501214	-0.20319396
124	0xbf89d367	-1.076764
125	0x3eff9cac	0.4992422
126	0xbeeb76aa	-0.4598897
127	0xbfb09d82	-1.3798068
128	0x3d0bb82c	0.034111187
129	0xbdc63e5b	-0.09679862
130	0x3e033851	0.12814452
131	0x3e976fb3	0.29577407
132	0x3e7973f6	0.24360642
133	0xbd0b0586	-0.033940814
134	0x3d01909a	0.031632043
135	0xbf52cafc	-0.8234098
136	0x3d3495fc	0.04408835
137	0xbed1a80a	-0.40948516
138	0x3e9cc164	0.30616295
139	0xbe61c1b6	-0.22046551
140	0xbf82986a	-1.0202763
141	0xbdabb652	-0.08384384
142	0x3d7913f4	0.060810044
143	0x3e4be8b8	0.19912994
144	0x3f8334fd	1.0250546
145	0x3e27b726	0.1637846
146	0xbf14de29	-0.5815149
147	0xbd6449eb	-0.055734556
148	0xc0045a20	-2.0680008
149	0xbe11e1a1	-0.14246227
150	0xbce225fb	-0.027606001
151	0xbeb279a9	-0.34858444
152	0xbf41ae2a	-0.7565638
153	0x3d83f310	0.06442845
154	0x3d29aae7	0.04142275
155	0xbf256bc6	-0.64617574
156	0x3e45e6e7	0.19326364
157	0xbf26e5db	-0.6519448
158	0x3e2b2d7b	0.16716568
159	0x3d946854	0.072464615
160	0xbef689f3	-0.48152122
161	0xbef6f9d9	-0.48237494
162	0xbe92d371	-0.28676942
163	0xbee03bf3	-0.43795738
164	0xbe7fe059	-0.24987926
165	0xbe97ae96	-0.29625386
166	0xbf18f267	-0.59744877
167	0x3d7a1e25	0.061063904
168	0xbe0c8bee	-0.13725254
169	0xbe02a082	-0.12756541
170	0x3ea54bb1	0.3228431
171	0x3e4472e6	0.19184455
172	0xbe9f3e43	-0.3110219
173	0xbcd71147	-0.026253356
174	0x3dd4a9ef	0.10383975
175	0xbe63f2c8	-0.22260582
176	0x3e8f395f	0.27973458
177	0x3dda127f	0.10648059
178	0x3e8c921d	0.27455226
179	0x3eb88e6b	0.36046156
180	0x3ed74138	0.42041945
181	0xbeb8f221	-0.3612223
182	0xbd9cfcd0	-0.07665408
183	0x3e56d206	0.20978555
184	0xbf31cc95	-0.6945279
185	0xbf2ade04	-0.6674502
186	0x3f0bf4c3	0.5467035
187	0x3e37f3bd	0.17964073
188	0xbc2f46c2	-0.010698022
189	0x3ce728ed	0.028217757
190	0xbec6f87b	-0.3886145
191	0x3eacde89	0.3376353
192	0xbe612234	-0.21985704
193	0x3cf4dd32	0.02989063
194	0x3cf76b2d	0.030202473
195	0x3e9587a5	0.2920505
196	0xbe27f893	-0.16403417
197	0xbe8a561b	-0.27018818
198	0x3ddb008f	0.10693466
199	0xbe7fd510	-0.2498362
200	0xbe2a9dc9	-0.16661753
201	0xbf822c45	-1.016976
202	0x3eb58ee2	0.35460573
203	0x3d93c65d	0.07215569
204	0xbeebad16	-0.46030492
205	0xbdb51d1c	-0.08843443
206	0x3db82a0b	0.08992394
207	0x3d07a371	0.033114854
208	0x3fb8338a	1.4390728
209	0x3ea26cb1	0.3172355
210	0xbe8677b4	-0.262632
211	0x3db7167c	0.089398354
212	0x3eb6d7a1	0.35711387
213	0xbd99bc4b	-0.07506617
214	0x3e5be871	0.21475388
215	0xbf445d23	-0.76704615
216	0xbefaa6a9	-0.48955277
217	0x3e8239ea	0.2543481
218	0xbcbdabd7	-0.023153229
219	0xbf5b2895	-0.856088
220	0x3dbde555	0.09272257
221	0xbe2e12a8	-0.16999304
222	0xbe820b8e	-0.2539944
223	0xbeed0f98	-0.4630096
224	0xbdc7961a	-0.097454265
225	0x3e853965	0.2602035
226	0xbf396cbb	-0.72431535
227	0xbf4a8d34	-0.7912171
228	0xbe72b88a	-0.23703209
229	0xbef608c7	-0.48053572
230	0x3e42fcf8	0.19041812
231	0x3d4fdb4b	0.050746243
232	0x3e97348d	0.2953228
233	0xbf47665d	-0.7789057
234	0x3e8e9277	0.2784612
235	0xbe397d93	-0.18114309
236	0xbe28c4ee	-0.16481373
237	0xbdb7fd33	-0.08983841
238	0x3d9ce0ca	0.076600626
239	0xbe3445d9	-0.1760477
240	0x3e927384	0.28603756
241	0x3d2ced0b	0.04221825
242	0xbdbd97c8	-0.092574656
243	0x3e50cad2	0.2038987
244	0x3ea82a5e	0.32844824
245	0xbfdd9e83	-1.7313999
246	0xbf7a4965	-0.9776824
247	0x3dc84ca8	0.09780246
248	0xbd15fb1e	-0.036616437
249	0xbefd4ffe	-0.49475092
250	0xbef2b293	-0.47401866
251	0x3ea2cd26	0.3179714
252	0xbe168e29	-0.14702667
253	0xbe0ecf1b	-0.13946192
254	0xbeade437	-0.33963177
255	0x3eb0d6f0	0.34538984

fc_2.bias f4 [64]
0	0x3deff4a3	0.117165826
1	0x3e427c7e	0.18992803
2	0xbef9c859	-0.48785666
3	0x3c1676e0	0.009183615
4	0x3ddece92	0.10879244
5	0x3ca05bc2	0.019575004
6	0xbe5c35e0	-0.21504927
7	0x3df87b42	0.121328846
8	0xbe08ed1a	-0.13371697
9	0x3d9c4b32	0.0763153
10	0x3eaf00b8	0.34180236
11	0xbdebe724	-0.11518696
12	0x3ea06995	0.31330553
13	0x3c3f0389	0.011658558
14	0x3d52e4e3	0.051487815
15	0xbeb5125a	-0.35365564
16	0x3df627c8	0.120193064
17	0x3ec5ae14	0.38609374
18	0x3e133c40	0.14378452
19	0xbe1e8029	-0.15478577
20	0xbe7c4fe9	-0.24639858
21	0x3df1732d	0.11789546
22	0x3e8874dd	0.2665166
23	0x3d73e546	0.059544824
24	0x3d3c085c	0.04590641
25	0x3e2155c0	0.15755367
26	0x3dc3673f	0.09541177
27	0x3dfdabd0	0.12386286
28	0xbda93374	-0.08261767
29	0x3d43d858	0.047813743
30	0xbdc5bfe1	-0.096557386
31	0xbe06aaf6	-0.13151154
32	0xbd89da85	-0.067311324
33	0xbe2ee92e	-0.17081138
34	0xbdb3af80	-0.08773708
35	0xbdc4f8ce	-0.09617768
36	0x3e42e1a6	0.1903139
37	0xbe540f78	-0.20709026
38	0xbe8b39fa	-0.2719267
39	0x3ce1dab1	0.0275701
40	0xbe1bb9cf	-0.15207599
41	0xbe170e90	-0.14751649
42	0x3dbaf8d4	0.091294914
43	0x3e22f487	0.15913592
44	0x3ed9dccf	0.42551276
45	0x3d487c8e	0.04894691
46	0xbc5e219b	-0.013557817
47	0xbcce8372	-0.025209162
48	0x3e59c63f	0.21267031
49	0xbe666738	-0.22500312
50	0xbe2ebd42	-0.17064384
51	0xbd9e0651	-0.077160485
52	0xbe695b5a	-0.22788754
53	0xbe45da1d	-0.19321485
54	0x3d50951d	0.050923456
55	0x3e260ec7	0.16216575
56	0xbd2b2e66	-0.041792296
57	0xbc9f2fa5	-0.019431898
58	0x3e353ecc	0.17699736
59	0x3a815715	0.0009867871
60	0xbdb7ec40	-0.08980608
61	0x3da6a28d	0.08136473
62	0x3e523028	0.20526183
63	0xbeb4e1b3	-0.35328445

fc_mu.weight f4 [1, 64]
0	0x3ea84e29	0.3287213
1	0xbe7d87d6	-0.24758849
2	0x3e2525a2	0.16127637
3	0x3e0ec576	0.13942513
4	0x3dc86b52	0.09786095
5	0xc00fded9	-2.2479765
6	0x3e422be6	0.18962058
7	0xbda9a977	-0.08284276
8	0xbaae29a9	-0.0013287562
9	0x3c23d910	0.010000482
10	0xbea05cd0	-0.3132081
11	0xbfcc33ed	-1.5953346
12	0x3c4fbc83	0.012679222
13	0xbda4d890	-0.080491185
14	0x4059360c	3.3939238
15	0xbe4b3d57	-0.19847618
16	0x3f29d6a3	0.66343135
17	0xbed8ee71	-0.42369416
18	0x3efe8e45	0.49717918
19	0xbf29b696	-0.6629423
20	0xbc0113ca	-0.007878253
21	0x3f51452d	0.8174618
22	0x3f6544a3	0.89557856
23	0x3fae40b0	1.3613491
24	0x3e1fe721	0.15615512
25	0x3e462cdc	0.1935305
26	0x3f44bb25	0.7684806
27	0xbd11c6ce	-0.035589986
28	0x3f833ad8	1.0252333
29	0x3fdca7e6	1.7238739
30	0xbf69bc9c	-0.9130342
31	0xbf53cd68	-0.827353
32	0xbe5bf637	-0.21480642
33	0xbdea3bb0	-0.11437166
34	0x3fac130c	1.3443313
35	0x3ed1b732	0.4096008
36	0x3a98eb6d	0.0011666842
37	0x3c1aa473	0.009438622
38	0x3de179d9	0.11009569
39	0x3f74ecd2	0.9567386
40	0xbb19cac6	-0.002346681
41	0xbd3d021a	-0.046144582
42	0xc001a562	-2.0257192
43	0xbcb4ea13	-0.022084272
44	0xbc7d8a9a	-0.01547494
45	0xbf662808	-0.8990483
46	0x3fadc9f5	1.3577257
47	0xbee99001	-0.4561768
48	0x3e15e794	0.14639121
49	0x3b338e84	0.0027398178
50	0x3a94d4d9	0.0011354937
51	0x3eed3940	0.4633274
52	0x3f9f4474	1.2442765
53	0x3c0d156f	0.008611067
54	0xbb36f58c	-0.0027917353
55	0x3e96bc6f	0.29440638
56	0xbfca2b87	-1.5794533
57	0x3fa79551	1.3092443
58	0x3f2151e1	0.6301556
59	0x3f91f010	1.1401386
60	0x3ac0c9dc	0.0014708596
61	0xbe2a0c78	-0.16606319
62	0x3fc6dc48	1.5535975
63	0xbf11f695	-0.5701688

fc_std.weight f4 [1, 64]
0	0xbe658205	-0.2241288
1	0xbf0eec91	-0.5582972
2	0xbe7749ad	-0.24149199
3	0x3eae5e49	0.3405631
4	0xbe3c565f	-0.18392323
5	0x3f2123f9	0.62945515
6	0xbe896ead	-0.2684225
7	0xbf5a0c10	-0.85174656
8	0xbcdc196d	-0.026867593
9	0xbefe40dd	-0.49658862
10	0xbca8d5c2	-0.02060974
11	0x3f592085	0.84815246
12	0xbe9e1c07	-0.30880758
13	0xbcade1eb	-0.02122589
14	0x3fff627c	1.995193
15	0x3ecf7fd7	0.40527222
16	0x3d68d3e7	0.05684271
17	0xbd80e439	-0.0629353
18	0xbe30004f	-0.17187618
19	0xbecf29f2	-0.4046169
20	0xbed8db7b	-0.4235495
21	0x3f903fe5	1.1269499
22	0xbfa51cb3	-1.2899383
23	0x3f6ab389	0.916802
24	0xbc26c7db	-0.010179485
25	0xbe3ae9fa	-0.18253317
26	0xbf9eeef9	-1.2416679
27	0xbf1d95da	-0.6155678
28	0x3f21e57b	0.63240784
29	0x3f1d2d50	0.61397266
30	0x3f289874	0.65857625
31	0x3ef517b4	0.47869647
32	0xbd6a616b	-0.05722181
33	0x3d11de7e	0.035612576
34	0x3e2f3855	0.17111333
35	0x3ee8cc54	0.4546839
36	0xbed2517b	-0.4107779
37	0x3dd74e9f	0.10513043
38	0x3ed07b81	0.40719226
39	0x3e81bde5	0.2534019
40	0xbc94372b	-0.018092712
41	0xbf8b750e	-1.0895097
42	0x3fccf5ca	1.6012509
43	0xbf9df225	-1.2339522
44	0xbf1bca5a	-0.6085564
45	0xbed35d0b	-0.41281924
46	0xbdc67323	-0.09689929
47	0x3f0f14a3	0.55890864
48	0xbe8d657b	-0.27616486
49	0x3de38e75	0.11111156
50	0x3bdfe370	0.0068325326
51	0x3eed1483	0.46304712
52	0xbf0f0386	-0.5586475
53	0x3f0c0a95	0.54703647
54	0xbeb3006a	-0.34961253
55	0xbe7c06f2	-0.24612024
56	0x3f658760	0.8965969
57	0x3d9d12a9	0.07669575
58	0x3ee3d7b8	0.44500518
59	0xbe24a1d5	-0.16077359
60	0x3c9034d8	0.017603323
61	0x3e9c0862	0.30475146
62	0x3f132731	0.57481676
63	0x3e9ad214	0.30238402
