Pendulum_SAC/saved_model/0404/sac_actor_EP200.pt (torch, 20559 bytes, 6 tensors)

fc_1.weight f4 [64, 3]
0.64814323 -0.32012016 -0.4726769 -0.13143142 -0.748773 -0.4264641 -0.7006373 0.64992285
0.44360897 -0.36050785 0.5791096 -0.010567641 0.5088072 -0.79042095 0.4536756 0.20861022
-1.4946171 -0.42991397 -0.029060828 1.0085917 -0.18477589 -0.43930063 -1.2467523 -0.37146866
0.8644497 -0.060423907 -0.2929342 0.78272027 -1.2483315 -0.5958031 0.22993912 0.99977505
-0.26976907 0.016179323 0.52698153 -0.19596319 -0.28818557 -0.9917807 -0.18076949 0.16296485
-0.118036196 -0.012968689 0.03374217 1.2563034 0.5592045 0.07018061 -0.072598614 -0.5363171
0.21187034 -0.83241546 0.0008931213 0.46215633 1.865397 0.0665192 -0.93577945 -0.2292916
-0.016687835 -0.108188264 1.3598537 0.23452932 -0.33521405 -1.8394679 -0.37798995 -0.37103918
0.037030153 -0.35329828 -0.24986042 0.9237543 0.11513177 0.32708725 -1.0325959 -0.32669467
-0.70147437 -0.89023966 -0.08607943 0.51879644 -0.44532076 -0.077712364 0.68549836 1.0368414
0.06374683 -0.48901796 -1.8008634 -0.44627032 -0.15439582 1.0583227 0.7124534 -0.18388912
-0.9464988 -0.26636422 0.0765753 -1.199067 -0.49286807 -0.5992966 -0.32238573 0.17618635
-0.79523355 0.09171476 -0.023258276 0.5519595 0.12146194 -0.06909857 0.13651711 -1.0185727
-0.29675314 0.72848165 -1.3838401 -0.38481152 -0.09661434 -1.104977 -0.5302512 0.0941058
-1.4705313 -0.11753548 -0.5214816 0.019395916 -0.3499776 -0.7311438 0.74226975 0.3348136
-0.5982981 0.47713363 0.021016408 0.63524824 -0.7146849 -0.3068192 -0.27779117 1.8187879
0.34067994 -0.40660092 0.7081017 -0.36884487 -0.61921555 -0.6161233 0.034999706 0.6526679
-0.1183463 -0.51199543 0.77257353 -0.9621208 0.5318192 0.06489427 -0.2760043 -0.44638795
-0.80671215 -0.087542385 -0.20916612 0.35770568 1.3720573 0.43798977 1.02198 -0.061864074
0.37621155 0.022125747 0.0052166926 -0.35468027 -0.46045572 0.6007407 -0.13714078 0.49608213
-0.4681737 -0.3302821 0.36085686 -0.03134899 -0.30357692 0.7433617 1.257515 0.4511356
-1.0625052 0.084713265 -0.083934166 -1.0246637 0.22846177 0.068821646 -1.0447978 -0.4204081
-0.07254357 0.08165413 0.37307683 -0.57593054 0.0789914 -1.3728528 -0.647872 0.14915395
-0.10332383 0.15205586 -0.11652777 -1.4820733 -0.5429585 0.088917285 0.94710624 -0.32164863
00000000: b7ec 253f cae6 a3be b502 f2be f595 06be
00000010: 96af 3fbf 8159 dabe f75c 33bf 5861 263f
00000020: b720 e33e 7c94 b8be 8740 143f e623 2dbc
00000030: 3041 023f 0759 4abf 2b48 e83e eb9d 553e
00000040: 9d4f bfbf af1d dcbe f910 eebc 8819 813f
00000050: e435 3dbe 03ec e0be 9495 9fbf 2431 bebe
00000060: 934c 5d3f 0f7f 77bd 79fb 95be 5b60 483f
00000070: 54c9 9fbf 8d86 18bf 2975 6b3e 42f1 7f3f
00000080: 2c1f 8abe 808a 843c 43e8 063f 93aa 48be
00000090: 0f8d 93be 57e5 7dbf a31b 39be 42e0 263e
000000a0: f6bc f1bd a07a 54bc 3b35 0a3d 8dce a03f
000000b0: 0728 0f3f daba 8f3d 95ae 94bd 144c 09bf
000000c0: 8af4 583e 2e19 55bf 5b20 6a3a c19f ec3e
000000d0: 54c5 ee3f 383b 883d 3e8f 6fbf 6bcb 6abe
000000e0: edb4 88bc cf91 ddbd b00f ae3f 7428 703e
000000f0: 2da1 abbe af73 ebbf e687 c1be d9f8 bdbe
00000100: eeac 173d 83e3 b4be 69db 7fbe 297b 6c3f
00000110: 35ca eb3d fb77 a73e 1a2c 84bf 8644 a7be
00000120: d393 33bf bfe6 63bf 6a4a b0bd d8cf 043f
00000130: 1501 e4be a927 9fbd d27c 2f3f 38b7 843f
00000140: b38d 823d 9060 fabe b182 e6bf 8b7d e4be
00000150: f019 1ebe 1e77 873f 5963 363f 6e4d 3cbe
00000160: bf4d 72bf e460 88be 83d3 9c3d 077b 99bf
00000170: 3459 fcbe 816b 19bf be0f a5be 326a 343e
00000180: 6d94 4bbf f3d4 bb3d 2488 bebc 384d 0d3f
00000190: 0ac1 f83d 8d83 8dbd 24cb 0b3e 9760 82bf
000001a0: 07f0 97be c67d 3a3f ac21 b1bf 0406 c5be
000001b0: bddd c5bd e36f 8dbf 8bbe 07bf 8bba c03d
000001c0: 5f3a bcbf 71b6 f0bd d17f 05bf 2fe4 9e3c
000001d0: 4430 b3be 3d2c 3bbf 6405 3e3f b06c ab3e
000001e0: 102a 19bf dc4a f43e 9a2a ac3c a19f 223f
000001f0: 97f5 36bf 6817 9dbe a53a 8ebe 0bce e83f
00000200: 9a6d ae3e ff2d d0be 2746 353f 3cd9 bcbe
00000210: e984 1ebf 42ba 1dbf da5b 0f3d 3e15 273f
00000220: 8c5f f2bd 2212 03bf 61c7 453f 8c4d 76bf
00000230: 4e25 083f 49e7 843d 7050 8dbe f68c e4be
00000240: b084 4ebf 6c49 b3bd a52f 56be 3325 b73e
00000250: 939f af3f 3240 e03e 3ed0 823f 2f65 7dbd
00000260: cd9e c03e 0e41 b53c caf0 aa3b a798 b5be
00000270: dac0 ebbe 24ca 193f a26e 0cbe 7afe fd3e
00000280: 77b4 efbe bc1a a9be 3bc2 b83e cc67 00bd
00000290: 6f6e 9bbe f44c 3e3f 40f6 a03f 3ffb e63e
000002a0: 2c00 88bf 267e ad3d ade5 abbd 2e28 83bf
000002b0: e2f1 693e 5df2 8c3d efbb 85bf bb3f d7be
000002c0: b991 94bd 483a a73d ed03 bf3e 2f70 13bf
000002d0: 3ec6 a13d a4b9 afbf f0da 25bf d0bb 183e
000002e0: 729b d3bd 88b4 1b3e 1da6 eebd 94b4 bdbf
000002f0: 54ff 0abf 441a b63d 8e75 723f 21af a4be

fc_1.bias f4 [64]
-0.5004791 -0.003973952 -0.17819391 0.16399051 -0.56551397 0.18227781 0.14451362 0.3381649
-0.95664287 -0.5643593 -0.28986207 0.35987863 0.36179084 -0.14107992 -0.043162715 -0.47371832
-0.22878388 0.0142243765 0.23343377 0.22659883 -0.30860615 -0.40424624 0.36104763 0.04501017
0.484869 0.019717425 -0.11788208 -0.43499613 -0.20541991 0.119121626 0.07193514 -0.8441506
0.6226393 0.17394026 0.13981037 -0.30681655 0.2651949 0.069732346 -0.5661668 -0.180208
0.3608194 -0.49806613 -0.44079745 -0.46768102 0.36251652 -0.35154855 -0.5889096 0.18211941
-0.302169 -0.3634824 -0.98973936 -0.31084934 0.39986265 -0.9104748 -1.3599873 -0.59477407
0.0024794443 -0.17480274 -0.6335274 -0.6708981 0.13413614 -0.13741823 -0.1453824 -0.11213238
00000000: 661f 00bf ed37 82bb 7778 36be 21ed 273e
00000010: 86c5 10bf 09a7 3a3e 61fb 133e f323 ad3e
00000020: 8ce6 74bf da79 10bf cd68 94be 0342 b83e
00000030: a63c b93e 4177 10be 63cb 30bd 358b f2be
00000040: 5246 6abe 5c0d 693c 4309 6f3e 8609 683e
00000050: a001 9ebe 5df9 cebe 3cdb b83e 965c 383d
00000060: c040 f83e 7086 a13c 296c f1bd d0b7 debe
00000070: 9959 52be 0af6 f33d bb52 933d 411a 58bf
00000080: 4a65 1f3f 651d 323e 732a 0f3e 0f17 9dbe
00000090: a0c7 873e d5cf 8e3d 4ff0 10bf 7288 38be
000000a0: 52bd b83e 8602 ffbe 34b0 e1be e373 efbe
000000b0: c49b b93e 2cfe b3be c8c2 16bf 837d 3a3e
000000c0: e5b5 9abe 5d1a babe 8f5f 7dbf a527 9fbe
000000d0: ccba cc3e e014 69bf 1014 aebf 1d43 18bf
000000e0: 2c7e 223b 7dff 32be da2e 22bf fabf 2bbf
000000f0: fc5a 093e 5db7 0cbe 20df 14be a9a5 e5bd

fc_2.weight f4 [64, 64]
0.31073368 0.2099081 -0.2603947 -0.21918693 0.19393276 0.13292871 -0.21919131 -0.10541151
0.48266664 0.25593323 -0.18555944 -0.13628495 -0.050387047 -0.13048878 -0.098165035 0.11487171
0.13265318 -0.1751418 -1.0845355 -0.2550731 0.08011853 0.017897911 -0.1295817 0.04389126
-0.4633765 0.07867208 -0.0102356775 -0.042418305 0.09689274 -0.10154927 0.16784784 -0.19815336
-0.57125235 0.11019266 0.1388046 -0.009057428 0.008905277 0.10532365 -0.5500895 -0.21843514
-0.26333597 0.24170446 -0.40460446 -0.043409005 -0.45307094 0.10729048 -0.020702254 -0.0072411094
-0.75137407 -0.8132919 0.24939655 -0.06922892 -0.016022325 0.2738963 0.29305205 -0.55129206
-1.1886116 -0.027254751 -1.6654434 -0.11172705 0.1485915 0.0492704 0.17547962 -0.04264828
-0.0057142735 -0.007813822 -0.0935119 0.08917425 0.41168827 -0.050528795 -0.14798151 0.04908311
-0.2652612 0.010650666 -0.30911255 0.049325466 0.22905678 0.3266919 0.009625174 -0.010099356
0.16082604 -0.11350919 -0.47657463 0.037964772 -0.13568 -0.36358315 -0.09537307 -0.1617451
0.025071694 0.32570332 0.068718486 -0.3729745 -1.5249838 0.024039296 -0.13020387 -0.3471808
-0.19912986 0.18088359 -0.16695419 -0.092804715 -0.16699317 0.21230961 -0.1712175 -0.30481398
-0.1611887 -0.12972383 -1.2923005 -0.32233638 0.03630696 -0.096559055 0.32916746 -0.15448198
-0.09501019 0.3957733 0.33461282 0.14794387 -0.09814128 -0.516101 -0.067446485 0.31173843
-0.10535937 0.2548038 0.0011431666 -0.040903278 -0.39814818 0.4086347 -0.24277668 -0.21501875
0.16230495 -0.08996928 0.13587403 0.13268392 0.19403389 0.060297783 0.21447198 -0.46836153
0.07343212 -0.42884684 0.18398322 -0.036428742 -0.4118497 -0.2278227 0.037035666 0.1830617
0.02963443 0.1831577 -0.3030945 -0.021461314 -2.184824 -0.14328642 0.05453185 -0.2113402
-0.5649785 -0.32298863 0.0565848 -0.56937575 0.18827906 -0.23959233 0.14276478 0.18928796
-0.27013046 -0.053681027 -0.14631623 -0.22494762 -0.2347856 -0.0036420985 -0.32250935 0.098417126
0.09884574 -0.084631614 0.35774803 0.06482126 -0.22729892 0.10702845 -0.02199696 -0.13760923
0.16576074 0.037592765 -0.05502874 0.32010493 0.0976857 -0.37261486 -0.2197597 0.11116136
-0.27066526 -0.42291313 0.42496547 0.14671312 0.0035737264 -0.0169114 -0.19779985 0.3090838
-0.22921501 0.06736745 0.051850397 0.18620421 -0.12978804 -0.18941486 0.1205723 -0.36491087
-0.05934254 -0.5102027 0.33091357 0.07838526 -0.59309244 -0.12359404 0.1391208 0.082517885
-0.106741436 0.3328427 -0.27294198 0.11592905 0.12172686 0.008260654 0.24369127 -0.46273327
-0.46092275 0.07184708 0.01968822 -1.0792848 0.12629147 -0.33755893 -0.13739863 -0.18896514
-0.113750935 0.09159501 -0.48420542 -0.5145677 -0.2452261 -0.12535985 -0.15992877 0.091676444
0.22302167 -0.37035772 0.36083773 -0.17351167 -0.18549359 -0.0946082 -0.02661472 -0.15416281
-0.35274437 0.11357466 -0.15952636 0.4272709 0.1699942 -0.6005108 -0.54965234 0.18694888
-0.19297117 -0.5173132 -0.63240576 0.26324615 -0.03182281 -0.123993 -0.051025808 0.33859038
00000000: 7c18 9f3e 26f2 563e 7452 85be 8a72 60be
00000010: 4f96 463e 771e 083e b073 60be fde1 d7bd
00000020: 1520 f73e ae09 833e 4b03 3ebe 488e 0bbe
00000030: a662 4ebd da9e 05be c00a c9bd dc41 eb3d
00000040: 3cd6 073e 5f58 33be 0fd2 8abf f198 82be
00000050: 2f15 a43d a49e 923c 11b1 04be 52c7 333d
00000060: af3f edbe d41e a13d 8bb3 27bc d1be 2dbd
00000070: b36f c63d 10f9 cfbd 4ee0 2b3e b7e8 4abe
00000080: 983d 12bf b0ac e13d cb22 0e3e 9b65 14bc
00000090: 70e7 113c edb3 d73d aad2 0cbf 76ad 5fbe
000000a0: f9d3 86be 6081 773e 5128 cfbe a4cd 31bd
000000b0: eaf8 e7be 1cbb db3d c697 a9bc d446 edbb
000000c0: 0d5a 40bf e633 50bf cf61 7f3e e4c7 8dbd
000000d0: 4041 83bc 233c 8c3e eb0a 963e 7a21 0dbf
000000e0: 6d24 98bf 5b45 dfbc 402d d5bf 27d1 e4bd
000000f0: 5f28 183e c2cf 493d eeb0 333e f6af 2ebd
00000100: cd3e bbbb 8b05 00bc 2b83 bfbd fda0 b63d
00000110: cec8 d23e 48f7 4ebd 7788 17be 5f0b 493d
00000120: 51d0 87be 2280 2e3c 0044 9ebe 8009 4a3d
00000130: dc8d 6a3e 2944 a73e e8b2 1d3c c577 25bc
00000140: 95af 243e 8277 e8bd 9701 f4be f380 1b3d
00000150: b3ef 0abe 9227 babe f552 c3bd 82a0 25be
00000160: 2763 cd3c 96c2 a63e 47bc 8c3d 83f6 bebe
00000170: ab32 c3bf 0fee c43c 2a54 05be afc1 b1be
00000180: b3e8 4bbe 8c39 393e 0af6 2abe 6610 bebd
00000190: 4200 2bbe b167 593e a453 2fbe 9410 9cbe
000001a0: a70e 25be 53d6 04be 1a6a a5bf 4609 a5be
000001b0: 9bb6 143d c1c0 c5bd a388 a83e 8630 1ebe
000001c0: b494 c2bd cca2 ca3e 5f52 ab3e 997e 173e
000001d0: 4cfe c8bd 321f 04bf 6221 8abd 2e9c 9f3e
000001e0: a7c6 d7bd a575 823e 4ed6 953a 328a 27bd
000001f0: 14da cbbe 9138 d13e 739a 78be e02d 5cbe
00000200: 4533 263e d041 b8bd 9022 0b3e 4bde 073e
00000210: d2b0 463e cffa 763d 8b9e 5b3e 15cd efbe
00000220: 9463 963d d091 dbbe 1966 3c3e 4e36 15bd
00000230: f7dd d2be 5b4a 69be b6b2 173d 8774 3b3e
00000240: e7c3 f23c b18d 3b3e 342f 9bbe a3cf afbc
00000250: 28d4 0bc0 adb9 12be ca5c 5f3d 9169 58be
00000260: 6ea2 10bf c45e a5be 77c5 673d 9cc2 11bf
00000270: 3acc 403e b157 75be ee30 123e b4d4 413e
00000280: 8a4e 8abe a3e0 5bbd ecd3 15be ab58 66be
00000290: a36b 70be 46b0 6ebb f21f a5be eb8e c93d
000002a0: a36f ca3d 5753 adbd c02a b73e 02c1 843d
000002b0: 0cc1 68be bb31 db3d f832 b4bc 6fe9 0cbe
000002c0: 2fbd 293e dffa 193d d165 61bd cbe4 a33e
000002d0: 710f c83d 60c7 bebe b008 61be 91a8 e33d
000002e0: a394 8abe 1288 d8be 1395 d93e f73b 163e
000002f0: 2e35 6a3b c789 8abc 0b8c 4abe 3b40 9e3e
00000300: 57b7 6abe f2f7 893d 1561 543d 51ac 3e3e
00000310: 28e7 04be f8f5 41be 9cee f63d 99d5 babe
00000320: 2a11 73bd a59c 02bf 816d a93e 7488 a03d
00000330: e8d4 17bf df1e fdbd af75 0e3e 23ff a83d
00000340: 419b dabd 5c6a aa3e 0dbf 8bbe 366c ed3d
00000350: ef4b f93d b257 073c 348a 793e 60eb ecbe
00000360: 11fe ebbe 9024 933d 3149 a13c 0126 8abf
00000370: 8d52 013e 86d4 acbe 3ab2 0cbe 1480 41be
00000380: 40f6 e8bd 2a96 bb3d c6e9 f7be b5ba 03bf
00000390: 8d1c 7bbe 555e 00be 5ec4 23be dcc0 bb3d
000003a0: cb5f 643e 879f bdbe b9bf b83e 0bad 31be
000003b0: 08f2 3dbe f2c1 c1bd 1d07 dabc dbdc 1dbe
000003c0: e99a b4be d599 e83d e15a 23be 40c3 da3e
000003d0: f612 2e3e 13bb 19bf 04b6 0cbf 876f 3f3e
000003e0: 3c9a 45be a36e 04bf 58e5 21bf 33c8 863e
000003f0: a358 02bd 0bf0 fdbd 7000 51bd b85b ad3e

fc_2.bias f4 [64]
0.024892109 0.1867171 -0.25130436 -0.0035053075 0.037892103 -0.11138645 -0.20907766 0.065740116
-0.10799619 0.04772501 0.41292948 -0.035320655 0.33819646 0.115204 0.055858202 -0.31539446
0.030578045 0.20944645 0.16363092 -0.084270366 -0.14995487 0.029915228 0.25839183 0.01824572
0.06233292 0.21218935 0.07314455 0.15315197 -0.04015884 0.058586966 -0.014795457 -0.13765678
0.012839457 -0.24572663 -0.09009203 -0.22221011 0.1693444 -0.16660702 -0.2230619 0.12721707
-0.098126076 -0.043242842 0.16969731 0.15101364 0.32744563 -0.032598674 0.0059018615 -0.14789276
0.13378495 -0.14656642 -0.09706149 0.00304269 -0.29310775 -0.17095174 0.13693248 0.19285645
-0.061209563 0.005300777 0.11292683 -0.04734473 -0.032495372 0.06492895 0.19263412 -0.16370544
00000000: 89ea cb3c c432 3f3e f7aa 80be 4db9 65bb
00000010: c034 1b3d 941e e4bd 7418 56be c1a2 863d
00000020: 1b2d ddbd 4d7b 433d 7e6b d33e 64ac 10bd
00000030: 1628 ad3e 13f0 eb3d 92cb 643d 627b a1be
00000040: cf7e fa3c 2179 563e dd8e 273e f195 acbd
00000050: c58d 19be c810 f53c ef4b 843e 0c78 953c
00000060: ce50 7f3d 2a48 593e cfcc 953d dfd3 1c3e
00000070: 997d 24bd e3f8 6f3d a568 72bc e6f5 0cbe
00000080: 965c 523c c39f 7bbe 2c82 b8bd 0c8b 63be
00000090: 9e68 2d3e 089b 2abe 576a 64be 3145 023e
000000a0: 53f6 c8bd 681f 31bd 22c5 2d3e 52a3 1a3e
000000b0: f4a6 a73e 3086 05bd 6764 c13b 3371 17be
000000c0: ecfe 083e 8215 16be 2dc8 c6bd de67 473b
000000d0: 3812 96be f90d 2fbe 0738 0c3e 297c 453e
000000e0: e1b6 7abd 24b2 ad3b 2f46 e73d 8cec 41bd
000000f0: de19 05bd 78f9 843d e141 453e 66a2 27be

fc_mu.weight f4 [1, 64]
0.17417787 -0.12242244 0.12576577 0.15598807 -0.08083123 -1.0348642 0.19410838 0.011864382
0.01866133 -0.006655438 -0.29179 -1.4983 0.05627851 -0.1893091 2.5767362 -0.36194137
0.74788374 -0.4782537 0.5375845 -0.47131324 0.17573828 0.4698305 0.1669782 1.0147359
0.14200686 0.19659662 0.6409827 0.0074569792 0.42202875 1.3619617 -0.94416076 -0.007878147
-0.071915574 -0.26011777 1.2342687 0.031236745 0.03367894 -0.0066937623 0.012877042 0.990597
0.029999023 0.009325913 -1.7475642 -0.029521385 -0.04005334 -0.9658105 1.1205887 -0.5357963
0.061487824 -0.0014804355 0.0015412292 0.16606319 1.3392004 -0.042792723 0.09542724 0.058471814
-1.3715893 0.6788459 0.622846 0.94249725 0.011280129 -0.22440037 1.387907 -0.3847761
00000000: af5b 323e 9eb8 fabd bec8 003e 56bb 1f3e
00000010: d88a a5bd 6e76 84bf 59c4 463e d362 423c
00000020: a5df 983c dc15 dabb 8065 95be 4bc8 bfbf
00000030: 4b84 663d 3fda 41be 3fe9 2440 6150 b9be
00000040: 4f75 3f3f abdd f4be 239f 093f f84f f1be
00000050: bcf4 333e a08d f03e 55fc 2a3e dee2 813f
00000060: 3f6a 113e a050 493e 7117 243f ad59 f43b
00000070: 2714 d83e c354 ae3f 85b4 71bf 5813 01bc
00000080: 7948 93bd 282e 85be 84fc 9d3f 34e4 ff3c
00000090: eef2 093d 5957 dbbb 3bfa 523c c497 7d3f
000000a0: 83c0 f53c b7cb 183c 2fb0 dfbf d5d6 f1bc
000000b0: f90e 24bd 5b3f 77bf 736f 8f3f f229 09bf
000000c0: a8da 7b3d 2c0b c2ba 1203 ca3a 780c 2a3e
000000d0: eb6a ab3f 6c47 2fbd 5b6f c33d 2480 6f3d
000000e0: 3d90 afbf d8c8 2d3f d672 1f3f 8047 713f
000000f0: 4ad0 383c 36c9 65be f0a6 b13f 5f01 c5be

fc_std.weight f4 [1, 64]
-0.3871699 -0.1617074 -0.18103066 0.455382 -0.08925263 0.22649325 -0.5285377 -0.5737457
-0.044742543 -0.4614498 -0.13474284 0.8565326 -0.36480558 0.32681784 1.8113619 0.24270461
-0.15592636 0.03761028 -0.048107106 0.06896258 0.009933341 1.0108322 -1.0138639 1.0187653
-0.09634603 -0.42452 -0.58242196 -0.31203583 0.5018126 0.6712 0.54035777 0.37171882
-0.13276923 0.22518294 0.042364765 0.17687786 -0.55159575 0.05318528 0.33811298 0.4033805
0.1151187 -1.1588525 0.78607726 -0.89900887 -0.49128562 0.32593077 0.024003522 0.5560337
-0.19094354 0.15162316 -0.0014592203 0.5432859 -0.23241024 0.006932937 -0.0562866 -0.47302195
0.89558583 0.21133444 0.573474 -0.12797812 -0.047648873 0.47081265 0.44507435 0.296952
00000000: 223b c6be a096 25be 1a60 39be d427 e93e
00000010: 15ca b6bd d9ed 673e 3f4e 07bf 00e1 12bf
00000020: f543 37bd 2643 ecbe 07fa 09be b845 5b3f
00000030: ccc7 babe ab54 a73e b5da e73f 8f87 783e
00000040: 29ab 1fbe 3d0d 1a3d f50b 45bd 413c 8d3d
00000050: 74bf 223c f362 813f 4bc6 81bf e766 823f
00000060: 1151 c5bd af5a d9be 9b19 15bf 29c3 9fbe
00000070: ca76 003f c3d3 2b3f e354 0a3f ee51 be3e
00000080: a8f4 07be 5b96 663e ad86 2d3d 781f 353e
00000090: 6135 0dbf cfd8 593d 251d ad3e e487 ce3e
000000a0: 5ac3 eb3d 4755 94bf 5c3c 493f 7225 66bf
000000b0: ca89 fbbe 66e0 a63e 09a3 c43c 3958 0e3f
000000c0: b486 43be 1a43 1b3e 4f43 bfba c914 0b3f
000000d0: f3fc 6dbe b12d e33b c78c 66bd ef2f f2be
000000e0: 1d45 653f 0e68 583e 31cf 123f b20c 03be
000000f0: 772b 43bd 5b0e f13e c9e0 e33e 180a 983e
