Pendulum_SAC/saved_model/0404/sac_actor_EP230.pt (torch, 20559 bytes, 6 tensors)

fc_1.weight f4 [64, 3]
0.65984386 -0.42113468 -0.48836458 -0.11374276 -0.7226777 -0.4145359 -0.7354059 0.66817725
0.4386077 -0.39533332 0.3791428 -0.048888694 0.5069214 -0.69456714 0.46278673 0.23364413
-1.483534 -0.4788653 -0.010505421 0.9118695 -0.20921665 -0.4456917 -1.2585369 -0.36258778
0.8785358 -0.05318664 -0.34630683 0.76625437 -1.2048062 -0.6090637 0.18539715 1.021555
-0.3234425 0.038216073 0.6450388 -0.1888999 -0.30348495 -1.0069231 -0.18998222 0.18406062
-0.13076165 -0.0144714825 0.01849804 1.2473443 0.5872691 0.030172678 0.045128193 -0.58914757
0.23687054 -0.7573254 0.017712357 0.40622035 1.8770071 0.009205707 -1.014435 -0.32613328
-0.016765047 -0.066729486 1.3611951 0.27114415 -0.39177576 -1.8804625 -0.35834447 -0.3637841
0.004776843 -0.35735038 -0.23583992 0.9921033 0.13320273 0.32972747 -1.0512693 -0.32762894
-0.6929956 -0.9230516 -0.05175599 0.52989215 -0.46828696 0.0019277121 0.64274514 1.0300165
0.10991171 -0.4605419 -1.8379899 -0.45974895 -0.16274953 1.0684961 0.699432 -0.18554044
-0.9195668 -0.2546858 0.04541762 -1.2346216 -0.4933257 -0.5710982 -0.3441793 0.19513258
-0.80790293 0.07249194 -0.031831484 0.5005776 0.14277801 -0.032445725 0.18354918 -0.988718
-0.30785567 0.7723145 -1.4183917 -0.3583316 -0.06705542 -0.9089083 -0.6083957 0.055627882
-1.475051 -0.15130512 -0.536034 -0.10775494 -0.3087313 -0.76414263 0.7728557 0.3318239
-0.66731924 0.37554884 -0.0044189263 0.67424273 -0.72778237 -0.2968705 -0.3307901 1.8070878
0.33217576 -0.43442276 0.71560717 -0.35567924 -0.5977879 -0.6905552 0.06926102 0.64494747
-0.189872 -0.55454874 0.81899476 -0.8494113 0.56168634 0.054406773 -0.26035574 -0.47346333
-0.8008092 -0.16292569 -0.21032564 0.37980857 1.3557805 0.46450698 1.0510507 -0.023640437
0.36776084 -0.053106315 0.03934526 -0.36378267 -0.531366 0.6087601 -0.13832505 0.5709097
-0.37967834 -0.28486416 0.3886971 0.032315977 -0.34902194 0.77683395 1.3173071 0.44158036
-1.0181872 0.02369907 -0.04756988 -1.0452014 0.017477911 0.024327157 -1.0878327 -0.58279485
-0.15300246 -0.0067224363 0.40946668 -0.63634425 0.043464188 -1.3389444 -0.6823902 0.15325746
-0.12926486 0.15386817 -0.10072718 -1.5430046 -0.52061343 0.066080615 0.99964476 -0.33651298
00000000: 87eb 283f f79e d7be ec0a fabe f7f1 e8bd
00000010: 6801 39bf 0d3e d4be 9043 3cbf aa0d 2b3f
00000020: 3091 e03e 2169 cabe 011f c23e 833f 48bd
00000030: 9ac5 013f 27cf 31bf 62f2 ec3e 6840 6f3e
00000040: 71e4 bdbf d52d f5be ee1e 2cbc 4870 693f
00000050: e43c 56be b431 e4be bd17 a1bf 1ba5 b9be
00000060: b9e7 603f 3cda 59bd 214f b1be 3f29 443f
00000070: 1737 9abf 99eb 1bbf c0d8 3d3e 50c2 823f
00000080: 419a a5be 7588 1c3d 4321 253f fa6e 41be
00000090: 6162 9bbe dbe2 80bf b38a 42be 637a 3c3e
000000a0: 62e6 05be cc19 6dbc 3489 973c faa8 9f3f
000000b0: 4557 163f b12c f73c 57d8 383d 60d2 16bf
000000c0: 318e 723e 14e0 41bf 8119 913c 1dfc cf3e
000000d0: c541 f03f 89d3 163c 02d9 81bf f1fa a6be
000000e0: da56 89bc 78a9 88bd a43b ae3f 68d3 8a3e
000000f0: d596 c8be ffb2 f0bf ed78 b7be e941 babe
00000100: 1087 9c3b a1f6 b6be 0580 71be 7bfa 7d3f
00000110: 4c66 083e 0ad2 a83e fe8f 86bf fbbe a7be
00000120: 2968 31bf 1c4d 6cbf 17fe 53bd 03a7 073f
00000130: 4fc3 efbe 49ab fc3a f28a 243f 95d7 833f
00000140: 6419 e13d 26cc ebbe 4143 ebbf 3764 ebbe
00000150: d0a7 26be 7bc4 883f fa0d 333f 50fe 3dbe
00000160: bb68 6bbf 2d66 82be d407 3a3d 1508 9ebf
00000170: 3095 fcbe 7e33 12bf 4538 b0be d6d0 473e
00000180: bad2 4ebf a776 943d bb61 02bd db25 003f
00000190: 6634 123e cfe5 04bd 51f4 3b3e 9f1c 7dbf
000001a0: 429f 9dbe 67b6 453f dc8d b5bf 3d77 b7be
000001b0: 5a54 89bd 37ae 68bf d2bf 1bbf 10da 633d
000001c0: 79ce bcbf bbef 1abe 8639 09bf 9fae dcbd
000001d0: 0712 9ebe da9e 43bf dfd9 453f d2e4 a93e
000001e0: 6fd5 2abf f047 c03e a4cc 90bb 2c9b 2c3f
000001f0: f24f 3abf 69ff 97be 525d a9be a74e e73f
00000200: f112 aa3e a96c debe 0832 373f 971b b6be
00000210: a108 19bf 3ac8 30bf b9d8 8d3d 471b 253f
00000220: ce6d 42be e8f6 0dbf a4a9 513f 0573 59bf
00000230: adca 0f3f a3d9 5e3d 594d 85be c969 f2be
00000240: d501 4dbf fed5 26be 9b5f 57be 4576 c23e
00000250: 378a ad3f dcd3 ed3e d488 863f 97a9 c1bc
00000260: 264b bc3e 0286 59bd 7f28 213d b941 babe
00000270: 9a07 08bf b4d7 1b3f 15a5 0dbe 2327 123f
00000280: 3365 c2be b7d9 91be 4e03 c73e c25d 043d
00000290: 01b3 b2be 97de 463f 859d a83f d216 e23e
000002a0: f553 82bf 8d24 c23c a2d8 42bd 29c9 85bf
000002b0: d62d 8f3c bf49 c73c 1a3e 8bbf 0b32 15bf
000002c0: adac 1cbe e247 dcbb 9ea5 d13e 75e7 22bf
000002d0: 8107 323d 8862 abbf 20b1 2ebf 86ef 1c3e
000002e0: 025e 04be 9e8f 1d3e 0d4a cebd 2d81 c5bf
000002f0: ec46 05bf 4655 873d b8e8 7f3f 6e4b acbe

fc_1.bias f4 [64]
-0.42852408 0.006011615 -0.16804668 0.17098726 -0.67034703 0.13341041 0.15351388 0.27206653
-0.9151756 -0.611794 -0.3629545 0.29374358 0.33809575 -0.20618775 -0.042265546 -0.42231742
-0.32422587 0.039384257 0.1959718 0.21435659 -0.32498488 -0.34244457 0.3240955 0.028269392
0.4864831 -0.04624828 -0.11850076 -0.49331668 -0.11829409 0.069349796 0.013729036 -0.86804104
0.6230534 0.062415216 0.11004044 -0.29357737 0.2578399 0.011650483 -0.5424761 -0.20088235
0.3979359 -0.49392995 -0.41425052 -0.5258117 0.33077902 -0.31010985 -0.55767554 0.19178481
-0.36459166 -0.37540022 -1.0047773 -0.32600194 0.373033 -0.9898417 -1.3441356 -0.5598571
-0.05489393 -0.07103322 -0.5880215 -0.62034345 0.08169451 -0.12804109 -0.19002278 -0.10460372
00000000: 8267 dbbe 15fd c43b 6e14 2cbe 4917 2f3e
00000010: dd9b 2bbf bd9c 083e be32 1d3e 4e4c 8b3e
00000020: f348 6abf 889e 1cbf 2cd5 b9be 8f65 963e
00000030: e31a ad3e e222 53be a31e 2dbd fd39 d8be
00000040: ef00 a6be 6351 213d d5ac 483e 4b80 5b3e
00000050: 6b64 a6be e554 afbe d8ef a53e 3695 e73c
00000060: 5014 f93e d66e 3dbd 87b0 f2bd 0194 fcbe
00000070: 2c44 f2bd 4407 8e3d c0ef 603c f037 5ebf
00000080: 6d80 1f3f 19a7 7f3d e25c e13d c64f 96be
00000090: 9703 843e abe1 3e3c b7df 0abf 1ab4 4dbe
000000a0: 41be cb3e 63e4 fcbe a518 d4be 989b 06bf
000000b0: de5b a93e b8c6 9ebe d3c3 0ebf 3d63 443e
000000c0: c2ab babe 7534 c0be 8b9c 80bf bae9 a6be
000000d0: 2efe be3e 4466 7dbf a30c acbf cb52 0fbf
000000e0: 75d8 60bd dd79 91bd 9488 16bf d4ce 1ebf
000000f0: 744f a73d 341d 03be 5595 42be 7a3a d6bd

fc_2.weight f4 [64, 64]
0.32123393 0.1865124 -0.37642595 -0.21333916 0.2733652 0.112018004 -0.22771281 -0.16501956
0.5185804 0.26026076 -0.20339623 -0.13705672 -0.11796074 0.03596268 -0.07501827 0.13822763
0.112901926 -0.21709667 -1.555866 -0.26221257 0.042708658 0.05474568 -0.11694358 0.030034363
-0.61136085 0.12799193 -0.017011497 -0.07013245 0.15358198 -0.14899045 0.13977869 -0.2054025
-0.70654374 0.15384187 0.113633454 0.0037650126 -0.02456512 0.059019208 -0.40381727 -0.2183537
-0.21575868 0.25513902 -0.40735778 -0.02089234 -0.68311495 0.11653331 0.072831124 -0.023654502
-0.5437716 -0.8331704 0.3046478 -0.038146567 -0.03249649 0.40737087 0.50238526 -0.48286572
-0.95841724 -0.07765864 -1.7726355 -0.07156126 0.12442159 0.12823226 0.1422779 -0.050166965
-0.073603675 0.05232933 -0.11653539 0.023817813 0.43076003 -0.06452375 -0.22492537 0.17575215
-0.25192717 -0.06771611 -0.43844387 0.0091856085 0.26841658 0.30300194 0.007612036 -0.03548879
0.20559949 -0.14312828 -0.5148207 -0.03334032 0.048444454 -0.371095 -0.15978849 -0.16973276
0.066799425 0.32019433 0.040166445 -0.19048962 -1.5199474 0.13893676 -0.285985 -0.44268078
-0.22943696 0.15543929 -0.16602969 -0.09765491 -0.23869345 0.26439035 -0.18307573 -0.4425825
-0.3508376 -0.1514152 -1.3792996 -0.34421226 0.074779585 -0.14666793 0.363846 -0.20469807
-0.09911637 0.3592632 0.36453667 0.12278384 -0.15363629 -0.5024557 -0.057497244 0.28824317
-0.18630208 0.1456017 0.0062242956 -0.069594 -0.5126194 0.43607306 -0.16012725 -0.43454897
0.15830097 -0.07661287 0.14946415 0.13590059 0.21441771 0.06574487 0.19404632 -0.4714755
0.06062131 -0.42785928 0.1871964 -0.06039209 -0.53369063 -0.23429285 0.050793696 0.19306599
0.18346405 0.13011438 -0.35415927 -0.025958028 -2.1861925 -0.14745282 0.034866333 -0.21664739
-0.64022934 -0.47173783 0.021578763 -0.7442955 0.20231967 -0.24046116 0.1518122 0.21925023
-0.31888878 -0.093024574 -0.14241467 -0.21708086 -0.22882508 -0.11989677 -0.27045083 0.10645986
0.06393323 -0.091440424 0.36396137 0.05449657 -0.24441619 0.105393186 0.00072346284 -0.14090143
0.1470075 0.06275282 -0.029153068 0.32703492 0.04769015 -0.3788191 -0.113817915 0.13894758
-0.40397704 -0.44923183 0.4174846 0.15316053 0.011098013 -0.0021370978 -0.21190402 0.30435938
-0.23881772 0.08244655 0.03813478 0.23532434 -0.13068268 -0.19031045 0.11766264 -0.38347295
-0.09216207 -0.5187146 0.32244796 0.0840272 -0.6622714 -0.053757466 0.12577826 0.09080403
0.26063025 0.31170568 -0.31238207 0.10770311 0.12947491 -0.01646183 0.23361215 -0.47317347
-0.5281265 0.07954415 9.688393e-05 -1.0852194 0.11418434 -0.3706474 -0.13956583 -0.2291178
-0.12834527 0.075862736 -0.49537286 -0.523853 -0.25146753 -0.14271507 -0.14294636 0.07721341
0.21815349 -0.4032163 0.35484225 -0.18979993 -0.21583176 -0.10624985 -0.030675486 -0.16607043
-0.26747954 0.107117474 -0.15862885 0.4458923 0.17261648 -0.7507177 -0.56926864 0.17674856
-0.19276617 -0.5376212 -0.7344209 0.27101755 -0.03271646 -0.13543303 -0.09430085 0.32971454
00000000: c678 a43e 1bfd 3e3e e7ba c0be 9575 5abe
00000010: 86f6 8b3e b269 e53d 8c2d 69be e3fa 28be
00000020: afc1 043f e640 853e 1a47 50be 9958 0cbe
00000030: 6795 f1bd 9a4d 133d 2ea3 99bd 8b8b 0d3e
00000040: 2039 e73d 974e 5ebe 9e26 c7bf ba40 86be
00000050: 46ef 2e3d 023d 603d 1e80 efbd a00a f63c
00000060: 2582 1cbf 5110 033e b25b 8bbc 9aa1 8fbd
00000070: 9844 1d3e f490 18be 2522 0f3e 0855 52be
00000080: 0de0 34bf b988 1d3e a8b8 e83d 6ebe 763b
00000090: ca3c c9bc 20be 713d 23c1 cebe 1d98 5fbe
000000a0: d8ef 5cbe 95a1 823e 3391 d0be 6a26 abbc
000000b0: 9fe0 2ebf 04a9 ee3d 7c28 953d 16c7 c1bc
000000c0: 9e34 0bbf a84a 55bf ccfa 9b3e 933f 1cbd
000000d0: 0a1b 05bd ea92 d03e 529c 003f 2d3a f7be
000000e0: d55a 75bf 7e0b 9fbd b8e5 e2bf b68e 92bd
000000f0: bfd0 fe3d 514f 033e 4cb1 113e e07b 4dbd
00000100: 86bd 96bd 4857 563d 1baa eebd 931d c33c
00000110: 948c dc3e 0725 84bd d652 66be 5ff8 333e
00000120: 99fc 80be beae 8abd b77b e0be 3c7f 163c
00000130: e66d 893e 1223 9b3e 636e f93b b25c 11bd
00000140: ac88 523e 3890 12be 4acb 03bf dc8f 08bd
00000150: b16d 463d 2a00 bebe 989f 23be 6dce 2dbe
00000160: 23ce 883d 83f0 a33e 9285 243d b60f 43be
00000170: a38d c2bf 7045 0e3e a06c 92be 0ea7 e2be
00000180: 86f1 6abe 7a2b 1f3e b003 2abe 4cff c7bd
00000190: 0e6c 74be 2c5e 873e 3478 3bbe 2c9a e2be
000001a0: fca0 b3be 960c 1bbe e48c b0bf 973c b0be
000001b0: 0a26 993d 1e30 16be 064a ba3e 5f9c 51be
000001c0: 86fd cabd 59f1 b73e 8da4 ba3e 1876 fb3d
000001d0: d552 1dbe f0a0 00bf 3b82 6bbd 9c94 933e
000001e0: f9c5 3ebe 9d18 153e 2df5 cb3b 4d87 8ebd
000001f0: 063b 03bf f844 df3e 66f8 23be 347d debe
00000200: a619 223e 35e7 9cbd 210d 193e 8629 0b3e
00000210: 5190 5b3e 3fa5 863d 14b4 463e 3d65 f1be
00000220: 0d4e 783d 5f10 dbbe 6ab0 3f3e b25d 77bd
00000230: f39f 08bf 77ea 6fbe 0d0d 503d 17b3 453e
00000240: 00de 3b3e b43c 053e 5d54 b5be eea5 d4bc
00000250: 94ea 0bc0 dffd 16be 00d0 0e3d d0d8 5dbe
00000260: 12e6 23bf 9f87 f1be f2c5 b03c 268a 3ebf
00000270: e32c 4f3e 733b 76be a874 1b3e 2283 603e
00000280: 6445 a3be ab83 bebd 27d5 11be 724a 5ebe
00000290: 1f51 6abe 708c f5bd 8878 8abe a107 da3d
000002a0: 6def 823d 1e45 bbbd 2559 ba3e cc37 5f3d
000002b0: 3d48 7abe 62d8 d73d c5a6 3d3a 7748 10be
000002c0: 2289 163e 8d84 803d 6ad2 eebc 1f71 a73e
000002d0: bf56 433d 94f4 c1be 5e19 e9bd 4648 0e3e
000002e0: 14d6 cebe b701 e6be 8bc0 d53e 1dd6 1c3e
000002f0: 71d4 353c 8d0e 0cbb 5efd 58be fed4 9b3e
00000300: a28c 74be bdd9 a83d 3733 1c3d ddf8 703e
00000310: aed1 05be bee0 42be 1cf9 f03d 9156 c4be
00000320: 78bf bcbd 7bca 04bf e617 a53e 7416 ac3d
00000330: 9e8a 29bf ca30 5cbd 04cc 003e 77f7 b93d
00000340: 5471 853e e397 9f3e 8bf0 9fbe 7393 dc3d
00000350: 1295 043e f6da 86bc 0638 6f3e cb43 f2be
00000360: 4c33 07bf 0be8 a23d 2a2e cb38 78e8 8abf
00000370: 7bd9 e93d 7fc5 bdbe 58ea 0ebe db9d 6abe
00000380: f16c 03be ec5d 9b3d 83a1 fdbe 3b1b 06bf
00000390: 5ac0 80be e623 12be 8860 12be 1022 9e3d
000003a0: a163 5f3e 5e72 cebe e2ad b53e ea5a 42be
000003b0: 0003 5dbe 8599 d9bd 284b fbbc 5e0e 2abe
000003c0: 14f3 88be 6860 db3d 9a6f 22be ff4b e43e
000003d0: 60c2 303e 092f 40bf 97bb 11bf 93fd 343e
000003e0: 7f64 45be 8ba1 09bf 0203 3cbf d0c2 8a3e
000003f0: b201 06bd f5ae 0abe ce20 c1bd 58d0 a83e

fc_2.bias f4 [64]
0.04267696 0.17918566 -0.31526667 -0.023139745 0.04336227 -0.087586604 -0.15398118 0.092297666
-0.09966938 0.0455882 0.38124415 -0.04889355 0.3883674 0.08308884 0.05210628 -0.29997
0.057267312 0.21517545 0.12171906 -0.14113061 -0.17647937 0.035630178 0.23693264 0.004532679
0.1026565 0.20590945 0.05456077 0.16062643 -0.01789085 0.06446131 -0.042562596 -0.12769337
-0.01597668 -0.25657377 -0.071171805 -0.14270684 0.18300694 -0.12423519 -0.27460122 0.11795751
-0.12873848 -0.083581984 0.16803652 0.15088128 0.32359248 -0.04522017 0.013911945 -0.15944062
0.1780794 -0.18031782 -0.09503539 0.020926902 -0.29464626 -0.14571457 0.09245663 0.2267458
-0.08321014 0.0049018003 0.13086759 -0.045556877 -0.025210503 0.072684795 0.19564477 -0.20746897
00000000: 09ce 2e3d 727c 373e a26a a1be 908f bdbc
00000010: a39c 313d 9b60 b3bd 3ead 1dbe 8f06 bd3d
00000020: 761f ccbd b1ba 3a3d 6f32 c33e 9a44 48bd
00000030: 18d8 c63e 7b2a aa3d 656d 553d ab95 99be
00000040: 2191 6a3d f456 5c3e d847 f93d 8b84 10be
00000050: 02b7 34be f3f0 113d 789e 723e de86 943b
00000060: 923d d23d edd9 523e 1d7b 5f3d 417b 243e
00000070: d58f 92bc 4b04 843d 1e56 2ebd 0dc2 02be
00000080: 87e1 82bc a35d 83be 86c2 91bd be21 12be
00000090: 2c66 3b3e 056f febd 8898 8cbe b593 f13d
000000a0: 05d4 03be 082d abbd c411 2c3e 9f80 1a3e
000000b0: eaad a53e c938 39bd edee 633c 6744 23be
000000c0: 725a 363e 3ca5 38be eaa1 c2bd e56e ab3c
000000d0: e0db 96be 3336 15be e759 bd3d 0d30 683e
000000e0: 146a aabd 489f a03b 2702 063e d999 3abd
000000f0: 4286 cebc c4db 943d 1a57 483e bf72 54be

fc_mu.weight f4 [1, 64]
0.20467125 -0.15647973 0.12801637 0.12691072 -0.07349341 -1.233495 0.21170783 0.026060985
0.025146594 0.0005388494 -0.19485794 -1.5146501 0.08809909 -0.19809243 2.756382 -0.26564723
0.62119967 -0.51299894 0.4828872 -0.46088102 0.15990444 0.4414297 0.30596486 1.0924882
0.10334501 0.1450113 0.7016875 0.03462985 0.58721566 1.4633458 -0.95622 -0.07589287
-0.08623184 -0.24125999 1.2355101 0.010772591 0.018589232 0.0052491273 0.0011537834 0.954056
0.032252505 0.015240006 -1.7346814 -0.008747515 -0.0121668335 -0.90028954 1.2004926 -0.53026384
0.06752443 -0.0112083675 -0.020293048 0.2054914 1.3399105 -0.0057981596 0.04274766 0.060647797
-1.4359429 0.79451853 0.70382595 1.0093628 0.0034377838 -0.25802597 1.3975443 -0.30670172
00000000: 5795 513e 393c 20be b916 033e e2f4 013e
00000010: b783 96bd 2ae3 9dbf f0c9 583e d97d d53c
00000020: 3b00 ce3c 9241 0d3a d788 47be 0ee0 c1bf
00000030: 4c6d b43d bed8 4abe 9068 3040 ea02 88be
00000040: f106 1f3f e653 03bf fe3c f73e 99f8 ebbe
00000050: fdbd 233e 1303 e23e 6da7 9c3e a7d6 8b3f
00000060: 8ca6 d33d d87d 143e cba1 333f 08d8 0d3d
00000070: c453 163f ea4e bb3f d5ca 74bf b96d 9bbd
00000080: 529a b0bd dc0c 77be 3225 9e3f 867f 303c
00000090: 7248 983c df00 ac3b 8c3a 973a 043d 743f
000000a0: 341b 043d 38b1 793c 0a0a debf bd51 0fbc
000000b0: 6657 47bc 6079 66bf bea9 993f 5fbf 07bf
000000c0: 404a 8a3d 4da3 37bc 9b3d a6bc 566c 523e
000000d0: 3082 ab3f 7dfe bdbb 2c18 2f3d d369 783d
000000e0: facc b7bf 9165 4b3f f02d 343f cd32 813f
000000f0: 714c 613b fb1b 84be bbe2 b23f 0208 9dbe

fc_std.weight f4 [1, 64]
-0.41189614 -0.20899893 -0.174982 0.4491749 -0.08628445 0.22797006 -0.4220686 -0.5898802
-0.064679645 -0.35828504 -0.116399445 0.86113226 -0.43415108 0.23551877 1.905228 0.2747383
-0.16912338 0.04782189 -0.084263854 -0.02328996 -0.117341466 0.9692911 -1.0742519 1.2096835
-0.12639531 -0.34384897 -0.6749319 -0.3548294 0.53068614 0.6479153 0.54725415 0.30246976
-0.09971446 0.084925346 -0.013727047 0.23509428 -0.58511376 0.023785468 0.44498596 0.39110616
0.07321595 -1.1578746 0.7442814 -1.0658416 -0.51855624 0.2710344 -0.027017845 0.58079064
-0.22419938 0.16300681 -0.011952859 0.60956 -0.31660715 -0.01855087 -0.19525228 -0.46360198
0.88363725 0.15596896 0.51019627 -0.18212335 0.07636179 0.39918795 0.38624224 0.29559
00000000: 0de4 d2be d103 56be 7b2e 33be 41fa e53e
00000010: e7b5 b0bd fc70 693e 6019 d8be 6402 17bf
00000020: c376 84bd 2371 b7be d562 eebd 2a73 5c3f
00000030: 0d49 debe d52b 713e 83de f33f 80aa 8c3e
00000040: ae2e 2dbe e3e0 433d 8792 acbd 96ca bebc
00000050: b950 f0bd 7623 783f 1681 89bf e9d6 9a3f
00000060: c66d 01be f90c b0be 56c8 2cbf 33ac b5be
00000070: 0cdb 073f c7dd 253f d918 0c3f 51dd 9a3e
00000080: 1837 ccbd 57ed ad3d 68e7 60bc 8ebc 703e
00000090: 04ca 15bf bed9 c23c 33d5 e33e 113f c83e
000000a0: 3ef2 953d 3c35 94bf 3a89 3e3f 7f6d 88bf
000000b0: 1ac0 04bf 05c5 8a3e 8754 ddbc b2ae 143f
000000c0: 8694 65be 42eb 263e edd5 43bc 200c 1c3f
000000d0: 551a a2be fef7 97bc 37f0 47be 3d5d edbe
000000e0: 0d36 623f 54b6 1f3e 399c 023f 8b7e 3abe
000000f0: 9263 9c3d 5d62 cc3e 8bc1 c53e 9357 973e
