Pendulum_SAC/saved_model/0404/sac_actor_EP470.pt (torch, 20559 bytes, 6 tensors)

fc_1.weight f4 [64, 3]
0	0x3f160181	0.58596045
1	0xbf31de4c	-0.69479823
2	0xbeea3012	-0.457398
3	0xbcef865d	-0.029238874
4	0xbf745ed1	-0.9545718
5	0xbeb3ca8c	-0.35115469
6	0xbf3600de	-0.71095073
7	0x3f1e4dc2	0.618374
8	0x3ef62738	0.48076797
9	0xbe693d89	-0.2277738
10	0x3e77b929	0.24191727
11	0xbccd4169	-0.025055604
12	0x3e229ba6	0.15879688
13	0xbe31755c	-0.17329925
14	0x3f4ef666	0.80844724
15	0x3e684075	0.22680838
16	0xbfc18d8c	-1.5121322
17	0xbf092c13	-0.53582877
18	0xbe5c1ec0	-0.21496105
19	0x3f7472bd	0.95487577
20	0xbe76bb60	-0.24094915
21	0xbf386d4c	-0.72041774
22	0xbf870687	-1.0548867
23	0xbe780879	-0.24221982
24	0x3f862657	1.048045
25	0xbee3b69b	-0.44475254
26	0xbeb62970	-0.3557849
27	0x3f57bb17	0.8426985
28	0xbfbf0af9	-1.4925224
29	0xbef662e7	-0.48122332
30	0x3ebfea58	0.37483478
31	0x3f6a8f5e	0.9162501
32	0xbe6a91bf	-0.2290716
33	0xbcf8379d	-0.030299956
34	0x3f4888e6	0.7833389
35	0xbe3dcbe8	-0.18534815
36	0xbe5ef1d1	-0.21771933
37	0xbf91fc71	-1.1405164
38	0xbe4e7aab	-0.20163982
39	0x3e464ab1	0.1936443
40	0xbd4d0a6b	-0.050058763
41	0x3af7c6a0	0.0018903799
42	0x3d8d552d	0.069010116
43	0x3fc570ac	1.542501
44	0x3f2167b3	0.6304886
45	0x3eb302de	0.34963125
46	0xbe7f2828	-0.24917662
47	0xbe80b1a4	-0.2513553
48	0x3e0a6e10	0.13518548
49	0xbf67bc28	-0.9052148
50	0xbd9cafce	-0.076507196
51	0x3f014a46	0.5050396
52	0x3fe1c91f	1.7639502
53	0xbd53d9b6	-0.051721297
54	0xbfaca502	-1.3487856
55	0xbe3aae61	-0.18230583
56	0x3d02e508	0.031956702
57	0xbd595faf	-0.053069767
58	0x3fc1b117	1.5132169
59	0x3e93b2c4	0.28847325
60	0xbe99d257	-0.3004329
61	0xc0090cae	-2.141399
62	0xbed4ebea	-0.41586238
63	0xbed13155	-0.4085795
64	0xbdc029db	-0.09382983
65	0xbe991693	-0.29900035
66	0xbe856a51	-0.26057675
67	0x3f9ab6fe	1.2087095
68	0x3e323036	0.17401204
69	0x3ed91f08	0.42406487
70	0xbf80da0a	-1.006654
71	0xbec56b1a	-0.38558275
72	0xbf3149b6	-0.692531
73	0xbf897988	-1.0740213
74	0xbc09915d	-0.008396474
75	0x3f2d405c	0.6767633
76	0xbf2f7662	-0.6854001
77	0x3ca8e96f	0.020619122
78	0x3effad1b	0.49936756
79	0x3f92352d	1.1422478
80	0x3e2818df	0.16415738
81	0xbeec4c9e	-0.46152204
82	0xc00b6749	-2.178179
83	0xbed97bc9	-0.42477253
84	0xbe2e96e9	-0.17049755
85	0x3f647625	0.89242774
86	0x3f428d70	0.75997066
87	0xbe0e60f6	-0.13904175
88	0xbf683149	-0.90700203
89	0xbe5fb211	-0.2184527
90	0x3cb2ddb5	0.021834234
91	0xbfc35aea	-1.526212
92	0xbefbea64	-0.49202263
93	0xbf58b9b9	-0.8465839
94	0xbe95d54b	-0.29264292
95	0x3e3f470e	0.18679449
96	0xbf6477a9	-0.89245087
97	0xbdbf9dd7	-0.093562774
98	0xbcf6afb9	-0.030113088
99	0x3ec18889	0.3779948
100	0x3e275b76	0.16343483
101	0x3d7fafe1	0.06242359
102	0x3e11fcfb	0.1425666
103	0xbf746b7b	-0.954765
104	0xbeaa3700	-0.33245087
105	0x3f599011	0.8498545
106	0xbfc20e2e	-1.5160577
107	0xbec7bbcc	-0.39010465
108	0xbd9c7794	-0.07639995
109	0x3d2f8802	0.042854317
110	0xbf7dec83	-0.99189013
111	0x3e4bfc38	0.19920433
112	0xbfda0e24	-1.7035565
113	0xbe115638	-0.14193046
114	0xbf0e70e9	-0.5564104
115	0xbe12d16a	-0.14337698
116	0xbe8fb8e1	-0.2807074
117	0xbf254813	-0.645631
118	0x3f4762b6	0.77884996
119	0x3e8f6f9c	0.2801484
120	0xbf3fed18	-0.7497115
121	0x3e6e9a0c	0.23300952
122	0xbd7948b7	-0.060860362
123	0x3f570127	0.83986133
124	0xbf67b9eb	-0.90518063
125	0xbe9a444c	-0.3013023
126	0xbea41cbc	-0.32053173
127	0x3ffe633c	1.9874034
128	0x3ebffc20	0.37497044
129	0xbe6c919b	-0.23102419
130	0x3f1e65da	0.61874163
131	0xbed4a98d	-0.41535607
132	0xbf1dfdc7	-0.6171536
133	0xbf4e09f1	-0.8048392
134	0x3dd91239	0.10599179
135	0x3f0c95ce	0.54916084
136	0x3dd1d8fb	0.10246464
137	0xbf236c9b	-0.63837594
138	0x3f7380e4	0.95118546
139	0xbf140bdd	-0.578306
140	0x3ef25d7b	0.47336945
141	0x3d03e045	0.032196302
142	0xbe182d92	-0.14861134
143	0xbf215880	-0.63025665
144	0xbf80e548	-1.0069971
145	0xbcf394ee	-0.029734101
146	0xbe4f1538	-0.20222938
147	0x3ef54794	0.47906172
148	0x3fba72f1	1.4566327
149	0x3efed678	0.49773002
150	0x3f96bb71	1.1775953
151	0x3d519670	0.05116886
152	0x3ee044c0	0.43802452
153	0x3d4fc4f2	0.05072493
154	0xbdfcb8fd	-0.12339971
155	0xbe42aa12	-0.19010189
156	0xbf11f054	-0.57007337
157	0x3f2f0c81	0.68378454
158	0xbdf48592	-0.11939539
159	0x3f54b250	0.83084583
160	0xbec25aa0	-0.37959766
161	0xbeb54197	-0.35401604
162	0x3f0a2a37	0.53970665
163	0xbdea7357	-0.114477806
164	0xbec806b0	-0.39067602
165	0x3f644282	0.8916398
166	0x3fba7b2e	1.4568841
167	0x3ed80aa1	0.4219561
168	0xbfacb53e	-1.3492811
169	0x3ec75e43	0.38939103
170	0xbd9465c6	-0.07245974
171	0xbf916557	-1.1359051
172	0xbe517fd4	-0.20458919
173	0x3d0dc930	0.034615695
174	0xbf955368	-1.1666079
175	0xbf6e4de6	-0.93087614
176	0xbe32486c	-0.17410439
177	0xbe3b0eb7	-0.18267332
178	0x3f1036f6	0.56333864
179	0xbf20d278	-0.6282115
180	0x3cae441c	0.021272711
181	0xbfd64522	-1.6739848
182	0xbf141c92	-0.57856095
183	0x3d03ec47	0.032207754
184	0xbcb15acd	-0.021649742
185	0x3daf55b0	0.085612655
186	0xbc79b0d3	-0.015239912
187	0xbfe8369e	-1.8141668
188	0xbf23fed9	-0.6406074
189	0x3e3c6380	0.18397331
190	0x3f7a2d24	0.9772513
191	0xbe971d9b	-0.29514775

fc_1.bias f4 [64]
0	0xbef8678f	-0.4851651
1	0xbc7e4637	-0.01551967
2	0xbe027b00	-0.12742233
3	0xbd9d3528	-0.076761544
4	0xbf36f012	-0.7146007
5	0x3e521852	0.2051709
6	0x3e94c184	0.2905389
7	0x3dae812d	0.08520732
8	0xbf8659e3	-1.0496181
9	0xbf567201	-0.83767706
10	0xbef187e4	-0.4717399
11	0x3e04aeab	0.12957256
12	0x3e8d36e9	0.27580956
13	0xbe5573cf	-0.20844959
14	0x3b2f293c	0.0026727458
15	0xbf061f78	-0.5239177
16	0xbea4ed66	-0.3221237
17	0xbcccbca6	-0.024992298
18	0xbdf94b1d	-0.1217253
19	0x3e0ac076	0.1354998
20	0xbec42f89	-0.38317516
21	0xbe95fc22	-0.29293925
22	0x3e9c9e06	0.30589312
23	0xbe06110a	-0.13092437
24	0x3eba6ac2	0.36409575
25	0x3d1b3063	0.037887942
26	0xbd971012	-0.07376112
27	0xbed4cb09	-0.41561154
28	0xbeda4e39	-0.42637804
29	0xbe4fd37e	-0.20295522
30	0xbb082aa6	-0.0020777374
31	0xbf6629e3	-0.89907664
32	0x3ef40113	0.4765707
33	0xbe3f92b1	-0.18708302
34	0x3e177da0	0.14794016
35	0xbeafbba7	-0.34322855
36	0x3e409fec	0.18811005
37	0xbe1428e4	-0.14468724
38	0xbf7bff25	-0.98436195
39	0xbe3dfe18	-0.1855396
40	0x3ef93b78	0.48678184
41	0xbf05f900	-0.5233307
42	0xbeda9f36	-0.42699593
43	0xbf2717c2	-0.65270627
44	0x3e993e23	0.2993022
45	0xbef40aed	-0.47664586
46	0xbf34e1c8	-0.70657015
47	0x3d67e008	0.056610137
48	0xbf232606	-0.63729894
49	0xbee63675	-0.44963422
50	0xbf947019	-1.159671
51	0xbed9ef10	-0.42565203
52	0x3df62f3e	0.120207295
53	0xbf92e4d1	-1.1476079
54	0xbfc757af	-1.5573634
55	0xbf099e59	-0.53757244
56	0x3e3c5a82	0.18393901
57	0xbe6094f9	-0.21931829
58	0xbf06ffc6	-0.5273403
59	0xbf0f12b5	-0.5588792
60	0xbbe5bf6e	-0.0070113456
61	0xbdcf898c	-0.10133657
62	0xbcd30123	-0.025757378
63	0xbd758c5e	-0.059948318

fc_2.weight f4 [64, 64]
0	0x3ea4ab2a	0.32161838
1	0x3e97b9c0	0.29633904
2	0xbfad41f5	-1.3535753
3	0xbf018dad	-0.50606805
4	0xbd36ae49	-0.044599805
5	0x3ea1d1c1	0.31605342
6	0xbec065ea	-0.37577754
7	0x3cd2a26a	0.02571221
8	0x3ec73c2b	0.38913092
9	0x3ecf4e7b	0.40489563
10	0xbe89c8b0	-0.26910925
11	0xbe99c8e4	-0.3003608
12	0x3dadebc5	0.08492235
13	0xbdeedebd	-0.11663578
14	0xbf145725	-0.5794547
15	0x3d09b929	0.033623848
16	0x3efd9467	0.49527285
17	0xbe31c056	-0.17358527
18	0xbfb3de33	-1.4052185
19	0xbe5b8d3f	-0.214406
20	0x3ec72988	0.38898873
21	0xbdea1ff3	-0.11431875
22	0xbd0717d4	-0.03298171
23	0x3e49c402	0.19703677
24	0xbea6dcda	-0.3259037
25	0x3e15aea6	0.14617404
26	0xbd2abea0	-0.0416857
27	0x3e82a56a	0.25516826
28	0xbe718d14	-0.23588973
29	0x3cef089d	0.029178912
30	0x3eae7714	0.34075224
31	0xbe3c56cb	-0.18392484
32	0xbf116538	-0.5679507
33	0x3da935d6	0.082622215
34	0x3e9d9c5d	0.30783358
35	0x3e51ae6f	0.20476697
36	0x3d0b44f8	0.03400132
37	0x3eb83ffa	0.3598631
38	0xbf59dca8	-0.8510232
39	0xbe244232	-0.16040877
40	0xbe6cf6e9	-0.23141064
41	0x3ec3a4ec	0.38211763
42	0xbeba9b74	-0.36446726
43	0xbe747b1e	-0.2387509
44	0xbe9c8609	-0.3057101
45	0x3dc7b3cb	0.0975109
46	0xbdc56e35	-0.09640161
47	0x3bdb7470	0.00669723
48	0xbf9053c7	-1.1275567
49	0xbfcbc786	-1.5920265
50	0x3e5b69c4	0.21427065
51	0xbe583101	-0.21112444
52	0xbeb9a4d5	-0.3625857
53	0x3e229874	0.15878469
54	0x3c41565e	0.011800377
55	0xbf1fabe8	-0.62371683
56	0xbfcef1eb	-1.6167578
57	0xbf9ee6f8	-1.2414236
58	0xbfd24a6a	-1.6428959
59	0xbe61b362	-0.22041085
60	0x3e9be81f	0.30450532
61	0xbe51bbc3	-0.20481782
62	0x3e9f950b	0.31168398
63	0xbe3b3e9c	-0.18285602
64	0x3e2f150d	0.17097874
65	0xbe299584	-0.16560942
66	0xbdf65d3d	-0.120295025
67	0xbddef5ec	-0.108867496
68	0x3ef5ecfb	0.48032364
69	0x3e2df8f3	0.16989498
70	0xbf4dc5c5	-0.803799
71	0xbcbe9913	-0.02326635
72	0xbee092b2	-0.4386192
73	0xbe7224ab	-0.236468
74	0xbf1f4ca4	-0.6222632
75	0xbea4bb3c	-0.32174098
76	0x3e4e943c	0.20173734
77	0x3eb90cf8	0.36142707
78	0xbdfb35dc	-0.12266132
79	0xbe6d6125	-0.23181589
80	0x3e9c0ea0	0.30479908
81	0xbeb78313	-0.3584219
82	0xbf3aade6	-0.729216
83	0xbf04f120	-0.5193043
84	0xbeefc911	-0.4683309
85	0xbee83f24	-0.45360672
86	0xbf6b3a17	-0.91885513
87	0x3e106301	0.14100267
88	0xbd520e87	-0.051283386
89	0x3ed855c5	0.42252937
90	0xbde002a5	-0.109380044
91	0xbedd6cfb	-0.43247208
92	0xbfb91cad	-1.4461876
93	0xbf071d04	-0.5277865
94	0xbf9a823b	-1.2070993
95	0xbf557363	-0.8337919
96	0xbf2ef24b	-0.6833846
97	0x3dd288b2	0.10279979
98	0x3e16abeb	0.14714019
99	0x3e1addec	0.15123719
100	0xbed8852f	-0.4228911
101	0x3e6fbc37	0.23411642
102	0xbe8f3db1	-0.27976754
103	0xbf8da486	-1.1065834
104	0xbec2a780	-0.38018417
105	0x3e14f305	0.1454583
106	0xbfdf2b9f	-1.7435187
107	0xbefe0c02	-0.49618536
108	0x3bd9073e	0.006623178
109	0xbe8b31ac	-0.27186334
110	0x3ef42383	0.47683343
111	0xbe46b8b6	-0.19406399
112	0xbe5da42d	-0.2164466
113	0x3de69c4b	0.11260279
114	0x3f0c5507	0.5481724
115	0xbb8f5197	-0.00437374
116	0xbe85504d	-0.26037827
117	0xbf1fbf8a	-0.6240164
118	0xbe447577	-0.19185434
119	0x3e44d112	0.19220379
120	0xbebb374a	-0.3656562
121	0x3d9a10db	0.07522746
122	0x3d2650a4	0.04060425
123	0xbe61772d	-0.22018118
124	0xbf9d09ff	-1.2268676
125	0x3f03efce	0.5153779
126	0xbefeb5c1	-0.49748042
127	0xbfb7bfa2	-1.4355357
128	0x3a8a3365	0.0010543881
129	0xbe39f3a2	-0.18159345
130	0x3e071350	0.13190961
131	0x3eb421bf	0.35181996
132	0x3e81646b	0.25271925
133	0xbdb3fe4c	-0.08788738
134	0x3d550595	0.052007277
135	0xbf55e75a	-0.8355614
136	0xbb2808a6	-0.002563992
137	0xbed0f476	-0.4081151
138	0x3ec52852	0.38507324
139	0xbe58d208	-0.2117387
140	0xbf83ffca	-1.0312436
141	0xbe095df4	-0.13414747
142	0x3d835cb7	0.06414168
143	0x3e0d6b0d	0.13810368
144	0x3f79106f	0.972907
145	0x3de7f36b	0.11325725
146	0xbf19ce59	-0.60080487
147	0xbd7fe199	-0.062471006
148	0xc0044d87	-2.067232
149	0xbe640295	-0.2226661
150	0xbd1cf740	-0.038321733
151	0xbed0537e	-0.406887
152	0xbf3e9937	-0.7445254
153	0x3d99e84e	0.07515012
154	0x3d0de585	0.034642715
155	0xbf24e4ba	-0.6441151
156	0x3e48e94e	0.19620249
157	0xbf27518e	-0.6535882
158	0x3da5a363	0.08087804
159	0x3d8a986d	0.06767354
160	0xbef8c514	-0.4858786
161	0xbf152b01	-0.58268744
162	0xbeaf39b9	-0.34223726
163	0xbeed32ca	-0.4632781
164	0xbe3e116c	-0.18561333
165	0xbea26d91	-0.31724218
166	0xbf16b28c	-0.5886619
167	0x3d7822b7	0.06057998
168	0xbe2fa4de	-0.17152736
169	0xbe1dfdd8	-0.15428865
170	0x3e9eb8b9	0.31000307
171	0x3e54d6e3	0.20785098
172	0xbe9951fa	-0.29945356
173	0xbca8a91d	-0.020588452
174	0x3e0fc2e9	0.14039196
175	0xbe40158b	-0.18758218
176	0x3e903f2c	0.28173196
177	0x3de12290	0.109929204
178	0x3ea83811	0.32855275
179	0x3e8eb610	0.27873278
180	0x3f15b3ad	0.5847729
181	0xbec9e0c0	-0.39429283
182	0xbd81fca0	-0.063470125
183	0x3e5a0cf4	0.21294004
184	0xbf3a6d0b	-0.72822636
185	0xbf2ef59d	-0.68343526
186	0x3f0b2a89	0.5436178
187	0x3e69e0dc	0.22839683
188	0xbdbf3318	-0.09335917
189	0x3d118b80	0.03553343
190	0xbef1c3b4	-0.47219622
191	0x3ecd8a0f	0.40144393
192	0xbe7a8158	-0.24463403
193	0x3d7a40b3	0.06109686
194	0x3cbf5061	0.023353757
195	0x3e8cd88c	0.27508962
196	0xbe3e304d	-0.18573113
197	0xbe91950e	-0.28434032
198	0x3de8873c	0.11353919
199	0xbe350bdf	-0.1768031
200	0xbe43edf0	-0.19133735
201	0xbf84dd25	-1.0379988
202	0x3ecb5923	0.39716443
203	0x3dace737	0.08442538
204	0xbf00b329	-0.50273377
205	0xbda22686	-0.07917504
206	0x3dc5dfdc	0.096618384
207	0x3d111e65	0.035429377
208	0x3fae616d	1.3623482
209	0x3ea11169	0.31458595
210	0xbe88ded2	-0.26732498
211	0x3ddb8538	0.10718769
212	0x3eb83c34	0.3598343
213	0xbd5de86f	-0.054176744
214	0x3e6c098c	0.23050517
215	0xbf4b1a29	-0.7933679
216	0xbf120ddb	-0.5705239
217	0x3e91b199	0.2845581
218	0x3cf9701f	0.030448971
219	0xbf5a53f6	-0.85284364
220	0x3db8376b	0.08994945
221	0xbe1bba05	-0.1520768
222	0xbe7c28cf	-0.24624942
223	0xbf051f45	-0.5200084
224	0xbde86932	-0.113481894
225	0x3ea08b28	0.31356168
226	0xbf3e1570	-0.7425146
227	0xbf552f95	-0.8327573
228	0xbe5d9bff	-0.21641539
229	0xbef6efc7	-0.4822981
230	0x3e9badae	0.30405945
231	0x3d31e2ae	0.04342907
232	0x3e984786	0.29742068
233	0xbf4ecfca	-0.8078581
234	0x3e9409a0	0.28913593
235	0xbe248f69	-0.16070332
236	0xbe436d91	-0.19084765
237	0xbd92cd3e	-0.07168053
238	0x3cb846c1	0.022494676
239	0xbe206707	-0.15664302
240	0x3eb947ef	0.36187693
241	0x3d7380aa	0.059448875
242	0xbe2503e8	-0.16114771
243	0x3e34d720	0.17660189
244	0x3ebbffa5	0.3671848
245	0xbfe7bb19	-1.8103973
246	0xbf6fd239	-0.9368015
247	0x3e01f2d5	0.1269029
248	0xbcc8554b	-0.024454733
249	0xbf011594	-0.5042355
250	0xbf067dcc	-0.525357
251	0x3eb39774	0.35076487
252	0xbe127af5	-0.14304717
253	0xbe1b60fa	-0.15173712
254	0xbea0999b	-0.31367192
255	0x3ebd3092	0.3695112

fc_2.bias f4 [64]
0	0x3dcdd2f7	0.10050004
1	0x3e472e63	0.19451289
2	0xbeff3b21	-0.498498
3	0x3cd61377	0.026132328
4	0x3e0e1e13	0.1387866
5	0x3d48310e	0.048874907
6	0xbe5a44d1	-0.21315314
7	0x3dd0a8a2	0.10188414
8	0xbdfc8e58	-0.123318374
9	0x3dd08726	0.101820275
10	0x3eb0217a	0.3440054
11	0xbdf70089	-0.12060649
12	0x3ea709aa	0.3262456
13	0x3c94dd2f	0.018171875
14	0x3d12e799	0.0358654
15	0xbeb6a63f	-0.3567371
16	0x3defe40c	0.11713418
17	0x3ebed015	0.3726813
18	0x3e355237	0.17707144
19	0xbe3033d3	-0.1720727
20	0xbe4a39e5	-0.19748648
21	0x3ddad776	0.10685627
22	0x3e891c41	0.2677937
23	0x3d48f45a	0.049061157
24	0x3d4cb1e9	0.049974356
25	0x3e2eef6f	0.17083524
26	0x3daef3c2	0.08542587
27	0x3e0fbdf0	0.14037299
28	0xbd949d38	-0.072565496
29	0x3cfe6bb6	0.03105722
30	0xbdd97ce7	-0.10619526
31	0xbe00894e	-0.12552378
32	0xbda2ed4f	-0.07955419
33	0xbe28e4e4	-0.16493565
34	0xbdb76719	-0.08955211
35	0xbdbaab13	-0.09114661
36	0x3e42a493	0.19008093
37	0xbe628c77	-0.22123896
38	0xbe6ccf5c	-0.23125976
39	0x3ca540a8	0.020172432
40	0xbe060d7a	-0.13091078
41	0xbde959e3	-0.11394098
42	0x3dc914c0	0.09818411
43	0x3e24e071	0.16101243
44	0x3eda949c	0.42691505
45	0x3d122072	0.035675474
46	0xbd00b0f4	-0.031418756
47	0xbd4543aa	-0.048160233
48	0x3e6732f8	0.22578037
49	0xbe845200	-0.2584381
50	0xbe532205	-0.20618446
51	0xbdbedf59	-0.09319944
52	0xbe850577	-0.25980732
53	0xbe31d926	-0.17367992
54	0x3d402c37	0.046917167
55	0x3e2a2aef	0.1661794
56	0xbd06a3c4	-0.032871023
57	0xbc99f929	-0.018795567
58	0x3e46aa9b	0.19401018
59	0x3be6d1cf	0.007044054
60	0xbe01dcdb	-0.12681906
61	0x3dc16145	0.09442381
62	0x3e0875c5	0.13326176
63	0xbeb1796a	-0.34662944

fc_mu.weight f4 [1, 64]
0	0x3ea30531	0.31839898
1	0xbe86789d	-0.26263896
2	0x3e0a5c81	0.1351185
3	0x3e1e9f39	0.15490426
4	0x3e1149f8	0.14188373
5	0xc002b134	-2.0420656
6	0x3e4bbc01	0.19895937
7	0xbdc54652	-0.09632553
8	0xbafbabfc	-0.0019201036
9	0xbcb8b13e	-0.022545453
10	0xbea23553	-0.31681308
11	0xbfcdde91	-1.6083547
12	0x3c95fb9b	0.018308451
13	0xbd67e5b6	-0.056615554
14	0x406198b1	3.5249445
15	0xbe269c27	-0.16270505
16	0x3f185fa2	0.59520924
17	0xbeb9c7a7	-0.36285135
18	0x3f080187	0.5312733
19	0xbf31cb58	-0.694509
20	0xbbd4eca7	-0.0064979377
21	0x3f53a7a2	0.8267766
22	0x3f82fb67	1.0232972
23	0x3fb9310a	1.446809
24	0x3e167e75	0.14696677
25	0x3e4d17e2	0.20028642
26	0x3f620118	0.8828292
27	0xbda72226	-0.0816081
28	0x3f8bd9ed	1.0925881
29	0x3fddb1b3	1.7319854
30	0xbf61547f	-0.88019556
31	0xbf603770	-0.8758459
32	0xbe7cc88d	-0.24685879
33	0xbdd4d2c2	-0.10391761
34	0x3fa87a8f	1.3162402
35	0x3ed8296b	0.422191
36	0xbb513074	-0.003191975
37	0xbabd6470	-0.0014449488
38	0x3e000b4b	0.12504308
39	0x3f78e647	0.97226375
40	0xbcdbed9b	-0.026846698
41	0xbdee875c	-0.116469115
42	0xc0036c36	-2.0534797
43	0xbb9bdf4f	-0.004756845
44	0xbb9fe2cd	-0.0048793317
45	0xbf6c5633	-0.9231903
46	0x3fae752f	1.3629512
47	0xbee457f8	-0.44598365
48	0x3e33fd7b	0.17577164
49	0xbba06881	-0.0048952703
50	0x3a9c1109	0.0011906932
51	0x3ee59add	0.44844714
52	0x3f9cec7b	1.2259668
53	0xbc935a26	-0.017987322
54	0xbc23cc56	-0.009997448
55	0x3eafae6c	0.3431276
56	0xbfc5f3fd	-1.5465084
57	0x3fa5afd4	1.2944283
58	0x3f248b34	0.6427491
59	0x3f97724e	1.1831758
60	0xbb4a1fee	-0.0030841785
61	0xbe5ae635	-0.2137688
62	0x3fc0e80c	1.5070815
63	0xbf15778f	-0.58385557

fc_std.weight f4 [1, 64]
0	0xbe85984b	-0.26092753
1	0xbf1f0fe6	-0.62133634
2	0xbe473b26	-0.19456157
3	0x3ea19368	0.31557775
4	0xbe534779	-0.20632733
5	0x3f23fffd	0.6406248
6	0xbe948308	-0.2900622
7	0xbf565f11	-0.8373881
8	0xbc4f2124	-0.012642179
9	0xbf3b7818	-0.73230124
10	0x3b93c825	0.004509943
11	0x3f6b57d7	0.9193091
12	0xbee690f3	-0.45032462
13	0xbbe23f2e	-0.0069045043
14	0x4001172c	2.0170393
15	0x3ef83f6f	0.48485896
16	0x3de10d77	0.10988896
17	0xbe0b1951	-0.13583876
18	0xbe4114f5	-0.1885565
19	0xbefaae05	-0.4896089
20	0xbed56225	-0.4167644
21	0x3f928981	1.1448213
22	0xbf994669	-1.1974612
23	0x3f75d272	0.9602424
24	0x3abc0ff8	0.0014348021
25	0xbe4c908f	-0.1997702
26	0xbf9ccf6b	-1.2250799
27	0xbf40b633	-0.75278014
28	0x3f222b77	0.6334757
29	0x3f1e4335	0.618213
30	0x3f33c3d8	0.7022071
31	0x3efad4c8	0.48990464
32	0xbd7d9f67	-0.061919596
33	0x3dfa8596	0.12232511
34	0x3e4f3698	0.2023567
35	0x3ece8e0e	0.40342754
36	0xbed9e6e5	-0.4255897
37	0x3dbbf5a5	0.09177712
38	0x3e94eadd	0.29085436
39	0x3e757c85	0.23973282
40	0xbcd2f32a	-0.025750715
41	0xbf85af0b	-1.0444044
42	0x3fe03f98	1.7519407
43	0xbfa665a8	-1.2999773
44	0xbf1f0849	-0.6212202
45	0xbed71c5e	-0.4201383
46	0xbd2cd4f5	-0.04219528
47	0x3f330613	0.69931144
48	0xbe94a32b	-0.29030737
49	0x3e2a6991	0.16641833
50	0x3dc8eafb	0.09810444
51	0x3ee46ab2	0.44612652
52	0xbf1c2243	-0.6098978
53	0x3f254e5a	0.6457268
54	0xbec3c457	-0.38235733
55	0xbe9bd1c6	-0.30433482
56	0x3f76e3a1	0.96441084
57	0x3e01e334	0.12684327
58	0x3f021e8c	0.5082786
59	0xbe130992	-0.1435912
60	0x3d8f0221	0.06982828
61	0x3eba3e65	0.36375728
62	0x3f33f1fd	0.7029112
63	0x3e8e99b4	0.2785164
