Pendulum_SAC/saved_model/0404/sac_actor_EP110.pt (torch, 20559 bytes, 6 tensors)

fc_1.weight f4 [64, 3]
0.55764604 -0.0023092963 -0.46800074 -0.09288853 -0.6655214 -0.5059477 -0.7394848 0.34846696
0.4448318 -0.30330527 0.5686982 0.012107246 0.23692858 -1.0250635 0.47814864 0.2737038
-1.153165 -0.5272647 -0.13741653 0.69571435 -0.018526372 -0.30375454 -1.2786441 -0.37786838
0.77562547 0.12775342 -0.36899146 0.72218645 -1.1518793 -0.54269814 0.3437586 0.8244699
-0.24475408 -0.18044215 0.3778151 -0.025610376 -0.26379043 -0.9619313 -0.111274146 0.16151646
-0.046266094 0.056767907 0.075187504 0.9666685 0.655572 0.023493268 -0.02575831 -0.67578006
0.096763685 -0.9545259 0.015008123 0.54675347 1.7236671 0.11433318 -0.83126634 -0.14932495
-0.09641421 -0.12476621 1.276953 0.20966683 -0.24097763 -1.7638699 -0.35713282 -0.40090394
-0.09273666 -0.36899483 -0.2596075 0.9967382 0.17384574 0.38712022 -0.89497226 -0.30739674
-0.7070426 -0.76238096 -0.0443092 0.4806819 -0.42520148 -0.062956005 0.97737294 0.81388086
0.029595444 -0.47031206 -1.6228074 -0.41304794 -0.330263 0.72004366 0.74638796 -0.20964676
-0.921793 -0.2773939 0.077386335 -0.91124296 -0.42709607 -0.49422127 -0.29773992 0.18173991
-0.7343707 0.018921053 -0.03501274 0.53703654 0.21042645 -0.11593082 0.19146994 -0.9071276
-0.26499557 0.6746387 -1.2655581 -0.3796766 -0.16491981 -0.8448128 -0.34365183 0.119007744
-1.5397583 -0.06555328 -0.61254734 -0.113118716 -0.36227536 -0.7028668 0.48944604 0.37763768
-0.26483083 0.5972123 0.058444913 0.6014449 -0.49443808 -0.30843097 -0.18086222 1.7287197
0.32170102 -0.29550707 0.5291532 -0.3670306 -0.4328808 -0.43259078 0.0022835974 0.63119274
0.26861516 -0.51175296 0.8663316 -0.93735206 0.5182191 0.019856187 -0.22141242 -0.4422284
-0.7313909 -0.10471722 -0.23133218 0.31577936 1.3600478 0.4136999 0.88056076 0.104757674
0.38570204 0.044950783 -0.037205204 -0.44343743 -0.3178258 0.58040607 -0.17552005 0.21151826
-0.33076447 -0.33235064 0.14354265 0.0023940357 -0.34327024 0.65460837 1.1556228 0.4558038
-0.8150992 0.19120751 -0.08687324 -0.73670506 0.46485585 0.042559925 -0.70984715 -0.3823202
-0.28081793 0.08629124 0.43083078 -0.6955059 0.09390299 -1.1169266 -0.5171162 0.21955377
-0.37554458 0.26382393 -0.047735117 -1.2214137 -0.62734026 0.16018848 0.97698015 -0.20645228
00000000: e4c1 0e3f 9057 17bb cb9d efbe 573c bebd
00000010: 9c5f 2abf ca85 01bf e04e 3dbf 436a b23e
00000020: fec0 e33e d44a 9bbe 3596 113f 785d 463c
00000030: 689d 723e 4835 83bf e6cf f43e e822 8c3e
00000040: e99a 93bf d2fa 06bf ebb6 0cbe 561a 323f
00000050: 9ec4 97bc b785 9bbe 9caa a3bf f777 c1be
00000060: 648f 463f cbd1 023e 73ec bcbe 36e1 383f
00000070: c870 93bf 44ee 0abf 2101 b03e 7610 533f
00000080: d0a0 7abe d4c5 38be fb70 c13e dacc d1bc
00000090: 8a0f 87be 2141 76bf b3e3 e3bd 9264 253e
000000a0: 8481 3dbd 7785 683d e8fb 993d 9677 773f
000000b0: 91d3 273f f474 c03c 1703 d3bc ecff 2cbf
000000c0: 0a2c c63d cf5b 74bf a1e4 753c 09f8 0b3f
000000d0: 20a1 dc3f 8427 ea3d dfcd 54bf a4e8 18be
000000e0: d074 c5bd 6d85 ffbd 3273 a33f e7b2 563e
000000f0: d7c2 76be 7dc6 e1bf 1dda b6be 4843 cdbe
00000100: b8ec bdbd e4ec bcbe 46eb 84be 3c2a 7f3f
00000110: 9e04 323e 9f34 c63e e71c 65bf 1b63 9dbe
00000120: be00 35bf 662b 43bf 907d 35bd f01b f63e
00000130: 02b4 d9be 14ef 80bd 1d35 7a3f 7f5a 503f
00000140: 2572 f23c becc f0be 27b8 cfbf 057b d3be
00000150: 3b18 a9be c854 383f 4813 3f3f a4ad 56be
00000160: a0fa 6bbf 9306 8ebe ba7c 9e3d 3847 69bf
00000170: 56ac dabe 920a fdbe 5e71 98be 071a 3a3e
00000180: b8ff 3bbf 5300 9b3c 8569 0fbd 3a7b 093f
00000190: 087a 573e 236d edbd b210 443e 8439 68bf
000001a0: 80ad 87be 1fb5 2c3f cffd a1bf f964 c2be
000001b0: bde0 28be a745 58bf 22f3 afbe 55ba f33d
000001c0: cd16 c5bf cc40 86bd e7cf 1cbf c9aa e7bd
000001d0: 287c b9be 14ef 33bf ac98 fa3e ba59 c13e
000001e0: e897 87be e8e2 183f ef63 6f3d 4bf8 193f
000001f0: fd26 fdbe aaea 9dbe f233 39be b046 dd3f
00000200: ffb5 a43e b44c 97be 9676 073f 6feb bbbe
00000210: 8da2 ddbe 8a7c ddbe 68a8 153b d995 213f
00000220: ed87 893e 3e02 03bf e8c7 5d3f 4ef6 6fbf
00000230: 02aa 043f 71a9 a23c f0b9 62be c36b e2be
00000240: 6f3c 3bbf fb75 d6bd 58e2 6cbe d5ad a13e
00000250: 0c16 ae3f 79d0 d33e 6e6c 613f 318b d63d
00000260: bd7a c53e 501e 383d 7c64 18bd 3b0a e3be
00000270: 10ba a2be 7e95 143f 87bb 33be 3e98 583e
00000280: f659 a9be dd29 aabe d8fc 123e 41e5 1c3b
00000290: 1ec1 afbe 6a94 273f 73eb 933f 1e5f e93e
000002a0: 57aa 50bf e7cb 433e 99ea b1bd b498 3cbf
000002b0: 9601 ee3e 5153 2e3d 8bb8 35bf 79bf c3be
000002c0: 5ec7 8fbe 76b9 b03d da95 dc3e ad0c 32bf
000002d0: 3650 c03d 73f7 8ebf ba61 04bf b4d2 603e
000002e0: 6147 c0be ee13 873e e685 43bd 4957 9cbf
000002f0: 5f99 20bf 7308 243e 5f1b 7a3f 3a68 53be

fc_1.bias f4 [64]
-0.5066775 0.014312821 -0.22041248 0.32073 -0.40162504 0.25895247 0.18148954 0.30596697
-0.78875446 -0.5146146 -0.20971952 0.47059956 0.40896004 0.04277848 -0.020064356 -0.3154985
-0.13970168 0.016645614 0.3054111 0.28550008 -0.36557338 -0.3386093 0.37161845 0.118547514
0.33643827 0.19456723 -0.19156139 -0.35181257 -0.33250841 0.19845822 0.06952016 -0.7354581
0.56087255 0.3162784 0.20742726 -0.23872171 0.31574136 0.18010396 -0.46341136 -0.21794984
0.25062972 -0.39140782 -0.5304905 -0.4172444 0.4179717 -0.35265958 -0.45504448 0.08159347
-0.23006111 -0.31991428 -0.8593858 -0.26252553 0.39288026 -0.8008574 -1.1666983 -0.60926235
0.1404715 -0.26021376 -0.60049886 -0.43029496 0.08411003 0.08371908 -0.03067725 0.014477362
00000000: 9eb5 01bf 5380 6a3c cfb3 61be b936 a43e
00000010: cca1 cdbe 6b95 843e 65d8 393e b4a7 9c3e
00000020: d0eb 49bf c8bd 03bf b7c0 56be 6df2 f03e
00000030: 3663 d13e 7d38 2f3d 015e a4bc 0589 a1be
00000040: f50d 0fbe 625c 883c d85e 9c3e 112d 923e
00000050: 6f2c bbbe 335e adbe c644 be3e 0ac9 f23d
00000060: a341 ac3e a23c 473e ab28 44be c720 b4be
00000070: 8b3e aabe a238 4b3e 9660 8e3d fb46 3cbf
00000080: 5895 0f3f 3eef a13e d067 543e 7773 74be
00000090: daa8 a13e 2c6d 383e 4144 edbe 3e2e 5fbe
000000a0: 8a52 803e 9b66 c8be 3ace 07bf 0fa1 d5be
000000b0: 6300 d63e cc8f b4be 97fb e8be 7a1a a73d
000000c0: 2495 6bbe cecb a3be b500 5cbf bf69 86be
000000d0: 9a27 c93e fe04 4dbf 5f56 95bf 9ef8 1bbf
000000e0: c3d7 0f3e bd3a 85be 4bba 19bf 9f4f dcbe
000000f0: e141 ac3d e974 ab3d db4e fbbc 7532 6d3c

fc_2.weight f4 [64, 64]
0.21476051 0.14501348 0.017642211 -0.12755738 0.13505207 0.102151945 -0.16411084 -0.07252957
0.38495922 0.09830091 -0.208393 -0.034517575 -0.030349014 -0.121656075 -0.015685104 0.029091446
0.12591955 -0.06980336 -0.3800641 -0.09845242 -0.090318054 -0.001088805 -0.041655146 0.01703735
-0.2139122 0.05984532 -0.0058426205 -0.3071067 0.07604759 -0.0873747 0.07158804 -0.15922865
-0.10207809 0.09935476 0.11168027 -0.09277099 -0.05189443 0.107901536 -0.5624135 -0.10868335
-0.08951846 0.09807991 -0.39270955 0.06805669 -0.15592067 0.05637712 -0.03913882 -0.055374727
-0.4620513 -0.34077564 0.23643278 -0.13170606 0.019519622 0.016014699 0.011644304 -0.4170166
-0.15898709 0.0579043 -0.64782476 -0.17724787 0.05461821 0.06986929 0.11858872 -0.031309146
-0.1098964 0.007817411 -0.09626174 0.064713426 0.37612206 0.009303685 -0.002643681 0.09987609
-0.2337926 0.019923346 -0.13459587 0.11852351 0.22284867 0.3698014 -0.05249469 0.08316915
0.15109274 -0.07901157 -0.19500665 0.02576145 -0.084698476 -0.26689315 -0.054908473 -0.13565597
0.079635836 0.35480437 0.12434897 -0.24147184 -1.5969545 0.06767427 0.038053967 -0.018419333
0.008914818 0.23924369 -0.13663842 -0.06909237 -0.042431775 0.19239816 -0.116862774 -0.20095327
-0.12762439 -0.15604441 -1.1562413 -0.31647754 0.08251135 -0.12241933 0.3211234 -0.20490171
-0.029277321 0.2622269 0.25951165 0.24526037 -0.09793447 -0.45103016 -0.08848503 0.24968794
-0.034071453 0.12113939 0.12974864 0.06070003 -0.22495645 0.35684973 -0.14916381 -0.10680781
0.19304714 -0.06726962 0.10294116 0.15773615 0.12476106 0.11269347 0.22261676 -0.43953744
0.097322874 -0.39937073 0.15026262 0.01712956 -0.37071818 -0.019083275 0.006948815 0.19238895
-0.035406508 0.113876425 -0.15707177 -0.050914306 -2.3068526 -0.0866937 0.06383198 -0.14694217
-0.4096863 -0.09275747 0.096547894 -0.51958936 0.1533913 -0.21127658 0.17664587 0.03912071
-0.171448 0.005643987 -0.08914559 -0.18758695 -0.18225469 -0.12364387 -0.2697843 0.069950126
0.14521417 -0.05181518 0.27853096 0.10920545 -0.11075191 0.14128755 -0.093373634 -0.08624712
0.27879095 -0.024337271 -0.10635437 0.34719434 0.1303217 -0.33824104 -0.11787827 0.04716713
-0.053960443 -0.26049107 0.2812449 0.16915642 0.04185106 -0.054981053 -0.15793318 0.29060617
-0.16499852 0.11330603 0.053340215 0.1331608 -0.11558784 -0.08239455 0.042594407 -0.2527092
-0.0018019659 -0.3443748 0.23115094 0.04019158 -0.2298573 -0.2571104 0.14050044 0.06964001
-0.025681198 0.1219296 -0.13699052 0.037274294 0.09507737 -0.033154618 0.18407895 -0.38749132
-0.27102286 0.021874668 -0.058123898 -0.39051393 0.13481407 -0.20003006 -0.0035035473 -0.2868112
-0.071824215 0.04122858 -0.35963765 -0.39887327 -0.1321228 -0.09590319 -0.19600306 0.0919197
0.20678744 -0.18339759 0.28758845 -0.1578306 -0.048161305 -0.050197665 -0.040849887 -0.086213216
-0.095150776 0.073419325 -0.15816446 0.4300193 0.11496397 -0.5300474 -0.393567 0.17777114
-0.06301213 -0.38829395 -0.16575672 0.26985896 0.094459966 -0.091499425 0.06151913 0.25045952
00000000: 2eea 5b3e 6a7e 143e 6686 903c 679e 02be
00000010: 174b 0a3e 0a35 d13d ac0c 28be 628a 94bd
00000020: 6019 c53e fd51 c93d f964 55be 4d62 0dbd
00000030: 7f9e f8bc d226 f9bd 0c7e 80bc 2f51 ee3c
00000040: 0ef1 003e 10f5 8ebd c397 c2be 6ca1 c9bd
00000050: acf8 b8bd 3cb6 8eba 969e 2abd ea91 8b3c
00000060: cd0b 5bbe 5e20 753d 7473 bfbb 173d 9dbe
00000070: d7be 9b3d 82f1 b2bd c09c 923d d60c 23be
00000080: 510e d1bd 827a cb3d a0b8 e43d b8fe bdbd
00000090: 418f 54bd 7bfb dc3d 55fa 0fbf 6095 debd
000000a0: 7455 b7bd 1fde c83d 3a11 c9be 4e61 8b3d
000000b0: aba9 1fbe b2eb 663d 0750 20bd 9cd0 62bd
000000c0: fd91 ecbe 257a aebe 6f1b 723e f4dd 06be
000000d0: 9de7 9f3c 4231 833c c0c7 3e3c 3383 d5be
000000e0: 83cd 22be 0f2d 6d3d d8d7 25bf 7780 35be
000000f0: 58b7 5f3d a117 8f3d a5de f23d 053e 00bd
00000100: 5d11 e1bd 9914 003c e024 c5bd 7988 843d
00000110: 1293 c03e 7c6e 183c 9b41 2dbb d68b cc3d
00000120: 5467 6fbe 4936 a33c 80d3 09be 74bc f23d
00000130: 7132 643e 9c56 bd3e ac04 57bd 9654 aa3d
00000140: 0eb8 1a3e d1d0 a1bd d3af 47be ad09 d33c
00000150: 6576 adbd 38a6 88be b5e7 60bd 66e9 0abe
00000160: 1d18 a33d eba8 b53e acaa fe3d 6544 77be
00000170: 0169 ccbf cf98 8a3d 7ade 1b3d 24e4 96bc
00000180: 750f 123c 4cfc 743e f1ea 0bbe 4d80 8dbd
00000190: f1cc 2dbd 0604 453e c055 efbd b2c6 4dbe
000001a0: f8af 02be 1bca 1fbe b7ff 93bf 5809 a2be
000001b0: b6fb a83d fcb6 fabd 496a a43e c1d1 51be
000001c0: fed6 efbc 9b42 863e b6de 843e 8925 7b3e
000001d0: de91 c8bd 6ded e6be a437 b5bd 32ae 7f3e
000001e0: 828e 0bbd ee17 f83d d4dc 043e 98a0 783d
000001f0: fc5a 66be 02b5 b63e 66be 18be 0ebe dabd
00000200: 26ae 453e a8c4 89bd d1d2 d23d 9685 213e
00000210: ba82 ff3d d6cb e63d a6f5 633e 0d0b e1be
00000220: 3751 c73d 527a ccbe 72de 193e 4a53 8c3c
00000230: c6ce bdbe 8754 9cbc e3b2 e33b 9c01 453e
00000240: 6a06 11bd 0b38 e93d 6cd7 20be 858b 50bd
00000250: 79a3 13c0 778c b1bd 57ba 823d 0278 16be
00000260: 67c2 d1be a1f7 bdbd e7ba c53d cf03 05bf
00000270: 9c12 1d3e e358 58be a8e2 343e 0a3d 203d
00000280: 1190 2fbe 32f1 b83b f791 b6bd cb16 40be
00000290: f9a0 3abe ff38 fdbd 2b21 8abe 0342 8f3d
000002a0: 06b3 143e 273c 54bd 9c9b 8e3e 1ba7 df3d
000002b0: e6d1 e2bd afad 103e ad3a bfbd 54a2 b0bd
000002c0: b0bd 8e3e f55e c7bc 52d0 d9bd 75c3 b13e
000002d0: 0d73 053e ee2d adbe 2a6a f1bd 5232 413d
000002e0: a005 5dbd 165f 85be 55ff 8f3e 5737 2d3e
000002f0: 046c 2b3d d033 61bd 3cb9 21be 55ca 943e
00000300: 5ff5 28be fe0c e83d 457b 5a3d 4e5b 083e
00000310: 51b9 ecbd 79be a8bd 7977 2e3d 1a63 81be
00000320: f12f ecba e551 b0be d5b2 6c3e ed9f 243d
00000330: b65f 6bbe f9a3 83be 59df 0f3e 6c9f 8e3d
00000340: 6061 d2bc 3ab6 f93d 3e47 0cbe eeac 183d
00000350: edb7 c23d 23cd 07bd 317f 3c3e 4365 c6be
00000360: 82c3 8abe 8132 b33c 5313 6ebd 71f1 c7be
00000370: b30c 0a3e aed4 4cbe c59b 65bb ebd8 92be
00000380: 9318 93bd 4ddf 283d 6d22 b8be 1e39 ccbe
00000390: 334b 07be e468 c4bd 07b5 48be 6540 bc3d
000003a0: 16c0 533e 94cc 3bbe cb3e 933e 589e 21be
000003b0: ca44 45bd 119c 4dbd 3652 27bd 8e90 b0bd
000003c0: 69de c2bd df5c 963d ddf5 21be 7d2b dc3e
000003d0: 3b72 eb3d 30b1 07bf 9d81 c9be a309 363e
000003e0: 810c 81bd 77ce c6be 21bc 29be f42a 8a3e
000003f0: 3a74 c13d 0d64 bbbd 7cfb 7b3d 3b3c 803e

fc_2.bias f4 [64]
0.07099532 0.22514445 -0.13505061 0.00286005 0.05493001 -0.051682405 -0.1429223 -0.04793934
-0.14515439 0.13844071 0.26447308 -0.08256207 0.2558111 0.11298778 0.15153252 -0.34097016
-0.011801446 0.23870596 0.1123364 -0.037778277 -0.09627738 0.00042211806 0.21869597 0.041828353
0.07045363 0.19576526 0.06930729 0.21386229 -0.10627747 0.08625422 -0.1396872 -0.17290676
0.006530471 -0.18933934 -0.088773385 -0.19351424 0.20004506 -0.09064643 -0.113683075 0.094093144
-0.11061313 -0.09657496 0.08384897 0.11136764 0.33128196 -0.07840555 -0.0038940106 -0.094110206
0.10408233 0.021808205 -0.07090526 -0.00935189 -0.23404288 -0.1203923 0.15522403 0.109996065
-0.013106885 0.12150732 0.09288685 -0.034764238 0.019836295 0.06037589 0.19040644 -0.09370955
00000000: ff65 913d 448c 663e b54a 0abe ad6f 3b3b
00000010: 4afe 603d eeb0 53bd 395a 12be 0b5c 44bd
00000020: 5aa3 14be 67c3 0d3e 0469 873e 4d16 a9bd
00000030: acf9 823e 2366 e73d 572b 1b3e a493 aebe
00000040: da5a 41bc 566f 743e a010 e63d 65bd 1abd
00000050: 132d c5bd ba4f dd39 d6f1 5f3e 3554 2b3d
00000060: fe49 903d b076 483e fbf0 8d3d b7fe 5a3e
00000070: 01a8 d9bd 0da6 b03d 290a 0fbe 780e 31be
00000080: 90fd d53b 2ce2 41be d2ce b5bd 9928 46be
00000090: 9dd8 4c3e d6a4 b9bd acd2 e8bd e8b3 c03d
000000a0: 2389 e2bd 18c9 c5bd 02b9 ab3d b814 e43d
000000b0: ca9d a93e 1793 a0bd a832 7fbb dabc c0bd
000000c0: 1e29 d53d 1fa7 b23c c736 91bd ab38 19bc
000000d0: f0a8 6fbe 3d90 f6bd 0cf3 1e3e 9e45 e13d
000000e0: 43be 56bc d4d8 f83d 763b be3d f264 0ebd
000000f0: ba7f a23c b64c 773d e8f9 423e cbea bfbd

fc_mu.weight f4 [1, 64]
0.006943241 -0.2526173 0.21021076 0.070296764 -0.1527872 -0.04492192 0.26978448 -0.00028276443
0.013379929 -0.014077082 -0.021412233 -1.4571582 -0.009979595 -0.21794966 2.2719 -0.47668445
0.47958753 -0.27922863 0.35434726 -0.4571713 0.28172475 0.21212287 0.12649819 0.7404488
0.1289158 0.30259946 0.7406506 0.060346086 0.16141331 1.2472996 -0.5867743 -0.011062218
-0.12060327 -0.37908345 1.1095779 0.018881373 0.13578248 -0.0001352974 0.0032059338 1.0009034
-0.0159299 -0.028289525 -1.0588869 -0.064600594 -0.09349899 -0.91728264 0.9693859 -0.42140234
0.11418089 0.0015551369 0.0032600267 0.09969941 0.9659729 -0.00720706 0.22091588 0.067144744
-0.87827367 0.2793586 0.66297954 0.8075715 -0.002582243 -0.38280827 1.4192878 0.037136026
00000000: 2184 e33b 0e57 81be 7d41 573e c0f7 8f3d
00000010: 3f74 1cbe 0c00 38bd 3121 8a3e 0040 94b9
00000020: 7d37 5b3c 90a3 66bc b568 afbc 2984 babf
00000030: 7581 23bc 322e 5fbe cf66 1140 fc0f f4be
00000040: 7f8c f53e 0ef7 8ebe 016d b53e 5b12 eabe
00000050: 3a3e 903e bd36 593e be88 013e 0d8e 3d3f
00000060: 8102 043e 51ee 9a3e 479b 3d3f 752d 773d
00000070: 8849 253e 83a7 9f3f d736 16bf 4e3e 35bc
00000080: d9fe f6bd 3a17 c2be a606 8e3f 1cad 9a3c
00000090: 900a 0b3e 9fde 0db9 a51a 523b 9a1d 803f
000000a0: 6c7f 82bc 6fbf e7bc 9b89 87bf 514d 84bd
000000b0: 667c bfbd 09d3 6abf ad29 783f 0cc2 d7be
000000c0: acd7 e93d bcd5 cb3a 2ca6 553b 342f cc3d
000000d0: 004a 773f 3429 ecbb c637 623e 2f83 893d
000000e0: 8bd6 60bf 1708 8f3e 07b9 293f 01bd 4e3f
000000f0: d93a 29bb 72ff c3be 39ab b53f f21b 183d

fc_std.weight f4 [1, 64]
-0.34316388 -0.1043785 -0.14593138 0.37878615 0.05525263 -0.10097859 -0.47603327 -0.16197138
0.043379657 -0.23313089 -0.13988611 0.711543 -0.42287302 0.27010575 1.1955866 0.33347687
-0.09419745 0.011417381 -0.0067657167 -0.027742606 0.062799826 0.86555535 -0.55504256 0.556707
-0.075845905 -0.3539802 -0.22218157 -0.4762219 0.43509054 0.8421248 0.12583141 0.22651091
-0.11665756 0.06748628 -0.5703449 0.26461414 -0.4974004 0.117802255 0.1239188 0.6410509
0.16564265 -0.49542034 0.5654207 -0.35406977 -0.45548788 0.3813353 0.3206266 0.19598456
-0.15980916 0.12903719 0.07315928 0.12446942 -0.13468938 0.08258519 0.1842104 -0.5236387
0.559297 0.039209485 0.48985556 0.05598412 -0.12375286 0.4243445 0.5352365 -0.03315565
00000000: 2db3 afbe 65c4 d5bd 096f 15be 42f0 c13e
00000010: 9550 623d ddcd cebd a2ba f3be d3db 25be
00000020: deae 313d ddb9 6ebe 4e3e 0fbe af27 363f
00000030: d082 d8be 4d4b 8a3e fb08 993f 7bbd aa3e
00000040: 98ea c0bd f80f 3b3c f2b2 ddbb 7644 e3bc
00000050: 329d 803d 0995 5d3f 4517 0ebf 5a84 0e3f
00000060: 1955 9bbd e53c b5be 9183 63be 5bd3 f3be
00000070: 30c4 de3e 7e95 573f f3d9 003e 7af2 673e
00000080: 29ea eebd 3f36 8a3d 2002 12bf 817b 873e
00000090: 44ab febe 4f42 f13d 24c9 fd3d e91b 243f
000000a0: 3a9e 293e bca7 fdbe 69bf 103f a248 b5be
000000b0: b535 e9be 613e c33e 2b29 a43e 2db0 483e
000000c0: 03a5 23be 5322 043e 88d4 953d d3e9 fe3d
000000d0: 03ec 09be 6d22 a93d a7a1 3c3e 300d 06bf
000000e0: 172e 0f3f 209a 203d 59ce fa3e 9b4f 653d
000000f0: 2472 fdbd af43 d93e 4205 093f 38ce 07bd
