Pendulum_SAC/saved_model/0404/sac_actor_EP490.pt (torch, 20559 bytes, 6 tensors)

fc_1.weight f4 [64, 3]
000000 e8 ab 14 3f 7d 10 30 bf 63 cc e7 be 7f db 1e bc
       0.5807481 -0.6877516 -0.45273122 -0.009695887
000010 6e 81 81 bf b6 cf a2 be df 89 30 bf 9e fb 1b 3f
       -1.0117624 -0.31799096 -0.68960375 0.6093081
000020 7d ba fb 3e d3 66 5a be 35 09 86 3e d6 db c4 bc
       0.49165717 -0.21328287 0.261789 -0.024030607
000030 89 59 14 3e 7e 83 17 be 3d 86 51 3f b2 7a 5b 3e
       0.1448728 -0.14796254 0.81845456 0.21433523
000040 4f cb bc bf b4 9e 10 bf 62 e9 5d be 09 f8 79 3f
       -1.4749545 -0.5649216 -0.2167106 0.97644097
000050 bf 92 6e be 12 4a 3a bf 4e b8 86 bf d3 65 80 be
       -0.23298167 -0.7276927 -1.0524995 -0.25077686
000060 ac d9 84 3f 8e 5a e6 be 08 3f bb be c6 35 56 3f
       1.0378928 -0.44990963 -0.36571527 0.836758
000070 32 00 c0 bf 19 9e 00 bf 43 0d c2 3e 61 df 6c 3f
       -1.500006 -0.5024124 0.37900743 0.9252835
000080 f1 a0 68 be 51 4c 06 bd a2 40 48 3f 6d b0 2e be
       -0.22717644 -0.032787625 0.7822362 -0.17059489
000090 c8 c7 73 be 4b 50 93 bf 0c 58 57 be 21 03 45 3e
       -0.23806679 -1.1508878 -0.21029681 0.19239475
0000a0 67 f8 e2 bc 76 40 9b bb d5 77 81 3d 07 e1 c9 3f
       -0.027706338 -0.004737909 0.06321684 1.5771798
0000b0 9c 8e 21 3f 54 df bf 3e 5c 0a 7d be 7e 6a 80 be
       0.6310823 0.37475073 -0.24710983 -0.25081247
0000c0 c2 29 1b 3e 9d 76 6d bf 91 bc 9e bd 5b 41 e0 3e
       0.15152648 -0.92759115 -0.0775081 0.43799862
0000d0 d2 85 e3 3f 35 be 51 bd 3a 03 af bf 9b a2 4d be
       1.7775214 -0.051206786 -1.367286 -0.2008156
0000e0 65 a9 d0 3c 46 2f 30 bd 81 cd c1 3f 39 85 9a 3e
       0.025471399 -0.043013833 1.514084 0.30179766
0000f0 05 87 ad be 9c eb 08 c0 dd a6 dc be 10 43 ee be
       -0.33892074 -2.1393805 -0.43096057 -0.4653554
000100 ad 90 d9 bc 13 41 9e be 15 fa 89 be 1f b6 9c 3f
       -0.026558245 -0.30909023 -0.2694861 1.2243079
000110 42 1b 30 3e 4d ac e0 3e 55 47 7b bf 79 97 ca be
       0.17197898 0.43881455 -0.9815572 -0.3956869
000120 3a 26 2f bf 20 96 87 bf eb 2f b2 bc 56 53 2c 3f
       -0.68417704 -1.059269 -0.021751365 0.6731466
000130 1c 2a 28 bf ac 2c f6 3c f9 d5 ef 3e ca 08 95 3f
       -0.65689254 0.030050598 0.46842936 1.1643307
000140 35 08 42 3e f1 d4 e4 be 5f 1e 0b c0 df 77 dd be
       0.18948443 -0.4469371 -2.1737287 -0.43255517
000150 83 11 e2 bd 49 26 60 3f 1e c3 43 3f 3a 62 44 be
       -0.11038496 0.8755842 0.764696 -0.19178095
000160 65 72 66 bf 2f 43 67 be cb fa fc 3c 0b 8c c7 bf
       -0.900183 -0.22584222 0.030881306 -1.5589613
000170 a3 f9 f5 be aa 45 5e bf 51 d2 8c be da c6 55 3e
       -0.4804202 -0.8682505 -0.2750421 0.20876637
000180 a8 5a 5e bf 8f e5 db bd f6 06 fc bc 87 c8 cf 3e
       -0.8685708 -0.10737144 -0.030765038 0.40582678
000190 e7 fd 2c 3e ad 49 82 3d 61 90 13 3e 8d 79 75 bf
       0.16893731 0.06361709 0.14410545 -0.95888597
0001a0 c5 c6 a2 be b1 5e 5b 3f 38 b8 c1 bf 99 d5 ca be
       -0.31792274 0.8569136 -1.5134344 -0.39616087
0001b0 e2 72 b9 bd 0a ba ba 3d a0 0e 7a bf ac a2 3f 3e
       -0.09055115 0.091175154 -0.97678566 0.18714398
0001c0 e3 e8 d9 bf d7 df 2b be d0 dd 0d bf ed ad fb bd
       -1.7024196 -0.16784607 -0.55416584 -0.12289033
0001d0 01 58 89 be 85 18 24 bf 42 b4 44 3f 29 80 8d 3e
       -0.26824954 -0.64099914 0.7683755 0.2763684
0001e0 08 99 46 bf 30 6c 51 3e 3b 11 85 bd 63 91 5a 3f
       -0.7757726 0.20451427 -0.06497427 0.8537809
0001f0 87 5b 69 bf 4c 1f 90 be 09 c1 a3 be f3 52 00 40
       -0.91155285 -0.28148878 -0.31983212 2.0050628
000200 0a 4e bf 3e 40 9b 7b be ee 42 22 3f 8e d9 d4 be
       0.37364227 -0.24570942 0.63383377 -0.4157223
000210 bb a6 23 bf 92 b1 47 bf f2 d5 ef 3d 18 58 0b 3f
       -0.63926286 -0.78005326 0.11710729 0.54431295
000220 66 2d 15 3e 9c f1 22 bf b6 8b 70 3f 8a 22 11 bf
       0.145681 -0.63649917 0.9396318 -0.5669333
000230 72 cb f3 3e 9f 79 25 3c e5 18 d6 bd 44 5a 1d bf
       0.47616154 0.0100997975 -0.10453967 -0.6146586
000240 8a dc 84 bf 73 33 0d bd 72 fa 55 be 67 67 f5 3e
       -1.0379803 -0.034472894 -0.20896319 0.47930452
000250 e2 ec bc 3f 4e 4c 00 3f 20 2d 99 3f c3 4c d7 3d
       1.4759791 0.5011643 1.1966896 0.10512688
000260 3d ed e3 3e 61 b6 3d 3c 32 e2 19 be be 12 4b be
       0.44516936 0.011579127 -0.15027693 -0.19831368
000270 65 46 10 bf ff 62 2d 3f 3e fe d9 bd a1 a5 51 3f
       -0.56357414 0.6772918 -0.10644196 0.81893355
000280 4c a3 c3 be bf ed b8 be e4 8b 0f 3f 56 76 d3 bd
       -0.38210523 -0.36118886 0.5607283 -0.10325305
000290 4a f7 cb be c3 e2 64 3f 58 3e bb 3f 00 bc d9 3e
       -0.39837104 0.8940851 1.4628401 0.42526245
0002a0 61 6b ae bf cc 16 cd 3e d5 01 7d bd 55 aa 8f bf
       -1.362652 0.40056455 -0.061769325 -1.1223856
0002b0 a3 6c 50 be b4 ec 32 3d df 3e 97 bf 94 43 6a bf
       -0.20353942 0.04368277 -1.1816062 -0.91509366
0002c0 88 61 3a be 80 0d 4d be 4e c1 15 3f 11 a5 1e bf
       -0.18201268 -0.20024681 0.58498085 -0.6197062
0002d0 fd 04 18 3d 5e aa dc bf 48 70 0c bf 71 34 2c 3d
       0.037114132 -1.7239492 -0.5485883 0.0420422
0002e0 2e 10 f6 bc 4f 4c b3 3d 8c 63 43 3c da 5c ef bf
       -0.030037012 0.08754789 0.011925589 -1.8700211
0002f0 0f f7 1c bf cd 68 42 3e 40 8c 78 3f c9 bc 92 be
       -0.6131448 0.18985291 0.97089005 -0.28659657

fc_1.bias f4 [64]
000000 aa 0f 00 bf 96 e7 3c bd b0 81 f5 bd 51 3d b2 bd
       -0.500239 -0.046119295 -0.119876266 -0.087031014
000010 66 6d 38 bf 82 39 58 3e d4 8d 89 3e 95 d8 4c 3d
       -0.7204193 0.21115687 0.2686602 0.050011236
000020 ad 21 88 bf 90 06 53 bf 93 0f f2 be d6 41 de 3d
       -1.0635277 -0.8243189 -0.47277507 0.10852401
000030 77 d0 73 3e a4 23 55 be 4d 2d 0b ba af da 04 bf
       0.23809992 -0.20814377 -0.00053091795 -0.51896185
000040 43 55 ab be 40 8e 30 bd 98 6f ce bd c9 c0 ee 3d
       -0.33463487 -0.04310441 -0.100798786 0.116578646
000050 ee ef b2 be 04 7c 78 be 35 ee 9a 3e 2d 9d 09 be
       -0.34948677 -0.24266058 0.30259863 -0.13438864
000060 e5 04 ac 3e cb 1b fb 3c da c0 a6 bd 2f f3 db be
       0.33597484 0.030652901 -0.08142252 -0.42958972
000070 59 e2 ef be e8 bf 54 be da 59 39 bc 9b e4 62 bf
       -0.46852377 -0.20776331 -0.011312926 -0.88630074
000080 73 14 fa 3e 7f aa 45 be 59 e6 eb 3d 48 93 a7 be
       0.48843727 -0.1930332 0.11518545 -0.32729554
000090 33 fe 39 3e 29 45 2d be 69 2b 82 bf b3 cb 40 be
       0.18163376 -0.16920914 -1.0169498 -0.18827705
0000a0 57 b6 f0 3e 4a 6f 0a bf 07 85 d8 be 46 d0 22 bf
       0.47014114 -0.54076064 -0.42288992 -0.6359905
0000b0 db 54 82 3e bf b2 fa be af 3b 3a bf 5e 62 60 3d
       0.25455365 -0.48964497 -0.7274732 0.05478131
0000c0 ed 1f 1f bf 28 4a ec be 76 dd 95 bf b2 06 d1 be
       -0.6215809 -0.46150327 -1.170821 -0.4082542
0000d0 5e 2d f7 3d 2d 4c 94 bf 8e 5c c8 bf a2 b5 0c bf
       0.120692 -1.1585747 -1.5653245 -0.5496465
0000e0 37 04 28 3e 68 99 6a be 09 21 0c bf 81 d8 0b bf
       0.16407858 -0.22910082 -0.5473791 -0.54627234
0000f0 fb ec 19 bc cb 8f a5 bd 57 93 40 bd 60 f9 af bd
       -0.009394879 -0.08084067 -0.047015514 -0.085924864

fc_2.weight f4 [64, 64]
000000 2e 2e a5 3e 41 e4 98 3e 2d 82 ab bf b2 03 e6 be
       0.32261795 0.29861644 -1.3399101 -0.44924694
000010 b8 6c 9c bd 41 8b 9f 3e a3 63 c8 be a6 02 ec 3c
       -0.07637924 0.3116093 -0.39138517 0.028809857
000020 ad 9a c6 3e 0c 1d d4 3e 7b 97 8a be f7 b8 a3 be
       0.38789883 0.4142841 -0.27068695 -0.31977054
000030 5c 10 af 3d 4e 4d b3 bd 39 56 32 bf 6c 42 12 3d
       0.08548042 -0.08754979 -0.69662815 0.035707876
000040 2f 1d 03 3f f3 38 4e be 3e 03 b4 bf 6c 77 79 be
       0.51216406 -0.20138912 -1.406349 -0.24361962
000050 45 4a cb 3e f1 19 f3 bd 22 29 2f bb bf 1d 44 3e
       0.397051 -0.11870182 -0.0026727398 0.19151972
000060 47 06 a5 be 6e ca d2 3d 95 d4 9c bd 9b 8b 87 3e
       -0.32231352 0.10292517 -0.07657734 0.26473698
000070 1d f6 93 be 2c d5 0c 3d e4 b8 b0 3e 0a 80 0f be
       -0.28898707 0.034382984 0.3451606 -0.14013687
000080 7a 59 14 bf 00 24 c6 3c e7 b0 9a 3e 25 a6 45 3e
       -0.5794903 0.024187088 0.3021309 0.1930166
000090 10 f0 0b 3d c1 21 bb 3e d4 b6 56 bf db 65 0b be
       0.03416449 0.3654919 -0.83872724 -0.13613074
0000a0 c2 d8 7a be ed 20 bf 3e 95 2b b1 be fe b5 7b be
       -0.24496749 0.37329808 -0.34603563 -0.24581143
0000b0 63 81 a0 be b8 ad ce 3d 0f e3 31 be 5f f7 da 3b
       -0.31348714 0.10091728 -0.17371772 0.006682321
0000c0 04 8a 94 bf fe 89 e0 bf 47 7d e2 3d 4f 5b 57 be
       -1.1604619 -1.7542112 0.11059051 -0.21030925
0000d0 77 fd c3 be 03 bb 20 3e 5b 60 0a 3d 34 c7 2d bf
       -0.38279316 0.1569634 0.033783298 -0.67882085
0000e0 c4 bb d3 bf d3 35 9c bf ef fa d2 bf 23 2a 66 be
       -1.6541677 -1.2203926 -1.6482829 -0.22477011
0000f0 cf 73 9e 3e 96 c4 8b be 11 5f a1 3e f4 31 47 be
       0.3094773 -0.2729842 0.31517842 -0.1945265
000100 1e 14 47 3e 88 77 45 be c7 5f af bd 9f 92 da bd
       0.19441268 -0.19283879 -0.0856319 -0.10672497
000110 26 a1 f8 3e 41 12 37 3e 12 aa 58 bf a0 c2 77 3c
       0.48560447 0.17878057 -0.84634507 0.015122086
000120 ed 18 cd be 90 15 8e be 91 f7 1e bf 9c 3b bb be
       -0.4005808 -0.27750826 -0.62096506 -0.36568916
000130 6a af 2f 3e 83 0b ba 3e 6e a7 e5 bd 94 3c 7a be
       0.17156759 0.36336908 -0.11213575 -0.24437171
000140 7d c1 91 3e 68 7c c3 be 64 31 39 bf 49 a0 0c bf
       0.28467932 -0.38180852 -0.7234099 -0.54932076
000150 22 e2 f4 be 74 bc e7 be fd a1 7b bf 6c 90 1a 3e
       -0.47828776 -0.45260966 -0.9829405 0.15094155
000160 5d 65 8c bd 21 48 d8 3e 5d 92 e1 bd 1f 43 db be
       -0.06855271 0.4224253 -0.11014245 -0.42824647
000170 25 f4 b6 bf a4 28 09 bf b6 27 a3 bf 69 f5 68 bf
       -1.4293257 -0.5357764 -1.2746494 -0.90999466
000180 fe 76 40 bf c9 0c d3 3d a6 97 1e 3e 5d 87 16 3e
       -0.7518157 0.10305173 0.15487537 0.14700074
000190 10 48 e6 be 64 dd 60 3e 7d 41 90 be 1e fc 9a bf
       -0.44976854 0.21959454 -0.28174964 -1.210819
0001a0 41 d4 c1 be 87 10 25 3e f1 1b e1 bf 5d 76 fd be
       -0.3785725 0.16119586 -1.7586652 -0.49504367
0001b0 da 29 94 ba 00 34 95 be cd 41 f7 3e 82 48 4e be
       -0.0011303977 -0.29141235 0.4829239 -0.20144847
0001c0 f2 fe 57 be 07 9d 0f 3e 35 74 11 3f 64 08 d5 bb
       -0.21093348 0.14024745 0.5681794 -0.0065012444
0001d0 06 33 84 be cc b1 21 bf b6 5e 4f be 13 28 52 3e
       -0.25820178 -0.6316192 -0.20250973 0.205231
0001e0 e8 0a c1 be 44 23 8c 3d a6 3b 34 3d b8 de 61 be
       -0.37703633 0.06842664 0.044002198 -0.22057617
0001f0 86 78 a5 bf 80 3e 05 3f e5 f8 09 bf ff 34 bc bf
       -1.2927406 0.5204849 -0.5389541 -1.4703673
000200 0c f7 f8 bc 85 cd 4b be 5b 7e 08 3e b5 bd c0 3e
       -0.030391239 -0.19902618 0.13329451 0.37644735
000210 21 8c 7c 3e 3d bc f0 bd fd 5c 67 3d 60 23 53 bf
       0.2466283 -0.117546536 0.056485165 -0.8247585
000220 51 65 1b bd bb ab ce be 1f bc cf 3e 38 ae 50 be
       -0.03793842 -0.40365395 0.40573213 -0.20378959
000230 e3 a1 8a bf 4c 60 09 be 9c 35 79 3d 42 d8 d7 3d
       -1.0830654 -0.1341564 0.06084214 0.10539295
000240 d7 3a 64 3f 6d 89 8b 3d 97 a4 17 bf ff dd 84 bd
       0.8915228 0.06813321 -0.5923552 -0.06487655
000250 a0 85 03 c0 cd 70 6a be bd 6c 29 bd e8 d5 e3 be
       -2.0550308 -0.22894593 -0.041363467 -0.44499135
000260 07 ee 3e bf 96 9d ea 3c a7 de 9f 3c 04 4c 21 bf
       -0.7458195 0.028639596 0.019515349 -0.63006616
000270 3a cf 44 3e d0 e1 23 bf 18 db 81 3d 23 29 a7 3d
       0.19219676 -0.6401644 0.06340617 0.08162143
000280 af 58 f0 be 6d 30 2b bf f1 27 c0 be 13 be ea be
       -0.4694266 -0.66870767 -0.37530473 -0.4584814
000290 96 88 36 be 41 fd bc be 52 fc 0f bf 53 2b 85 3d
       -0.17825541 -0.36911967 -0.56244385 0.06502404
0002a0 b3 17 2b be 13 66 33 be 63 38 9b 3e 67 16 5b 3e
       -0.1670826 -0.17519407 0.30316457 0.21395265
0002b0 e0 2e 98 be 52 e9 f6 bc 0d a9 05 3e d9 fe 43 be
       -0.29723263 -0.030140553 0.13052769 -0.19140185
0002c0 b8 c0 a0 3e b6 07 d6 3d ef 40 9f 3e 43 da 83 3e
       0.31397033 0.104506895 0.31104228 0.25752458
0002d0 58 1a 27 3f 85 1e d0 be e3 6d 44 bd e0 ef 4c 3e
       0.6527457 -0.40648285 -0.04795636 0.2001338
0002e0 46 50 39 bf 4f 00 2d bf 93 54 10 3f a1 b6 73 3e
       -0.7238811 -0.67578596 0.5637905 0.23800136
0002f0 6d 1a f0 bd 61 37 02 3d f2 90 fc be 88 0f d8 3e
       -0.1172379 0.031791095 -0.49329334 0.4219935
000300 b3 29 8f be d7 80 51 3d 51 a0 f6 3c 54 71 82 3e
       -0.279615 0.051148262 0.030105742 0.25477087
000310 24 46 37 be e4 c4 9f be 8b ae 8e 3d a6 e2 3a be
       -0.1789785 -0.31204903 0.06966885 -0.18250522
000320 78 8f 71 be 7b 61 84 bf 3f f9 c1 3e 33 62 3f 3d
       -0.23589885 -1.0342249 0.37885472 0.04672451
000330 45 1d 0f bf ed 75 97 bd bf a4 e0 3d 69 42 bb 3c
       -0.55904037 -0.073955394 0.10968923 0.022858815
000340 e5 6e ad 3f fb 22 89 3e 84 46 8b be 56 9b eb 3d
       1.3549467 0.267845 -0.27202237 0.11504237
000350 5a 75 b9 3e ed 3a 80 bd 22 79 6d 3e 7c a4 51 bf
       0.36222345 -0.06261239 0.2319074 -0.8189161
000360 e2 0e 1b bf 7a 95 a0 3e 1c 47 28 3d c6 41 59 bf
       -0.60569584 0.31364042 0.04108344 -0.8486599
000370 bf e5 ce 3d e2 c8 15 be e8 12 78 be ff 46 04 bf
       0.10102414 -0.14627412 -0.24225962 -0.5167083
000380 07 93 fd bd 72 49 ad 3e 57 e2 45 bf 0e 3b 59 bf
       -0.12381559 0.33845097 -0.7729849 -0.84855735
000390 e3 8a 82 be 71 a4 f0 be 54 36 96 3e f7 4d 45 3d
       -0.25496587 -0.4700046 0.29338324 0.048170056
0003a0 6e 0d 93 3e 7a 11 53 bf 60 20 9a 3e d1 e1 3e be
       0.28721184 -0.8244854 0.30102825 -0.1864083
0003b0 6a 7b 3e be c6 a8 dc bd 79 a5 d8 3c 36 20 48 be
       -0.18601766 -0.107743785 0.026446091 -0.19543537
0003c0 9f 8d b6 3e 7d 3e 9f 3d c0 5c 28 be 7d 6d 34 3e
       0.35654923 0.077755906 -0.16441631 0.17619891
0003d0 67 a7 b4 3e 50 13 eb bf 18 85 6b bf c5 ee 15 3e
       0.35283968 -1.8365269 -0.9199996 0.14641865
0003e0 75 72 ca bc 6a 5c 01 bf c2 b3 10 bf db fd a3 3e
       -0.02471278 -0.5053164 -0.5652429 0.32029614
0003f0 18 10 19 be f9 c9 0d be 6f 2c a2 be 66 21 ac 3e
       -0.14947546 -0.13846578 -0.31674525 0.3361923

fc_2.bias f4 [64]
000000 26 b4 69 3d 4e c7 41 3e d2 12 05 bf d3 be 63 3c
       0.05705657 0.18923685 -0.5198184 0.0139004765
000010 66 43 10 3e 06 50 7d 3d 21 78 43 be 1f 80 bf 3d
       0.1408821 0.061843894 -0.19088794 0.09350609
000020 c1 13 f2 bd e8 ee 08 3e e7 11 b7 3e ec 7c 08 be
       -0.11820174 0.13372386 0.35755846 -0.13328904
000030 ed 4e b1 3e e5 00 8d bc 75 76 2a 3d ef 26 b7 be
       0.34630528 -0.01721234 0.041616876 -0.3577189
000040 76 a7 e4 3d 23 9e c1 3e 6f ac 3a 3e c6 73 35 be
       0.11164753 0.3781596 0.1822984 -0.17719945
000050 a7 a9 2b be ed dc 9b 3d 7d be 8b 3e 13 bb 4b 3d
       -0.16763936 0.076104976 0.2729377 0.049738955
000060 fb d7 aa 3c e2 dd 21 3e 5d ad b7 3d 59 e4 10 3e
       0.02085494 0.15807298 0.08968613 0.14149608
000070 95 9b 7a bd ab 7f c1 3c 11 cd e0 bd b0 8f fb bd
       -0.06118353 0.023620447 -0.10976613 -0.122832656
000080 40 17 d1 bd 19 27 30 be e3 0b bf bd 74 2b be bd
       -0.10209513 -0.17202415 -0.09328439 -0.09285632
000090 d3 91 40 3e a1 0c 72 be 74 5c 7e be e6 d7 ca 3c
       0.18805628 -0.2363763 -0.24839956 0.024761152
0000a0 33 c1 ff bd 6a c0 26 be 77 f7 02 3e 42 27 0f 3e
       -0.12488022 -0.16284338 0.12789713 0.1397982
0000b0 a8 4e d4 3e 05 34 cc 3c 25 58 b7 bc f9 02 40 3c
       0.4146626 0.024927149 -0.022380898 0.011719459
0000c0 27 56 84 3e f1 e8 75 be f5 02 6f be 3c ca a4 bd
       0.2584698 -0.24014641 -0.23340972 -0.08046386
0000d0 f6 83 98 be 9a 15 50 be 41 19 e7 3c e4 1a 24 3e
       -0.29788178 -0.2032074 0.028210284 0.16025883
0000e0 31 00 e1 bc 98 78 6c bc 76 20 46 3e 0e d9 50 3b
       -0.027465912 -0.014433049 0.1934832 0.0031867656
0000f0 fc 0e 20 be 19 9e 8d 3d 86 b6 06 3e cc de ae be
       -0.15630716 0.0691492 0.13155565 -0.34154356

fc_mu.weight f4 [1, 64]
000000 76 83 a6 3e cb ab 8e be 7f bb be 3d 46 67 0f 3e
       0.32522172 -0.27865443 0.09313106 0.1400424
000010 2f ef 28 3e 34 25 fc bf e8 d6 43 3e b0 59 c5 bd
       0.16497491 -1.9698853 0.19124949 -0.09636247
000020 25 11 12 bc 4a 0b bc bd 41 7c a8 be 74 4f ce bf
       -0.00891522 -0.09181841 -0.32907298 -1.6117997
000030 a0 f5 8a 3c 7a 76 0a bd d0 7f 65 40 06 9d 32 be
       0.016962826 -0.033804394 3.585926 -0.17442712
000040 3a c3 0d 3f 71 ba b7 be aa 85 0c 3f 76 b7 3b bf
       0.5537602 -0.3588443 0.54891455 -0.73326814
000050 d5 1f d8 bb 7f a5 58 3f b4 7e 83 3f 53 53 be 3f
       -0.0065955915 0.84627527 1.0273042 1.4869179
000060 4a 80 19 3e 3c 40 3e 3e 27 45 64 3f c1 0b 3f be
       0.14990345 0.18579191 0.8916802 -0.18656828
000070 a1 0a 8b 3f 8c 87 db 3f 78 39 5c bf a1 21 66 bf
       1.0862619 1.7150741 -0.8602519 -0.89895064
000080 ba e0 86 be 3c 0c ba bd 6d 57 ab 3f 69 b5 d1 3e
       -0.26343328 -0.09084365 1.3386055 0.40958717
000090 8f 18 bb 3a 57 9f 0b bc 11 5d b3 3d c9 0e 7b 3f
       0.0014274287 -0.008521876 0.087579854 0.98069435
0000a0 be dc d8 3a c1 fc 1f be b2 c9 03 c0 5e 4f c6 bb
       0.0016545278 -0.15623762 -2.0591855 -0.006051942
0000b0 e4 9d 15 3c db 37 6e bf 6b e4 ae 3f 39 85 f3 be
       0.009131882 -0.9305398 1.3663458 -0.47562578
0000c0 49 68 47 3e dd d3 1a bb d6 ee 31 3c 4a cb ce 3e
       0.19473375 -0.0023624816 0.010860166 0.40389472
0000d0 e2 98 9a 3f b1 f3 f2 3c b4 18 a5 3a 9c 2d aa 3e
       1.2077906 0.029657217 0.0012595863 0.33237922
0000e0 fd a0 c4 bf 84 eb ab 3f 98 f2 28 3f f6 de 9b 3f
       -1.536163 1.3431249 0.6599517 1.2177417
0000f0 59 7e eb 3b aa 82 61 be e1 48 c0 3f 4c 6f 0f bf
       0.0071866927 -0.220225 1.5022241 -0.560292

fc_std.weight f4 [1, 64]
000000 7d 12 8c be f0 bb 17 bf d4 be 18 be 91 89 a5 3e
       -0.27357855 -0.59271145 -0.14916545 0.32331517
000010 4a ce 36 be 12 52 28 3f ed 97 8c be 8d 6e 4e bf
       -0.1785213 0.6575023 -0.2745966 -0.8063744
000020 78 d3 8f 3c d3 05 5b bf 3c a0 99 3c d4 46 68 3f
       0.01755689 -0.8555576 0.018753164 0.90733075
000030 f6 d4 1f bf f8 66 be bc 78 fd 02 40 fe e0 02 3f
       -0.6243433 -0.023242459 2.0467205 0.5112456
000040 75 e8 18 3e 9b 87 19 be ff 61 3d be 9a 25 10 bf
       0.14932425 -0.14993136 -0.18494414 -0.56307375
000050 09 3a dc be 4b 73 9a 3f 8a 7e 99 bf 97 37 74 3f
       -0.43013027 1.2066435 -1.1991742 0.95397323
000060 ac 82 ad 3a 16 f2 3f be c5 34 a9 bf 1e 49 2f bf
       0.0013237796 -0.18744692 -1.3219229 -0.6847094
000070 a3 25 1d 3f b9 98 21 3f 0a 8b 41 3f fd 0d 04 3f
       0.61385554 0.6312366 0.7560278 0.51583844
000080 88 5c f8 bc 2a a4 ec 3d 6a f4 46 3e 15 64 c4 3e
       -0.03031756 0.11554749 0.19429174 0.38357607
000090 ff 5f fe be a5 be 9d 3d ec f0 78 3e 83 ea 77 3e
       -0.49682614 0.07702378 0.24310654 0.24210553
0000a0 b2 10 38 3a 71 28 7d bf 9b cd e3 3f ec f6 ae bf
       0.0007021531 -0.98889834 1.7797121 -1.3669105
0000b0 ea 8d 1a bf a7 66 d4 be b8 0d 11 bd 07 1f 43 3f
       -0.60372794 -0.41484568 -0.035413474 0.7621922
0000c0 08 c8 7a be fb cf 00 3e 59 96 d8 3d a8 17 fa 3e
       -0.24490368 0.12579338 0.105755515 0.48846173
0000d0 f0 8b 18 bf 8d 04 2d 3f 45 fa d0 be 03 e2 98 be
       -0.5958853 0.6758507 -0.4081594 -0.29859933
0000e0 42 87 70 3f 96 cc 62 3e 88 8b 04 3f 1d 3b 0e be
       0.9395639 0.22148356 0.5177541 -0.13889737
0000f0 98 c0 ef 3c a8 28 b9 3e 00 d1 34 3f 59 03 68 3e
       0.02926664 0.3616383 0.7063141 0.22657527
