Pendulum_SAC/saved_model/0404/sac_actor_EP160.pt (torch, 20559 bytes, 6 tensors)

fc_1.weight f4 [64, 3]
000000 e2 4f 19 3f 4d 89 13 be bc b1 ea be 6e bb f1 bd
       0.59887516 -0.14407845 -0.45838726 -0.118033275
000010 9c 33 40 bf 09 30 e8 be 36 e1 29 bf f1 6c 17 3f
       -0.7507875 -0.45349148 -0.6635927 0.59150606
000020 d7 3c e3 3e d0 53 86 be fb 94 1f 3f c3 a6 4b bc
       0.44382355 -0.2623582 0.623367 -0.012429896
000030 00 c4 d1 3e c6 54 66 bf 3d 3c de 3e 98 ac 33 3e
       0.4096985 -0.89973104 0.43405333 0.17546308
000040 fe 7f b7 bf 3a 83 dd be 65 d9 e1 bd c0 63 63 3f
       -1.4335935 -0.4326418 -0.11027793 0.8882408
000050 37 c7 ed bd 33 df cd be af 81 9a bf 58 e8 c0 be
       -0.11610263 -0.4020935 -1.2070826 -0.37677264
000060 50 3f 4f 3f 4f d4 2b 3d 52 cb a2 be bd 1b 3c 3f
       0.8095598 0.04195052 -0.31795746 0.73479825
000070 7a 8a 9f bf bf 9e 14 bf 74 59 9b 3e 4c 3f 72 3f
       -1.2464135 -0.5805473 0.30341685 0.94627833
000080 0c b2 6b be 01 2a 32 be 01 ee f1 3e c9 df 86 bd
       -0.23017138 -0.17398836 0.47251895 -0.065856524
000090 24 62 96 be f9 bb 79 bf 81 b4 0d be d7 9a 52 3e
       -0.2937175 -0.9755245 -0.13838388 0.20566879
0000a0 66 db 6a bd 81 d3 ab 3c 79 2a ab 3d 7a 2f 96 3f
       -0.05733814 0.020974876 0.083577104 1.1733239
0000b0 c8 d2 1a 3f 9f 1f 26 3d a0 7d f1 bc 40 8b 1d bf
       0.60477877 0.0405575 -0.029478848 -0.61540604
0000c0 17 2d c5 3d 46 b2 71 bf 79 88 f7 3c 6e 7c 05 3f
       0.09627741 -0.9441265 0.030216442 0.5214299
0000d0 2f e6 e5 3f c5 21 17 3e 38 23 66 bf 47 7e 41 bd
       1.7960871 0.14758976 -0.8989749 -0.047239568
0000e0 4a 19 97 bd e7 82 0f be 52 3a a9 3f 17 ab 63 3e
       -0.073778704 -0.14014779 1.3220923 0.22233234
0000f0 b7 8d 84 be 4b 36 ea bf b3 81 c0 be 0a 91 da be
       -0.2588937 -1.8297819 -0.37598953 -0.4268878
000100 49 46 cc 3c 34 5b a1 be 20 9d 7c be 87 7f 74 3f
       0.024935858 -0.31514895 -0.24669313 0.9550709
000110 86 b8 e7 3d 0e 52 ac 3e 44 47 7f bf 30 f5 a9 be
       0.11314492 0.33656353 -0.9971812 -0.33194876
000120 e4 bd 2d bf 39 c2 49 bf 3e ed 44 bd d8 6f 11 3f
       -0.67867875 -0.78811985 -0.048077814 0.56811285
000130 7c 19 e3 be 5b 44 b7 bd 29 9b 5e 3f 6d 26 79 3f
       -0.4435538 -0.08948585 0.86955506 0.9732426
000140 70 c9 77 3d 00 48 04 bf 4c 6c da bf 62 ce e5 be
       0.06049484 -0.51672363 -1.70643 -0.4488402
000150 e9 47 29 be 34 51 7a 3f 28 f9 41 3f 5d 3c 33 be
       -0.16531338 0.97780156 0.7577081 -0.17503496
000160 1b 81 64 bf 38 cc 98 be 19 25 fb 3b 53 aa 89 bf
       -0.892595 -0.29843307 0.0076643345 -1.0755104
000170 f9 cb 02 bf 9b c5 fc be cc 05 bf be 01 1b 1a 3e
       -0.5109249 -0.4936951 -0.3730911 0.15049364
000180 a5 8e 4d bf 70 8c 12 3e d9 77 f6 bc f1 34 05 3f
       -0.80295783 0.14311385 -0.030086445 0.5203391
000190 0c ae 1e 3e 00 5a b6 bd 53 a1 ed 3d e0 d1 80 bf
       0.15496081 -0.08903885 0.11603036 -1.0064049
0001a0 27 68 8d be 9c 61 35 3f 3f 1e ab bf 2a 8c cb be
       -0.27618524 0.70852065 -1.3368605 -0.39755374
0001b0 50 a3 26 be ca 2d 82 bf b2 dc fc be 3e 22 07 3e
       -0.16273236 -1.0170224 -0.49387127 0.13196656
0001c0 6e f1 c4 bf 9b c7 f9 bc 95 b9 1c bf ae 6e 6a bc
       -1.5386178 -0.030490687 -0.61220676 -0.014308615
0001d0 d9 fb a6 be f3 1e 29 bf 80 c5 2d 3f 59 1e bf 3e
       -0.3261402 -0.6606285 0.67879486 0.3732784
0001e0 ff 8c cc be 70 88 03 3f 81 15 29 3d 8f 16 15 3f
       -0.3995132 0.5138006 0.041280273 0.58237547
0001f0 f1 87 33 bf 05 15 9e be 67 35 5e be 9d b8 e3 3f
       -0.70129305 -0.30875412 -0.21700059 1.7790715
000200 91 79 ba 3e 37 5b b4 be 1d 8b 1b 3f 00 58 b3 be
       0.36420873 -0.3522584 0.60759145 -0.35028076
000210 fe ee 03 bf 2d 76 0a bf b2 e3 96 bc 98 c8 11 3f
       -0.5153655 -0.5408657 -0.01841912 0.56946707
000220 ee 52 b0 3d a8 84 00 bf 01 ca 56 3f 03 91 58 bf
       0.086095676 -0.5020242 0.83901983 -0.8459627
000230 36 d9 0d 3f c5 70 b5 bc cb 01 6d be c0 ed e8 be
       0.5540956 -0.0221485 -0.23145215 -0.4549389
000240 c8 7c 4e bf 69 e6 67 bd b0 6b 84 be 99 1b b1 3e
       -0.8065915 -0.05661622 -0.2586341 0.34591368
000250 2c 39 ac 3f 81 d4 e0 3e e3 21 77 3f cb 8f 5f 3d
       1.3454947 0.43912128 0.9653608 0.05458049
000260 74 d2 c0 3e 00 f8 06 bd 82 5e c3 3d 96 9a cf be
       0.37660563 -0.032951355 0.0953951 -0.40547627
000270 2f 28 fd be f7 a7 14 3f 62 a9 55 be c8 6f a0 3e
       -0.4944472 0.58068794 -0.20865396 0.31335282
000280 40 b6 e3 be 89 a9 a9 be 27 41 41 3e 38 da a9 bd
       -0.44474983 -0.33137158 0.1887251 -0.08293575
000290 11 29 92 be a9 07 35 3f 03 56 9c 3f 95 f2 e2 3e
       -0.28546956 0.70714813 1.2213749 0.443257
0002a0 32 b1 6b bf 51 ae f5 3d 84 48 93 bd 50 26 5a bf
       -0.92067254 0.11996139 -0.07191566 -0.8521471
0002b0 86 76 d5 3e b8 fd 66 3d 8d 23 73 bf 6e b6 db be
       0.4169199 0.05639431 -0.9497612 -0.4291262
0002c0 04 c1 01 be 52 16 4c 3d e6 2a fd 3e 14 43 25 bf
       -0.12671286 0.049825974 0.4944679 -0.6455548
0002d0 be 97 1d 3b 62 24 a6 bf 6d 4d 24 bf 1c 82 0f 3e
       0.0024046744 -1.2979853 -0.6418064 0.14014477
0002e0 00 88 60 be 2b 90 37 3e 28 e0 24 be de 1a ab bf
       -0.2192688 0.1792609 -0.16101134 -1.3367574
0002f0 ae 9d 18 bf 22 b5 d1 3d 73 cf 82 3f 08 63 87 be
       -0.596156 0.102396265 1.0219558 -0.26442742

fc_1.bias f4 [64]
000000 91 b5 07 bf fe ef fc 3c ab 8e 71 be 81 cc 99 3e
       -0.53011423 0.030876156 -0.2358958 0.30038837
000010 cb 46 02 bf f3 03 67 3e e8 e5 42 3e f5 00 c3 3e
       -0.5088927 0.225601 0.19033015 0.38086668
000020 a0 ea 5d bf c8 31 0a bf 71 6c 53 be 4c fe bf 3e
       -0.86686134 -0.5398221 -0.20646836 0.374987
000030 27 d7 d5 3e d2 be 23 bc 7d be 23 bd 31 3a c7 be
       0.4176571 -0.009994226 -0.039976586 -0.38911584
000040 57 50 4d be 94 c0 be 3a 1f 39 a0 3e 10 9e 72 3e
       -0.20050178 0.0014553242 0.3129358 0.23693109
000050 37 7f ab be e4 1e ce be 63 c2 c4 3e 18 9c bc 3d
       -0.33495495 -0.40257943 0.38429555 0.0920946
000060 cd 80 ff 3e e9 b2 c5 3d 0e e0 e5 bd 22 c4 bf be
       0.49902955 0.09653265 -0.11224376 -0.37454325
000070 16 65 7d be 4a 2b 31 3e 48 d9 d0 3d 8e ff 43 bf
       -0.24745592 0.1730167 0.10197693 -0.7656182
000080 63 c1 17 3f 72 aa 5f 3e 31 64 2a 3e 9b 7f 8a be
       0.5927946 0.21842363 0.16639782 -0.2705048
000090 b0 f7 87 3e 0e 7c e6 3d f5 c3 0e bf 5a ac 31 be
       0.26556158 0.1125413 -0.55767757 -0.17350903
0000a0 90 f0 81 3e dc 8c e4 be e4 28 e9 be 32 98 c1 be
       0.25378847 -0.44638717 -0.4553901 -0.37811428
0000b0 67 09 b5 3e 7a 65 de be 40 f9 fa be 8c a7 81 3d
       0.35358736 -0.43436795 -0.49018288 0.06330785
0000c0 e2 5b 9b be 40 a1 ab be 21 6b 73 bf 86 9c 75 be
       -0.3034354 -0.3352146 -0.9508534 -0.2398549
0000d0 2e a4 bf 3e b0 12 58 bf 8a 28 a8 bf c0 ef 19 bf
       0.37429947 -0.84403515 -1.3137372 -0.60131454
0000e0 a5 d6 ed 3d 7c c2 5b be af ec 1f bf c0 c0 0a bf
       0.11613206 -0.21460909 -0.62470526 -0.54200363
0000f0 f2 20 04 3e 76 28 ff bd 41 d6 5d bd 64 bf 0a be
       0.12903193 -0.12458889 -0.054159407 -0.13549572

fc_2.weight f4 [64, 64]
000000 46 78 86 3e 43 10 2e 3e 26 42 55 be 7d cc 19 be
       0.26263636 0.16998391 -0.20826015 -0.15019412
000010 6e e9 1b 3e 20 3c 00 3e 80 48 19 be 25 b9 e2 bd
       0.15225765 0.12522936 -0.14969063 -0.1107047
000020 36 f1 ea 3e 25 a8 2a 3e 1f 06 16 be e3 13 71 bd
       0.45887154 0.16665705 -0.14650773 -0.058856856
000030 64 64 16 bc e3 1e 0e be 46 24 e7 bd 3a 46 a6 3d
       -0.009179208 -0.1387897 -0.112862155 0.081188634
000040 17 ca 0a 3e 89 52 ad bd 17 bd 1a bf 77 53 59 be
       0.13553654 -0.08463008 -0.6044478 -0.21223246
000050 53 6d a9 bc 7b 2c 3c bd 23 9f d1 bd e3 19 27 3d
       -0.020682013 -0.045940857 -0.10235431 0.040796172
000060 04 f1 aa be d5 4c b0 3d ec 05 2a 3d 91 26 13 be
       -0.33387005 0.086084045 0.041509554 -0.1437018
000070 65 98 51 3d 99 5f ff bd ba ce 0c 3e 6c 56 79 be
       0.051170725 -0.12469406 0.13750735 -0.24349374
000080 5f 17 92 be fe 9f 06 3e d0 b2 0c 3e b9 e7 61 bd
       -0.28533456 0.1314697 0.13740087 -0.05515263
000090 28 ad 21 bb 10 25 e1 3d 90 e0 33 bf 28 00 9c be
       -0.002466986 0.10993397 -0.7026453 -0.3046887
0000a0 b4 f5 11 be 2d e8 11 3e 5f c7 d3 be 3b 3e 3e 3d
       -0.14253885 0.14248724 -0.41363046 0.046446066
0000b0 20 31 6f be 36 c0 bd 3d 87 09 cc bc ad cb ad bb
       -0.23358583 0.09265177 -0.024906887 -0.005303821
0000c0 b0 03 75 bf f8 c7 3a bf 29 3c 6f 3e 5e c8 b3 bd
       -0.9570875 -0.7296138 0.23362793 -0.087784514
0000d0 69 4d 45 3d 61 6f 3e 3d 5a 2e 76 3d 4c 21 07 bf
       0.048169527 0.046492938 0.060102798 -0.5278518
0000e0 7f 61 49 bf 3c ac 18 3b 9a ec 9e bf e3 4f 04 be
       -0.7866439 0.002329602 -1.2415955 -0.129211
0000f0 0f 05 f4 3d 97 e3 2f 3d 0b 96 07 3e 65 5f 7b 3b
       0.11915027 0.042941656 0.1324083 0.003835642
000100 c5 c2 49 bc bb f2 00 3e 06 e2 f1 bc 78 f9 47 3d
       -0.012314503 0.12592594 -0.029526722 0.048821896
000110 e3 41 d2 3e 70 b1 00 bd 6b 04 d2 bd 7a 4f 15 3e
       0.41065893 -0.031419218 -0.10254749 0.14581099
000120 c9 fa 31 be 4b 02 74 3d 12 38 62 be 52 6c 01 3d
       -0.17380823 0.0595725 -0.22091702 0.031597443
000130 06 e7 80 3e e6 55 9b 3e 3a 9e 89 bc f5 33 33 3d
       0.25176257 0.30338973 -0.016799081 0.043750722
000140 af 7d 44 3e 77 93 0c be 54 55 85 be 67 de a1 3c
       0.1918857 -0.13728128 -0.26041663 0.01975937
000150 e9 86 6e bd af 2f b3 be 0c bd c0 bd 03 5b 29 be
       -0.05823413 -0.34997317 -0.09411058 -0.16538624
000160 16 b8 e8 3d 99 f6 9b 3e 2b c7 62 3d fe 9b 8b be
       0.113632366 0.30461577 0.055365723 -0.2726745
000170 73 db c2 bf 81 61 e9 3d 4e 29 3c bd ec c2 4e be
       -1.522322 0.113955505 -0.04593783 -0.20191544
000180 2c c7 cf bc 06 cf 2b 3e 99 d4 24 be 3c 93 bb bd
       -0.025363527 0.16778192 -0.16096725 -0.09158942
000190 d1 08 aa bd 66 8a 52 3e 96 73 1b be 78 59 13 be
       -0.08302463 0.20560607 -0.15180811 -0.14389598
0001a0 7f 7f ed bd a3 40 09 be 86 3e a2 bf 10 9e ae be
       -0.115965836 -0.13403563 -1.2675331 -0.34104967
0001b0 8c 77 e6 3d 56 36 e1 bd 30 9c 9e 3e 53 39 2c be
       0.112532705 -0.10996692 0.30978537 -0.16818742
0001c0 07 d3 98 bd cf be 96 3e 06 f9 94 3e 68 17 49 3e
       -0.07462125 0.2944245 0.2909624 0.19637835
0001d0 ec 1e 0b be b3 ea f3 be 16 29 94 bd 89 c8 78 3e
       -0.13586015 -0.4764 -0.07234399 0.24295248
0001e0 d2 c6 4e bc 33 87 7c 3e 44 9c 7b 3d 0e b6 76 3b
       -0.012620645 0.2466095 0.061428323 0.0037645134
0001f0 e9 b6 9b be 3d 67 c3 3e 28 4c 04 be 2f 8c 10 be
       -0.30412987 0.38164702 -0.12919676 -0.14115976
000200 a6 c7 4b 3e 17 51 3f bd 87 82 eb 3d eb 93 2b 3e
       0.19900379 -0.046708193 0.114995055 0.16755645
000210 8d a7 16 3e 07 36 ca 3d 62 32 7c 3e 0a 41 d3 be
       0.14712353 0.09873586 0.24628595 -0.41260558
000220 56 c3 dc 3d 05 34 c9 be 1a 53 38 3e 3b 09 8a bb
       0.10779445 -0.392975 0.1800045 -0.004212526
000230 23 21 9f be 97 63 25 be b6 3a 82 3c fa 33 62 3e
       -0.3107997 -0.16151272 0.015897136 0.2209014
000240 f9 89 ea bc 8d 23 37 3e 2d 43 4a be 34 e1 de bc
       -0.028630244 0.17884655 -0.19752188 -0.027206995
000250 e5 2d 11 c0 b5 3a ad bd bb 4a 9a 3d f4 c3 35 be
       -2.2684262 -0.08458463 0.07533785 -0.17750531
000260 94 12 0e bf 55 94 99 be 9a 12 4a bc d8 2a ca be
       -0.554971 -0.2999598 -0.0123335365 -0.39485812
000270 15 6c 29 3e 5e 64 38 be f4 69 3a 3e ba 01 ff 3d
       0.16545136 -0.18007037 0.1820448 0.12451501
000280 a1 d8 4a be c1 ef 4f bd 5a c8 e3 bd 8d 6d 50 be
       -0.198092 -0.050765757 -0.111221984 -0.2035429
000290 b3 b4 43 be 41 25 90 bd 42 48 8e be 67 7b ae 3d
       -0.191119 -0.070383556 -0.27789503 0.08519631
0002a0 f8 2c 21 3e dd d5 64 bd 16 87 b4 3e d8 a4 04 3e
       0.1573981 -0.05586802 0.35259312 0.12953508
0002b0 a3 c6 6d be ad 3f 0e 3e fd 2e 8b bd c2 e6 c6 bd
       -0.23220305 0.13891478 -0.06796072 -0.09711982
0002c0 23 9c 88 3e c9 a6 3b 3c 58 a8 50 bd 4d 7a ba 3e
       0.26681623 0.011453339 -0.050941795 0.36421433
0002d0 21 ea 28 3e 60 78 9b be 69 ff ab bd b4 4d aa 3d
       0.16495563 -0.30365276 -0.08398325 0.08315602
0002e0 95 7d a1 bd c7 d1 ba be 64 98 ca 3e 26 62 3f 3e
       -0.07885281 -0.36488172 0.3956939 0.18689784
0002f0 0b 4a 36 3d 68 75 63 bd 24 68 02 be dc 19 a5 3e
       0.044504207 -0.05553189 -0.12735039 0.32246292
000300 86 dd 4a be 74 b0 b6 3d 3f ab 1a 3d a6 b9 1b 3e
       -0.19811067 0.089203745 0.03776097 0.15207538
000310 e2 f2 04 be f0 9b d2 bd 57 67 df 3d fa 20 a1 be
       -0.12983277 -0.10283649 0.109083824 -0.31470472
000320 9a 97 4e bd 9d 88 df be ea 43 99 3e 68 ee aa 3d
       -0.050437547 -0.43658915 0.29934627 0.08346254
000330 28 08 9c be b1 95 9e bd 08 c9 0a 3e c2 ce 9b 3d
       -0.30474973 -0.07743395 0.1355325 0.07607795
000340 db 32 99 bd 31 ac a9 3e 4d 45 78 be ad 12 bc 3d
       -0.07480403 0.33139184 -0.24245186 0.091832496
000350 ba d0 91 3d 81 54 3b bc a7 17 66 3e d1 98 c7 be
       0.071198896 -0.0114337215 0.2246996 -0.38983777
000360 aa 24 e3 be c8 da 1a 3e 0e dd fd 3c c1 93 29 bf
       -0.4436391 0.15122521 0.030989196 -0.6624108
000370 90 44 f4 3d 5d 7e 8a be cf 78 98 bd 70 db 70 be
       0.1192714 -0.27049533 -0.074449174 -0.23521209
000380 5e 7c 06 be 2b 8c 0a 3e 22 76 c4 be cb 68 db be
       -0.1313338 0.13530032 -0.38371378 -0.42853388
000390 57 ea 38 be 3a ab 33 bd 60 ea 5c be 25 31 9b 3d
       -0.18058144 -0.043864466 -0.21573782 0.07577733
0003a0 da 1c 4d 3e ac b1 89 be 9d 43 a8 3e 9c 1e 1a be
       0.20030537 -0.26893365 0.32864085 -0.15050739
0003b0 ff 43 51 be a2 67 79 bd 27 fe 8b bc c2 e1 fc bd
       -0.20436095 -0.060889848 -0.017088963 -0.123477474
0003c0 6c db 99 be cc f8 e2 3d f6 96 f2 bd 46 d9 d9 3e
       -0.30050218 0.110826105 -0.118452 0.4254858
0003d0 0d fb 24 3e 41 bf 1d bf d6 8c 17 bf 82 a1 5f 3e
       0.16111393 -0.61619955 -0.59199274 0.21838954
0003e0 27 12 fa bd db 25 f8 be bf ab eb be 31 95 84 3e
       -0.122104935 -0.4846638 -0.4602947 0.25895074
0003f0 4b 5c ef 3c da 29 f3 bd 52 79 a7 3c 9c c8 a8 3e
       0.029218813 -0.11873217 0.020443592 0.32965553

fc_2.bias f4 [64]
000000 4a 1b a2 3d 85 79 33 3e 4b df 6e be 93 e3 39 3d
       0.07915361 0.17526825 -0.23327367 0.045383047
000010 6d 67 8e 3d 1a bf 20 be 96 9d 2f be 5c d4 4f 3c
       0.06953321 -0.156979 -0.17149958 0.012684908
000020 6e a1 b1 bd 0d 28 99 3d ba 8f bb 3e bc da 98 bd
       -0.086733684 0.07478342 0.36633092 -0.07463595
000030 b0 9b 96 3e 60 df cd 3d d5 6b dc 3d bd ea a5 be
       0.29415655 0.10052371 0.10762755 -0.32405654
000040 4b 8c 22 bc 5e a5 5f 3e 44 59 1c 3e bc 22 b5 bd
       -0.009921144 0.21840426 0.15268427 -0.08844516
000050 39 78 f4 bd 8d fe 13 3d 0c 15 61 3e 1c 2a 13 3d
       -0.11936993 0.03613143 0.21980685 0.03592883
000060 72 da fd 3d 09 3b 3c 3e 22 9f a6 3d 66 ca 3e 3e
       0.12395181 0.18381895 0.08135821 0.18631896
000070 bc ef 8a bd 29 20 9f 3d b8 75 29 bd 60 6c 32 be
       -0.06784007 0.07769806 -0.04137203 -0.17424154
000080 48 d6 0c bc ce 94 8d be b8 0c b4 bd 9c 4c 38 be
       -0.0085960105 -0.2765259 -0.087914884 -0.17997974
000090 74 54 31 3e 9d 42 11 be 02 8f 11 be c3 05 df 3d
       0.17317373 -0.14185567 -0.1421471 0.10889771
0000a0 c7 ab ba bd 20 c3 2f bc 29 96 1a 3e 7a 7c e6 3d
       -0.09114795 -0.010727674 0.15096344 0.11254211
0000b0 6b 05 97 3e 9b 00 c8 bd 08 ce 0b 3c 9c d7 23 be
       0.2949632 -0.097657405 0.008533008 -0.16000217
0000c0 09 af 94 3d cb 79 4c bc 6e 57 fa bd 7d 6d cf 3b
       0.07259948 -0.01248021 -0.12223707 0.0063301907
0000d0 1b 4c 80 be 08 40 27 be cd fe fc 3d 55 b2 15 3e
       -0.25058064 -0.1633302 0.12353287 0.1461881
0000e0 d0 c6 b2 bd c8 e5 dc 3b d3 09 cc 3d d8 4c 36 bd
       -0.08729327 0.0067412592 0.09962811 -0.044506878
0000f0 f3 00 b2 bc 35 14 99 3d 5f bb 45 3e c4 60 30 be
       -0.021728968 0.07474557 0.19309758 -0.17224413

fc_mu.weight f4 [1, 64]
000000 58 45 c7 3d 76 e3 d9 bd 42 c9 33 3e d1 54 f1 3d
       0.09730023 -0.10639088 0.17557243 0.117837556
000010 9b 27 da bd 26 50 61 bf 10 5a 33 3e f4 83 3e 3d
       -0.106520854 -0.8801292 0.17514825 0.04651256
000020 f5 0b 33 bb cd f4 41 bb 82 34 4c be 42 7c c1 bf
       -0.002732036 -0.0029595376 -0.19941905 -1.5116045
000030 9c e6 04 3d 38 75 16 be 22 f4 20 40 7a 8b bb be
       0.03244649 -0.14693153 2.5149007 -0.3662985
000040 90 2e 0e 3f dc 69 e2 be 79 cb ed 3e 25 ed e6 be
       0.555398 -0.4422139 0.464443 -0.45102802
000050 19 1c 57 3e 1b 62 04 3f 62 ce 0c 3e e5 0f 7d 3f
       0.21006812 0.517122 0.13750604 0.9885238
000060 53 75 fe 3d 4b 5b 77 3e be 8e 24 3f 99 1c 25 bb
       0.124247216 0.24155919 0.6428031 -0.0025194047
000070 d9 54 54 3e 95 60 a4 3f 31 df 6a bf 78 25 4d bb
       0.20735492 1.2841974 -0.91746813 -0.003130285
000080 fb d1 be bd d7 da a1 be 0b a4 a6 3f 48 81 5b bc
       -0.09317394 -0.31612274 1.3018812 -0.013397522
000090 2a 00 a0 3d ae 99 11 bd b3 51 3f bb ff da 85 3f
       0.07812531 -0.03554695 -0.0029192984 1.0457457
0000a0 a9 56 8b bb a0 2c fd 3c 94 fd c5 bf b0 a2 57 bd
       -0.004252274 0.030905068 -1.5468011 -0.052645385
0000b0 01 61 50 bd 44 78 6e bf 54 c5 85 3f 03 09 13 bf
       -0.05087376 -0.9315226 1.0450845 -0.57435626
0000c0 98 7f 9d 3d 51 c0 dd bb 2f 91 47 bc 64 28 d0 3d
       0.07690352 -0.0067673107 -0.012180611 0.10163954
0000d0 ba a8 97 3f 72 ca 13 bb 35 53 26 3e 98 36 2b 3d
       1.1848366 -0.0022551087 0.16242678 0.04180011
0000e0 43 dc 94 bf 27 a8 11 3f 0c 7e 12 3f 70 c9 60 3f
       -1.1629719 0.56897205 0.5722358 0.8780737
0000f0 5a fb 0e bb 28 f8 80 be 00 ec bc 3f 53 df 46 be
       -0.0021817298 -0.25189328 1.4759521 -0.19421129

fc_std.weight f4 [1, 64]
000000 c5 71 e4 be 82 31 a9 bd 9f 09 1e be 7e 3e e8 3e
       -0.4461805 -0.08261396 -0.15433358 0.45360178
000010 4c e7 1f bd e3 c4 36 3e 83 4b 0b bf 5a 0d 0e bf
       -0.03903894 0.17848544 -0.54412097 -0.5548912
000020 1c f3 c2 3b 0a 34 d3 be 09 e9 41 be a5 03 57 3f
       0.005949391 -0.4125064 -0.18936552 0.83989936
000030 f4 26 f8 be 1a f4 d7 3e 47 1f cb 3f 13 c6 98 3e
       -0.4846722 0.42178422 1.586892 0.2983862
000040 76 0c 0b be 12 da e4 bb 8c d9 00 bc 49 c0 07 bd
       -0.13578972 -0.006984004 -0.007864367 -0.03314236
000050 ad ea 5a 3d 23 83 75 3f 82 7b 88 bf 5f e5 76 3f
       0.05344646 0.95903224 -1.0662692 0.9644374
000060 4b 45 93 bd 65 c8 d6 be 15 7f 0c bf 6c e5 d7 be
       -0.07190951 -0.41949764 -0.5488141 -0.42167222
000070 11 b5 04 3f 10 59 3b 3f 68 a2 f7 3e 85 00 89 3e
       0.51838785 0.73182774 0.48366094 0.2675821
000080 0e f0 e2 bd f5 db 4e 3e 33 66 53 bd ac 06 77 3e
       -0.11080943 0.20201094 -0.051611137 0.24123639
000090 ce 7b 02 bf 07 84 b6 3c fd fb b9 3d 18 38 ee 3e
       -0.5097016 0.022279752 0.09081266 0.4652717
0000a0 bd 3a 03 3e 75 8d 7d bf e2 1f 11 3f 75 af 3d bf
       0.12815376 -0.9904397 0.56689274 -0.7409585
0000b0 12 2b ea be 86 ab dc 3e d9 5b d1 3d c2 bf 04 3f
       -0.45735985 0.43099612 0.10222597 0.518551
0000c0 6c d1 67 be 8c 3e b7 3d 44 10 2b bd 2b d2 dc 3e
       -0.22638482 0.08947477 -0.04176356 0.43129095
0000d0 81 d4 17 be 77 18 bc bc 2a ef ba 3d d7 e5 40 bf
       -0.14827158 -0.022960884 0.09127648 -0.7535071
0000e0 94 79 45 3f 2b 89 2d 3e f2 dc 2d 3f 95 01 a3 bd
       0.7713864 0.16946857 0.6791526 -0.07959286
0000f0 1c fd e4 bd e9 db 10 3f 44 d4 cf 3e 68 a0 1b 3e
       -0.11181089 0.56585556 0.40591633 0.15197909
