Pendulum_SAC/saved_model/0404/sac_actor_EP70.pt (torch, 20559 bytes, 6 tensors)

fc_1.weight f4 [64, 3]
000000 80 23 12 3f 9c 78 a7 bd 49 cb e8 be 11 8d b6 bd
       0.5708542 -0.08177301 -0.45467594 -0.08913625
000010 f8 2a 30 bf 7f cd f8 be fa 01 42 bf a6 56 8b 3e
       -0.68815565 -0.4859428 -0.75784266 0.27214545
000020 6d 4e db 3e d3 f3 a7 be 3f a4 11 3f 99 d3 de 3c
       0.42833272 -0.3280321 0.56891245 0.027200507
000030 fc e7 79 3e 98 61 5f bf 82 d6 c5 3e b8 71 89 3e
       0.24404901 -0.8725829 0.3864022 0.26844573
000040 af 64 91 bf f1 7c 01 bf fc 54 3d be 07 4e 0e 3f
       -1.1358851 -0.5058127 -0.1848945 0.5558781
000050 fd cb d9 bc cd b2 7d be f4 42 a4 bf ad 95 b2 be
       -0.026586527 -0.24775238 -1.2832932 -0.3487982
000060 86 db 47 3f 61 e8 51 3d 5c 1f c0 be 71 44 36 3f
       0.7806934 0.051247004 -0.37523925 0.71198183
000070 92 89 97 bf d6 f0 08 bf a7 fb c4 3e 02 f8 7d 3f
       -1.1838858 -0.53492486 0.38473246 0.99206555
000080 23 a1 60 be 35 4d f2 bd a2 59 1b 3f f7 18 fd bc
       -0.21936469 -0.11831132 0.60683644 -0.030895693
000090 b8 28 90 be b3 5c 60 bf 1a 0a f9 bd 31 5b 1f 3e
       -0.28156066 -0.8764145 -0.1216013 0.1556213
0000a0 5d 7a 53 bd 15 72 f5 3d 12 04 97 3d 2b 6c 73 3f
       -0.051630367 0.1198465 0.07373823 0.95086926
0000b0 fd e9 17 3f ae 4c 13 3e 89 70 8f bd 93 87 2d bf
       0.5934141 0.1438472 -0.07003886 -0.67784995
0000c0 3c 44 39 3e 63 f3 67 bf 1a 62 10 bc e4 cc 0f 3f
       0.18092436 -0.90605754 -0.008812452 0.56172013
0000d0 b8 07 dd 3f 9d c6 af 3d f1 8f 51 bf 03 78 43 3c
       1.726798 0.08582804 -0.8186026 0.0119304685
0000e0 7e 42 e8 bd 38 a2 d4 bd a9 2e 9f 3f e4 56 60 3e
       -0.113408074 -0.10382503 1.2436115 0.21908146
0000f0 bd 7f 2a be 82 22 ce bf 59 32 a0 be f9 55 87 be
       -0.16650291 -1.6104281 -0.31288412 -0.2643278
000100 89 06 cc bd f1 fe d2 be e3 c4 85 be 21 d9 7e 3f
       -0.09962184 -0.4121013 -0.26126775 0.9955006
000110 9a 48 33 3e 48 23 c3 3e 77 13 4c bf af 77 bd be
       0.17508164 0.38112855 -0.797172 -0.37005374
000120 2a 3a fb be 59 56 36 bf a3 7c 03 be 86 5d 1a 3f
       -0.49067813 -0.71225506 -0.12840514 0.60298955
000130 7f 35 43 be be dd 85 bd 80 34 8c 3f 6a 2e 58 3f
       -0.19063376 -0.065364346 1.0953522 0.8444582
000140 96 7d 4e 3d e4 57 12 bf c6 83 aa bf 5c 49 c9 be
       0.050412737 -0.5716536 -1.3321464 -0.3931378
000150 1f 78 c6 be 97 9a 79 3f 90 39 07 3f 85 1c 4b be
       -0.3876352 0.9750151 0.5282221 -0.19835098
000160 eb 63 65 bf f2 5a 83 be c0 9d a0 3d ca df 63 bf
       -0.8960559 -0.25655323 0.078425884 -0.8901335
000170 21 af d4 be 0d 38 f9 be 1b ca 06 be 36 99 43 3e
       -0.41539863 -0.48675576 -0.13163035 0.19101414
000180 52 c7 42 bf 7c 02 7f 3d 66 5b 56 bd 3a 22 10 3f
       -0.7608539 0.06225823 -0.052333258 0.56302226
000190 e1 c0 44 bd b9 b4 e3 bd 78 67 54 3e 52 64 56 bf
       -0.048035506 -0.111184545 0.20742595 -0.83746827
0001a0 b8 fc 83 be 85 f7 2c 3f aa 69 98 bf 3b a4 d2 be
       -0.25778747 0.67565185 -1.1907246 -0.41140923
0001b0 38 54 29 be 40 ff 2d bf 73 02 c3 be cd cf e9 3d
       -0.16536033 -0.67967606 -0.38087806 0.11416588
0001c0 0d 11 b0 bf a1 a8 46 bd b4 07 01 bf de 88 bc bd
       -1.3755203 -0.04850066 -0.5040238 -0.09205793
0001d0 b7 ca 8b be ad 60 4c bf f0 a2 d4 3e 0b 05 a2 3e
       -0.27303097 -0.79835016 0.4153056 0.31644472
0001e0 ad 12 82 be b0 58 34 3f c1 e1 bb 3d 25 8f 1b 3f
       -0.25404873 0.70447826 0.091739185 0.60765296
0001f0 f8 4e 01 bf a8 51 9d be e1 6d 7e be b2 42 d0 3f
       -0.5051112 -0.3072636 -0.24846603 1.6270354
000200 86 58 43 3e 33 ea 21 be 87 7a 61 3f b1 89 89 be
       0.19076738 -0.15811996 0.88077587 -0.26862863
000210 ed 22 ce be b0 45 90 be 88 d4 a3 bc ba a2 2b 3f
       -0.4026102 -0.28178167 -0.019998804 0.67045176
000220 1e 9b 47 3e 84 81 fd be ae f7 66 3f d3 33 16 bf
       0.19492766 -0.49512875 0.9022168 -0.5867283
000230 09 37 f9 3e 07 a7 ca 3d 09 f1 db bd 31 58 e2 be
       0.486748 0.09895139 -0.10739333 -0.4420791
000240 28 57 12 bf 9a 05 27 bd 99 6a 76 be 5b 7f a7 3e
       -0.5716424 -0.040776826 -0.24064101 0.32714352
000250 d1 d6 a9 3f 4f 50 cf 3e e0 21 3d 3f 2c 81 b8 3c
       1.3268682 0.40490958 0.73879814 0.022522531
000260 a0 09 c1 3e 8a 69 17 3e f2 fc 7a 3d 5f 17 06 bf
       0.37702656 0.14786354 0.061276384 -0.5237941
000270 72 d2 1e be 40 4d 32 3f eb 5c 2d bd 80 46 ca 3e
       -0.15509966 0.69649124 -0.04232494 0.39506912
000280 9d ec b1 be 69 d2 9a be 48 14 86 3e e1 1f 45 3d
       -0.34750834 -0.30238655 0.26187348 0.048126105
000290 a6 77 af be ea d6 1c 3f 0d 29 8d 3f fc b3 f1 3e
       -0.34270972 0.6126543 1.1028153 0.4720763
0002a0 45 a1 57 bf ad 2f 50 3e 25 13 5f bd 82 75 2f bf
       -0.8423045 0.20330687 -0.054461617 -0.6853868
0002b0 a8 cd d1 3e f3 db 17 3d 72 d3 1a bf e8 7f 5e be
       0.40977216 0.037074994 -0.6047889 -0.2172848
0002c0 4d fa 70 be 72 ad 15 3e 56 61 d0 3e 99 3c 46 bf
       -0.23532982 0.14616945 0.4069926 -0.77436215
0002d0 d2 b4 3e 3d 6a e6 6b bf 42 b5 0d bf 69 13 79 3e
       0.046559162 -0.9214846 -0.553547 0.2432381
0002e0 02 2a 09 bf d0 54 77 3e 86 43 46 bd 91 4b 90 bf
       -0.53579724 0.24153447 -0.04840424 -1.1273061
0002f0 e9 75 1f bf 9b ef 98 3e 13 50 48 3f 96 83 8e be
       -0.6228929 0.29870304 0.78247184 -0.27834767

fc_1.bias f4 [64]
000000 8a 3b ef be d4 9e e6 3c 65 2e c8 bd c3 db a0 3e
       -0.46725112 0.028151907 -0.09774474 0.31417665
000010 42 dd d3 be ec ab 92 3e ac ff 9f 3e 44 8e 87 3e
       -0.41379744 0.2864679 0.3124975 0.26475728
000020 ce e7 3e bf b7 fe 02 bf c6 3e bc bd ac ab 21 3f
       -0.74572456 -0.51169914 -0.091916606 0.63152575
000030 22 77 bc 3e 5d 6d 1e 3e 92 7a 0a bc 4a 0d c7 be
       0.3680964 0.15471406 -0.008452075 -0.38877326
000040 70 40 ab 3d 61 bf ad 3c 11 5a a2 3e 3e c4 b0 3e
       0.083619 0.02120942 0.3170934 0.3452472
000050 cf d6 ed be 92 90 8f be 91 c3 ca 3e 2a 7f 1b 3e
       -0.46452948 -0.28039986 0.3960233 0.15185228
000060 37 20 84 3e 93 8b e6 3e 5f 3c fc 3c e2 f5 c5 be
       0.25805828 0.45028362 0.030790506 -0.38664156
000070 4a f9 3e be 48 8a 44 3e 09 f1 c2 3d 99 d0 2c bf
       -0.18649784 0.19193375 0.0951863 -0.67505795
000080 22 1e f5 3e 92 0a dc 3e be 69 91 3e 6c a5 7b be
       0.47874552 0.42976815 0.28400987 -0.24574822
000090 1f f6 d5 3e 7f 6e 82 3e a9 4e 02 bf 34 21 60 be
       0.41789338 0.25474927 -0.50901276 -0.21887666
0000a0 76 6f 75 3e 69 2b bd be 57 9c 19 bf 1e 08 f1 be
       0.239683 -0.36947182 -0.6000418 -0.47076505
0000b0 c1 8d ed 3e b0 05 a7 be fd 05 d8 be cc 66 ef 3d
       0.46397212 -0.32621527 -0.4219207 0.11689529
0000c0 fc ec 98 be c5 eb 8b be 78 f6 4f bf f0 d9 83 be
       -0.29868305 -0.27328315 -0.81235456 -0.2575221
0000d0 51 18 15 3f b5 48 43 bf ff cc 8a bf bc ca 1a bf
       0.5824023 -0.7628282 -1.084381 -0.604656
0000e0 b1 db 01 3e 7f bf 9d be cd 9d ed be 9a 1b bb be
       0.12681462 -0.30810162 -0.46409455 -0.36544496
0000f0 84 17 0a 3e 6e f0 69 3e dd 10 5c bc 34 fd 62 bc
       0.13485533 0.22845623 -0.013431755 -0.013854314

fc_2.weight f4 [64, 64]
000000 fe 7a e2 3d bb 80 fe 3d 49 34 d9 3d 6b 6e 5c 3d
       0.11058615 0.12426897 0.10605676 0.05381624
000010 77 7e a8 3d f1 0e 4b 3d 59 27 9e 3b ba 07 ee bd
       0.08227246 0.049574796 0.004826468 -0.116225675
000020 5d 8e 69 3e db 59 90 bd b5 aa 01 be fb cd bf 3d
       0.22808214 -0.070483886 -0.12662776 0.093654595
000030 99 eb 13 bd 02 7d 64 bc 9f 59 96 3d cb d1 00 3d
       -0.036113355 -0.01394582 0.073413126 0.031450074
000040 e1 6e 0a 3e fb e8 af 3d 09 1a 18 be 7d 47 6c 3d
       0.1351886 0.085893594 -0.14853682 0.057685364
000050 51 35 7d be f2 b1 9b 3d 30 94 e7 3d 00 3c de bc
       -0.2472737 0.076023 0.113075614 -0.02712822
000060 db d0 f0 bd c1 27 e9 3d f7 b5 8c 3d 86 03 de be
       -0.11758586 0.113845356 0.068706445 -0.43362063
000070 af 36 b1 3d 21 06 03 be 1a 49 d6 bc 8a 8d 3d be
       0.08653008 -0.12795307 -0.026157904 -0.18511024
000080 1b 79 b0 3d d8 0d 26 3e c5 de 80 3d 8d 9d 61 be
       0.08616849 0.16216218 0.0629249 -0.22032757
000090 17 44 00 be a9 a0 be 3d 9a c4 4f be 4d 9c 39 bc
       -0.12525974 0.09307987 -0.20289841 -0.011328769
0000a0 f6 fa 54 3d ff 5f 40 bd ae 2d b8 be 46 bd 75 3e
       0.051997148 -0.04696655 -0.3597235 0.23997983
0000b0 e7 b9 0f bd 7a 3a 79 3d 9a 90 1c bd ae c9 79 bd
       -0.0350894 0.060846783 -0.03822384 -0.060983352
0000c0 36 e7 03 be 2b 99 27 be 50 90 3e 3d ae c4 f1 bd
       -0.12881169 -0.16367023 0.046524346 -0.11805092
0000d0 6e 33 04 3e 0a 44 9d bd 6d 0e 4e 3d 67 a9 b5 be
       0.12910244 -0.07678993 0.050306726 -0.35480806
0000e0 21 82 57 bb 58 0e e2 3d 4b f7 8a be 02 88 19 be
       -0.003288396 0.11037892 -0.27141795 -0.14993289
0000f0 cf 72 9e bc 70 b4 13 3e 2f 63 bf 3d 55 e2 7c 3d
       -0.019341854 0.144243 0.0934509 0.061739285
000100 8e f0 f2 bd 2a 01 8c 3d 9a 16 4a be f1 cc 64 3e
       -0.118622884 0.068361595 -0.19735184 0.22343804
000110 f4 0a 6f 3e 68 9a 52 3c d6 33 93 3d 1a fb ce 3d
       0.23344022 0.012854196 0.07187621 0.101064876
000120 b7 70 91 be 73 bb 45 3d 25 4f a6 bd c8 71 0c 3e
       -0.28406307 0.04827447 -0.08120564 0.13715279
000130 34 e7 1f 3e bf a4 b4 3e 60 7a 00 be f3 2f 12 38
       0.1561554 0.3528194 -0.12546682 3.485377e-05
000140 64 f8 5c 3d da ad a4 bd 71 c8 af bd 54 81 43 3d
       0.05394782 -0.08040972 -0.08583153 0.04773076
000150 87 f8 ce bc 7d 09 e2 bd 2d 0e 1d bc 2f 01 11 be
       -0.025264991 -0.11036966 -0.009585899 -0.14160608
000160 0a 15 00 3d 8c 85 aa 3e 23 bc f2 3d 9b 81 d6 bd
       0.031270064 0.33305013 0.118522905 -0.10473939
000170 0b 86 d9 bf 34 b6 92 3d 7e 32 19 3e 53 4b 55 be
       -1.6994032 0.07163659 0.14960667 -0.20829515
000180 7b 8c de 3c fa 69 6e 3e b0 f0 21 be 4d 5e a1 bd
       0.027166596 0.23282614 -0.15814471 -0.078793146
000190 e9 f1 b8 bc fe ba bd 3d e8 57 b2 bd 5f 83 6d be
       -0.02257629 0.092641816 -0.08708173 -0.23194645
0001a0 fb ba 32 3d a5 2d 46 be d9 94 5c bf 49 1f ba be
       0.04363535 -0.1935335 -0.86164623 -0.36351994
0001b0 49 55 08 3d e1 cb 0c be 32 16 55 3e 49 15 3a be
       0.03328446 -0.13749649 0.20809248 -0.18172182
0001c0 11 e7 a5 bc 9b 69 74 3e 2d b2 8f 3e 38 76 1c 3e
       -0.020251783 0.2386841 0.28065625 0.15279472
0001d0 89 3e b2 bd 95 5b 6f be 1f 60 e2 3c c1 1d 80 3e
       -0.08703334 -0.2337478 0.027633725 0.250227
0001e0 9e 6a 90 3d 3b b0 0a 3e 87 a8 74 3b f8 1f dc bd
       0.070515856 0.13543789 0.0037331895 -0.10748285
0001f0 54 d2 17 be fd a6 87 3e 33 35 6b 3b da 13 d8 bd
       -0.14826328 0.2649459 0.0035889864 -0.105506614
000200 93 19 42 3e 70 4d 8e bd 05 8c fd 3c 0c a9 ba 3d
       0.18955068 -0.06948364 0.030950556 0.091142744
000210 8f e6 d3 3d 96 a6 26 3e c6 a4 36 3e 23 43 d1 be
       0.1034671 0.16274485 0.17836294 -0.40871534
000220 7a 1a d5 3d e7 61 ac be e9 ed bd 3d 6b 4d 95 3c
       0.10405441 -0.33668444 0.092738934 0.018225392
000230 c9 30 87 be 90 8d 29 3d b7 30 7d bc 90 2a 33 3e
       -0.26404408 0.04139477 -0.015453509 0.17496705
000240 13 a8 03 3d 13 a7 e5 3d 60 e9 af be 1d 31 b2 bd
       0.03214271 0.112135075 -0.34357738 -0.08700774
000250 53 73 ba bf a5 7b a7 bd 36 e5 a5 3c c7 51 bf bd
       -1.4566444 -0.0817788 0.020250898 -0.0934177
000260 83 c9 ce be d7 81 53 bd 36 f9 25 3e 24 f2 08 bf
       -0.40388116 -0.051637497 0.16208348 -0.5349448
000270 b9 eb e4 3d eb ac 42 be 42 e7 41 3e d7 ae 3c 3d
       0.11177773 -0.19011275 0.18935874 0.046065178
000280 59 76 97 be 7c 8c 4d 3d 6a 6b cf bc 64 73 f5 bd
       -0.2958248 0.050182804 -0.025319774 -0.119849
000290 2b c7 18 be 1c e7 1d bd 91 7a 51 be 24 85 13 bb
       -0.14919727 -0.03855048 -0.20456912 -0.0022509778
0002a0 a4 c3 a9 3d b3 bc 59 3c 97 d3 73 3e c2 3d a8 3d
       0.082892686 0.013289618 0.23811184 0.08214904
0002b0 45 33 04 be 2f 45 0c 3e df 32 6c bd 2f 2d af bd
       -0.12910183 0.13698266 -0.057665702 -0.0855354
0002c0 a1 24 a5 3e 93 9e 38 bd a9 38 b1 bd 93 64 a6 3e
       0.32254508 -0.045073103 -0.08653385 0.32498607
0002d0 52 1e c0 3d 76 a7 8d be e3 7f c0 bd 46 54 46 3d
       0.09380783 -0.27666825 -0.093993925 0.048420213
0002e0 bc 9b 5e be 3c d7 b1 be dc fe 74 3e 2d a0 15 3e
       -0.21739095 -0.34734523 0.23925346 0.14611883
0002f0 1d d7 71 3d cd e5 87 bc a9 49 21 be 45 7e 8c 3e
       0.05904304 -0.01658907 -0.15750755 0.27440086
000300 8f bf 5f be 91 45 96 3d e7 95 b5 3c 34 49 12 3e
       -0.21850418 0.073374875 0.022166206 0.14285737
000310 18 9c e9 bd 5a 03 a2 bd ed 87 a3 3c 84 fb 56 be
       -0.11406726 -0.079107955 0.019962275 -0.20994383
000320 59 5b 09 bd 65 a1 ae be bd 49 07 3e 98 68 a2 3d
       -0.03353438 -0.3410751 0.13211723 0.07930106
000330 f1 b2 27 be 9d 13 3c be b7 d9 07 3e 00 a1 5c 3c
       -0.16376854 -0.18366857 0.13266645 0.01346612
000340 16 78 10 be 6e de e8 3d 08 91 19 be 2a f0 19 3d
       -0.14108309 0.1137055 -0.14996731 0.037582554
000350 a9 60 34 3c 03 0f 3e 3c 06 1c 41 3e 55 9a c0 be
       0.011009374 0.011600259 0.18858346 -0.37617746
000360 40 ff 6f bd b3 5a 8f 3c 1a 07 72 3d b9 f3 6b be
       -0.058593035 0.017499303 0.059088804 -0.23042192
000370 72 38 e9 3d 26 97 2c be 10 89 24 bd a0 0c 66 be
       0.11387719 -0.16854534 -0.040169775 -0.22465754
000380 b9 45 75 bd 02 7e 9e 3d d2 55 a6 be bf 17 bd be
       -0.059880946 0.07738878 -0.3248735 -0.3693218
000390 1c b2 10 be df c8 75 be 0e 8d 89 bc d2 15 86 3d
       -0.14130443 -0.24002407 -0.016790893 0.06547131
0003a0 61 d1 60 3e 8b 40 25 be d7 f0 87 3e fc 70 3f be
       0.21954872 -0.16137902 0.26550934 -0.18695444
0003b0 e2 6b 98 3b 94 6f f7 bd 95 99 ab bc e5 cd 00 be
       0.0046515325 -0.12081829 -0.020947257 -0.12578543
0003c0 b5 66 1b 3e 28 28 8b 3d 60 ca e4 bd 8d 18 ba 3e
       0.15175898 0.067947686 -0.111714125 0.36346856
0003d0 fc 04 95 3d ed b8 a9 be b6 31 62 be c1 b4 43 3e
       0.07276341 -0.331489 -0.22089276 0.19111921
0003e0 0e fd 97 bd 02 a4 d9 be 7d 36 d2 3d 27 98 4e 3e
       -0.07421313 -0.4250794 0.10264299 0.20175229
0003f0 6a a8 5f 3d 8c 3f a0 bd 0a 25 dd 3c 8f b1 4d 3e
       0.05460397 -0.078246206 0.0269952 0.20087264

fc_2.bias f4 [64]
000000 1e f5 27 3e 25 d5 48 3e da 92 d3 bd 05 16 5d 3d
       0.16402099 0.19612558 -0.10330744 0.053976078
000010 21 e1 3b bc c6 1d f0 3c a6 59 c6 bd 15 57 67 3c
       -0.011467249 0.029311072 -0.09685068 0.014119883
000020 1f 8c a8 bd 1a 13 f4 3d d5 2b 7c 3e 83 6f 63 bd
       -0.08229851 0.11917706 0.24626096 -0.055526268
000030 ab 70 56 3e 25 3d f2 3d 4e 0d 37 3e 4b a7 b9 be
       0.20941417 0.11828069 0.17876169 -0.36260447
000040 33 db 99 bb a3 10 72 3e 4f 00 ca 3d 3b fd e3 bb
       -0.00469532 0.23639159 0.0986334 -0.0069576777
000050 56 16 8d bd 5a ee 54 3c 2d fb 7d 3e 23 58 fd 3c
       -0.06889026 0.012996281 0.24802847 0.030925816
000060 bc bc 11 3e c6 9f 5a 3e e2 18 15 3d 1a 12 78 3e
       0.14232153 0.21350011 0.036400683 0.24225655
000070 4e 99 9a bd 52 c5 d5 3d dd e6 2d be cb 04 03 be
       -0.07548772 0.104380265 -0.16982599 -0.12794797
000080 7e 49 d3 bc 08 e9 11 be 2a 8e 57 bd 7c 9f 0d be
       -0.02579188 -0.1424905 -0.052625813 -0.1383037
000090 aa 1e 72 3e 65 05 f3 bc b5 67 cc bd d7 8d f1 3d
       0.2364451 -0.029665658 -0.09980718 0.11794632
0000a0 14 1e c3 bc cc f6 9a bd ea 15 13 bc e9 a8 d5 3d
       -0.023818053 -0.07566604 -0.008977393 0.10432608
0000b0 f3 84 92 3e 18 4c a5 bd ad a3 d9 3c 68 1d 9b bc
       0.28617057 -0.08071154 0.026567305 -0.01893492
0000c0 37 99 06 3e 52 5b f1 3c 80 07 60 bd 4d 2d 07 bd
       0.13144384 0.02946249 -0.054694653 -0.033002187
0000d0 6b 41 35 be 7d 57 12 be d5 dc 2b 3e c5 b7 1e 3e
       -0.17700736 -0.14291187 0.1678346 0.1549979
0000e0 10 75 32 bd b1 04 04 3e 77 cd a5 3d 2a 9f c0 bc
       -0.04356867 0.12892415 0.0809583 -0.023513395
0000f0 91 5f 07 3b 04 68 12 3d db 22 37 3e 1c f2 5a bc
       0.0020656327 0.03574373 0.1788439 -0.013363387

fc_mu.weight f4 [1, 64]
000000 fb 70 b2 3b dc 84 8a be d8 f3 82 3e 58 96 a4 3d
       0.005445597 -0.2705449 0.25576663 0.08036488
000010 6b b4 59 be bc 58 78 3b a6 23 c8 3e dd 82 0b 3d
       -0.2126023 0.0037894687 0.39089698 0.034060348
000020 1e 91 00 3b 8e d5 df bd 8b b0 44 3d b2 c4 a0 bf
       0.0019617747 -0.10929404 0.048019927 -1.2560027
000030 6e bf c6 bb 97 5d 98 be be 88 d3 3f 35 dc 09 bf
       -0.0060653007 -0.29758903 1.6526105 -0.53851634
000040 dc 34 9f 3d bf ff 78 be 1f 07 5c 3e 6a 31 66 be
       0.07773754 -0.2431631 0.21487091 -0.22479787
000050 f2 5e 8b 3e a4 e8 b4 3c 5e 86 0f 3e a2 cd 88 3e
       0.27220875 0.022083588 0.14016101 0.26719385
000060 b4 60 c1 3d 38 04 9f 3e 5e 3f 7b 3f 2d e1 c1 3d
       0.09442273 0.31057906 0.98143566 0.09466777
000070 e5 26 86 3e 32 e7 8f 3f 9a cd 21 bf 9f e0 55 bb
       0.2620155 1.124243 -0.6320435 -0.0032635105
000080 06 5e 30 be 7a ac fc ba 10 f6 7b 3f f9 9f 86 3c
       -0.17223367 -0.0019277476 0.98422337 0.016433703
000090 ed 49 41 3e 77 82 d8 3a f9 2e 04 bb 34 15 6a 3f
       0.18875857 0.0016518374 -0.00201696 0.91438603
0000a0 b6 f7 1e 3b 7c 34 cb ba 24 5a e6 be e5 c7 74 bd
       0.0024256534 -0.0015503312 -0.44990647 -0.059760947
0000b0 28 bf dd bd 03 97 19 bf 42 24 6a 3f 80 f0 f4 bd
       -0.10827476 -0.5999605 0.91461575 -0.11959934
0000c0 43 58 3f 3d 26 8f 62 bc 49 3e d7 ba ec 7c 52 3d
       0.046715032 -0.013828075 -0.0016421761 0.051388666
0000d0 84 7d 51 3f 9e 26 bb ba bc 4c 48 3e 41 0b b5 3d
       0.81832147 -0.0014278477 0.19560522 0.08840037
0000e0 6a c9 5c bf 57 45 f2 3c 9d eb 2a 3f 91 e8 35 3f
       -0.86244833 0.02957408 0.6676577 0.71057993
0000f0 23 45 0d 3d 2a c7 28 bf 6c 57 ae 3f a2 4b 28 3d
       0.034489762 -0.659289 1.3620429 0.041087754

fc_std.weight f4 [1, 64]
000000 53 56 8f be 43 c3 d9 bd 46 10 07 bd 46 ce 8f 3e
       -0.27995548 -0.10632946 -0.032974504 0.28087062
000010 25 03 db 3d 6f d6 e0 bc be ad 67 be 1c 30 bd bd
       0.10693959 -0.027446 -0.22624871 -0.09237692
000020 ab e9 2f 3d 35 0d 70 be 1b fb 1b be 7a 1e 2e 3f
       0.042947453 -0.23442538 -0.15232508 0.68015254
000030 b7 48 af be 99 34 3a 3e dd ad 60 3f 8e 7d 06 3f
       -0.34235165 0.18184127 0.87765294 0.5253533
000040 2f ca 1d be 36 82 48 3d d0 62 ac bd 67 65 48 3b
       -0.15409158 0.048952304 -0.084172845 0.0030578019
000050 46 f9 07 bc 0b 72 a0 3e 0a 01 18 be 5b ae cc 3e
       -0.0082991775 0.31337008 -0.14844146 0.39976773
000060 4f fc 66 bc ee 15 0d be ff 19 a1 3e 83 4d c3 be
       -0.014098241 -0.13777897 0.31465146 -0.38145074
000070 eb 94 08 3e e8 4a 77 3f 85 3a d1 3d 19 cb 0f 3e
       0.13338058 0.9659867 0.1021624 0.1404232
000080 8c a1 c1 bc cd 62 82 3e 0c f1 46 be c1 77 21 3e
       -0.023636602 0.25466004 -0.1942789 0.15768339
000090 9d fc aa be f1 1f e6 3d 8d a9 dc 3d 79 dc 31 3f
       -0.33395854 0.11236561 0.10774527 0.6947704
0000a0 86 e9 21 3e b2 e1 18 be c6 1d be 3e 4b cd 80 be
       0.15811738 -0.14929846 0.3713209 -0.25156626
0000b0 44 9c a6 be a2 8a 5f 3e 6f b9 e8 3e 7c a0 17 be
       -0.32541096 0.21830228 0.45453975 -0.14807314
0000c0 2a dd 46 be 71 48 63 3c a8 ef cf 3d 44 0d 5c bd
       -0.19420305 0.013872252 0.10153133 -0.05372359
0000d0 bc 50 24 be a4 8d 7c 3d dc 45 7c 3d 33 60 a6 be
       -0.16046423 0.061658517 0.06159006 -0.3249527
0000e0 04 5a f2 3e 21 b0 04 be d2 46 1d 3f 22 09 99 3e
       0.473343 -0.12957813 0.6143619 0.2988978
0000f0 f9 3a 65 bd 4f c6 64 3e 56 58 25 3f 6f 1e ee 3a
       -0.055964444 0.22341274 0.64587915 0.0018167029
