Pendulum_SAC/saved_model/0404/sac_actor_EP260.pt (torch, 20559 bytes, 6 tensors)

fc_1.weight f4 [64, 3]
00000000: 1990 253f cdf1 e1be d444 f1be d238 adbd
00000010: a28c 39bf 90a3 ccbe 444e 36bf d1a8 2a3f
00000020: 729f df3e e774 cbbe b933 a03e 977e 25bd
00000030: d842 063f 51ca 2abf 433b 023f ac7f 733e
00000040: c8d7 c7bf 6e7f f0be f1e1 3bbd a472 623f
00000050: 7844 36be 9e12 c7be 9b16 9ebf 0817 afbe
00000060: 3f97 673f b6ae 16be 141c bcbe a512 433f
00000070: a2f4 9fbf 01fb 16bf d647 6d3e 1295 823f
00000080: efc2 8abe 3c75 8b3d f334 2f3f 8640 3abe
00000090: d21f 8dbe e53d 80bf 0313 55be 062c 273e
000000a0: 3aea d2bd f95b 9b3b aa1b e33c 8b9a a63f
000000b0: 4c21 1a3f c139 4a3e af61 a53c 12c1 f6be
000000c0: ebc7 833e e5e6 46bf 7199 343c d8f8 dc3e
000000d0: 51fe f03f 6ef1 b33c 7f2e 88bf 1c8e a2be
000000e0: 0ae0 67bc ebc9 a8bd e766 b23f 7fed 833e
000000f0: 8172 d8be 6200 f5bf ef5a bfbe 36b6 b1be
00000100: 1102 d7bb fc4e b7be 3f5c 9abe 3153 7f3f
00000110: dbf1 0f3e 75e6 ac3e ef3d 89bf a9ff a9be
00000120: df21 36bf 441d 6fbf c7a6 24bc 4d84 0c3f
00000130: fa6c 1fbf 93a9 523d b406 183f dee7 8a3f
00000140: 0148 fc3d ea46 f1be 6332 f6bf 043c d1be
00000150: 7be7 1cbe bb75 8c3f c201 343f f404 16be
00000160: 555b 65bf 3fa2 71be b882 893d 7499 adbf
00000170: 7227 dabe b27a 25bf c4c6 60be f421 483e
00000180: 2033 4dbf d807 e83d ce9c b2bc 176b f93e
00000190: ab41 ff3d 6c9c 11bd 4547 2c3e 821e 83bf
000001a0: 413f 9dbe af33 463f 7bfd b9bf 2f47 bcbe
000001b0: 1e92 fcbc f16a 3abf a33f 2ebf e5d5 e63d
000001c0: 812c c0bf b636 24be 6f58 08bf bfe9 f2bd
000001d0: d5b1 96be e1a6 35bf 7fdf 563f 1953 a03e
000001e0: aa78 25bf d1b4 c53e b872 53bc c5a6 2f3f
000001f0: 8cb8 47bf 4c27 99be d600 a6be 2d80 ec3f
00000200: ce87 b03e 20b6 c9be 5562 363f 42c0 aebe
00000210: 44dd 1ebf 7867 33bf bf1f a13d 07cc 1c3f
00000220: 6e6e 66be a390 0ebf 8ba8 633f f43b 4fbf
00000230: e4d9 053f 2d34 8f3d d9fe 79be 7d15 04bf
00000240: 4634 4abf 28de 43be 3a4a 27be 0d0c c43e
00000250: 57a2 ac3f 4a84 f83e 9bd1 873f fdaf d93c
00000260: e34c c33e 05a9 a03d 30f4 9f3c aa31 9ebe
00000270: 8235 0ebf 60c0 2d3f ad84 0dbe 5f4f 133f
00000280: 4138 b4be 9bee 9abe d104 bd3e fdef df39
00000290: ff43 a8be 1045 4b3f 5a95 af3f f287 d63e
000002a0: 9615 83bf 84e5 393e 4d32 81bd acab 82bf
000002b0: a166 a2bd d783 093d 4a23 8abf 5ffe 41bf
000002c0: 4c1a 26be 1023 893d e9e5 033f f864 14bf
000002d0: 6a24 543d 5458 c2bf 22a8 11bf eded 213e
000002e0: 9081 0fbe 3e97 0a3e 2593 c3bd f72e cdbf
000002f0: 9c03 04bf 9ca8 363b f76d 813f bf6f 9bbe
0.64673 -0.44129792 -0.47122824 -0.08458103 -0.72480214 -0.39968538 -0.71213174 0.66663843
0.43676335 -0.39737627 0.3128946 -0.04040393 0.52445745 -0.6671496 0.50871676 0.23779172
-1.5612726 -0.4697222 -0.04586977 0.8845618 -0.17799556 -0.3888139 -1.2350649 -0.3419726
0.9046516 -0.14715084 -0.36740172 0.76200324 -1.2496531 -0.5897675 0.23171934 1.0201743
-0.27101848 0.0680947 0.6844017 -0.18188676 -0.2756334 -1.0018889 -0.20808034 0.16325387
-0.102985814 0.0047411886 0.027723152 1.3015913 0.60207057 0.19748594 0.02018818 -0.48194176
0.25738463 -0.7769607 0.011022911 0.43158603 1.8827611 0.021965709 -1.063919 -0.31749046
-0.014152536 -0.08241638 1.3937653 0.25767133 -0.4227486 -1.9140742 -0.37374064 -0.34709328
-0.0065615256 -0.35802448 -0.30148503 0.99736315 0.14057104 0.33769575 -1.0722026 -0.33202866
-0.71145433 -0.9340403 -0.010049528 0.54889375 -0.6227566 0.05143125 0.5938523 1.085201
0.12318421 -0.47124416 -1.9234127 -0.408661 -0.15322678 1.0973428 0.7031518 -0.14650327
-0.89592487 -0.23597048 0.06714386 -1.3562455 -0.4260822 -0.64640343 -0.21950823 0.19544202
-0.80156136 0.11329621 -0.021803286 0.48714516 0.12463697 -0.035549566 0.16824062 -1.0243685
-0.3071232 0.7742261 -1.4530481 -0.3677306 -0.030831393 -0.7281943 -0.6806585 0.11271266
-1.5013582 -0.16036496 -0.5325994 -0.1186099 -0.2943255 -0.7095776 0.8393478 0.31313398
-0.64637244 0.38614514 -0.012905769 0.68613845 -0.7801597 -0.29912794 -0.32422513 1.8476616
0.3447861 -0.39396763 0.7124379 -0.34131056 -0.62056375 -0.70079756 0.07867383 0.6124882
-0.22503063 -0.5568945 0.8892905 -0.80950856 0.522856 0.069923736 -0.24413623 -0.5159529
-0.7898601 -0.19127715 -0.16336909 0.38290444 1.3487042 0.4853843 1.0610842 0.026573176
0.38144597 0.07844738 0.019525617 -0.30897266 -0.55550396 0.67871666 -0.13820143 0.57542986
-0.35199168 -0.30260167 0.36917737 0.0004271268 -0.32864377 0.79402256 1.3717453 0.41900593
-1.0240963 0.1815396 -0.06308422 -1.020864 -0.07929731 0.033572998 -1.0792019 -0.75778764
-0.16220969 0.06696141 0.5152269 -0.57966566 0.05179254 -1.5183206 -0.56897175 0.15813418
-0.14014268 0.13534257 -0.0954955 -1.6029958 -0.5156801 0.0027871495 1.0111684 -0.30358693

fc_1.bias f4 [64]
00000000: 825b e6be 70de 633c a723 e9bd 2568 f13d
00000010: 09cb 2abf 77da cb3d 3092 493e 6bea 433e
00000020: 7005 64bf 2689 26bf 3cda dbbe 8101 8f3e
00000030: 849f ab3e 820d 75be 828b 26bd 9ed4 06bf
00000040: c4f9 aabe bed1 333b 6c9f e03d abf4 3f3e
00000050: 92b3 b4be 930d b3be c16f 8f3e e775 e1bc
00000060: 7a12 e83e 06b3 15bd 5f42 50bd 178d 04bf
00000070: 4bea fdbd 6ed9 393d 610b 23bd e29d 67bf
00000080: 65f1 1f3f 3bff 413d e340 973d ccc7 8fbe
00000090: b447 733e 5538 03bd ebc8 0ebf 72d8 3dbe
000000a0: 8bae ce3e b3a6 febe 213a cbbe 1946 14bf
000000b0: 8a3a a73e 116d abbe 76c5 0cbf e376 053e
000000c0: ea35 02bf 2dee c5be 14f4 82bf 56d7 ccbe
000000d0: 8727 8b3e 1520 81bf d573 b4bf ea19 0cbf
000000e0: b929 9dbc c5f2 15be 4163 11bf 1e4e 28bf
000000f0: 8637 2f38 f78e 08be 77a2 51be dbc8 8dbd
-0.4499169 0.013908014 -0.11383753 0.11787442 -0.6671606 0.09953778 0.19684672 0.19132392
-0.89070797 -0.6505302 -0.42939937 0.27930835 0.33520138 -0.23930934 -0.04066039 -0.5266818
-0.3339368 0.0027438249 0.10967907 0.18745677 -0.3529325 -0.34971294 0.2801495 -0.02752204
0.45326596 -0.036547683 -0.050844546 -0.51777786 -0.123982035 0.045373373 -0.039805774 -0.90475285
0.62477714 0.047362547 0.07385423 -0.2808212 0.23757821 -0.032036144 -0.55775326 -0.18539599
0.4036754 -0.49736556 -0.39692786 -0.5791946 0.3266185 -0.3348165 -0.549888 0.13033633
-0.50863516 -0.38658276 -1.0230737 -0.40008038 0.27178594 -1.0087916 -1.4097849 -0.5472704
-0.019184934 -0.1464339 -0.56792074 -0.657442 4.177496e-05 -0.13335787 -0.20472132 -0.06923076

fc_2.weight f4 [64, 64]
00000000: db02 ab3e 242d 603e 885d 0cbf b18e 87be
00000010: d4cd 8b3e 0703 3b3e e1ab 88be daf8 a6bd
00000020: e1dd 063f b71f 9e3e 26bf 76be b2d9 33be
00000030: 3ce7 f2bc c054 473c b903 13be 7ffa 0e3e
00000040: d540 143e 237f 91be 2580 abbf 1653 84be
00000050: a8c1 373e 592c 6f3d fe7a 6fbe 1bc9 c13d
00000060: eed1 03bf 401e 1c3e 9fe8 35bd 2795 683d
00000070: 4b0b ee3d 837b 75bd b805 4f3e 7d13 47be
00000080: 13e7 36bf 6edb 1c3e d88f 383e ec27 c03d
00000090: 0785 dcbb ab2e 143e 25e6 b5be 0662 60be
000000a0: e564 85be 8100 a13e 5efb dfbe 7c86 4ebd
000000b0: 8631 19bf 4eee ef3d 0ae8 bf3d d6eb b5bc
000000c0: c745 07bf e3a6 74bf f4a3 8f3e 276b 2abd
000000d0: 73bd a3bd 8c89 f43e dd26 0e3f 9ad3 ecbe
000000e0: 8921 4bbf 45c1 2ebd 1da8 d1bf 27b2 a8bd
000000f0: 5bdd 303e f1ce fb3d 10d2 633e 125e babd
00000100: 356c efbd a857 043d c482 0bbe 4d6f 893c
00000110: 3ed8 e23e 446c d5bd 813d 91be dd74 1b3b
00000120: 10f5 d2be 0391 1cbe 443b ecbe 7852 d7bc
00000130: 19f0 833e 4841 a43e 2a12 85ba ef96 18bd
00000140: 8c0b 723e bd3e 38be 865e 0dbf 047e dabd
00000150: b1c5 ecbd d909 b5be e374 69be aaad 46be
00000160: a4cd 873d aa93 a13e c6e1 4a3b d531 8fbe
00000170: ce29 c1bf 16a6 48bd b9e6 f0be 0da1 f4be
00000180: 3591 a4be 41d2 043e 550d 43be 12d7 e3bd
00000190: c5df 94be f87c 8e3e 51f9 28be 2d90 0fbf
000001a0: 9165 d2be a336 1fbe 10c8 b8bf c001 afbe
000001b0: 2178 a73d e2c5 3cbe 9046 c33e 19b1 79be
000001c0: b8b9 adbd 455c a23e f855 c93e a96c 003e
000001d0: f28e 18be c268 f1be 9d94 37bd ca99 7f3e
000001e0: 0525 49be cf5d bf3d 2d95 ab3c 4f7a 86bd
000001f0: b9a5 3dbf f1d9 e83e 719f 9abe 0a31 2dbf
00000200: 1d27 003e a58a 95bd 308e 0f3e 13d1 513e
00000210: ceb0 623e 9538 313d 3ab1 2b3e 9ff2 1bbf
00000220: e182 0f3d 2217 e0be 4177 373e f8d7 c3bd
00000230: d0f1 29bf f545 54be 1a87 473d a0b0 463e
00000240: ca4f 253f 4c91 e03d 0b0c cdbe 1dad 1ebd
00000250: fd2f 0ac0 e7a7 f1bd 9597 543c 2bc3 83be
00000260: e253 2cbf 8f2e 7ebe 80fe 88bc 616b 3ebf
00000270: 122c 4a3e 8938 c1be 306c 183e 8ab4 433e
00000280: 2cff b2be 89f9 59be 63c8 38be 17f1 86be
00000290: 82a2 7fbe 880a 0abe c6c5 dcbe 85f6 ba3d
000002a0: ca94 143d 384c ddbd 0e16 b53e bfc9 d53d
000002b0: 838f 85be 7bee 963d 1ac3 583c fea5 28be
000002c0: 5b44 333e 3ff6 843d 1838 b43c 6ca8 ad3e
000002d0: 46d3 c33d 30e9 f7be a6c9 3bbe 4277 0e3e
000002e0: 861d f2be 1ad6 00bf e22f ee3e 54d0 243e
000002f0: 5422 c73b 3b27 9fba c55a b1be ea75 943e
00000300: 5f91 75be 81a1 d13d 788a 3e3d 0c2b a33e
00000310: a99b 00be 4951 52be fe5c 013e 6148 e1be
00000320: fa79 bebd 114d 06bf db5b a83e 023a a73d
00000330: dc1d 39bf 4a11 aabd 7e5b 003e 709b e23d
00000340: 0cb6 2e3f 7b19 983e 91d9 90be c324 df3d
00000350: d033 1b3e 3239 03bc 4c02 7a3e eae6 05bf
00000360: b73f 00bf 5b64 013d 799b 8ebd 5b18 88bf
00000370: 82ce eb3d df7c e3be 19df 0dbe 031a 7ebe
00000380: c1c5 9dbd c2dd 8bbc 6cb7 07bf 6f6c 1ebf
00000390: ee02 85be 9e98 45be d0fa 71be c021 b13d
000003a0: eb20 8d3e 9e75 ebbe ddc8 b73e fdce 17be
000003b0: 8e12 47be 623e f0bd e07a bbbc 528b 3cbe
000003c0: ead3 26be 5849 bd3d e684 23be a86a f13e
000003d0: 2721 823e 867b 72bf 0ff0 2fbf 1675 113e
000003e0: 5d84 dabd 58c2 02bf 3a4d 36bf 185b 903e
000003f0: 4631 bebc 8228 0dbe ba17 45be 0e5a b03e
0.33400616 0.2189222 -0.5483022 -0.26476052 0.27305472 0.18262874 -0.26693633 -0.081529334
0.5268231 0.30883572 -0.24096355 -0.17563513 -0.029651277 0.012166202 -0.14356889 0.13962744
0.14477856 -0.2841731 -1.3398482 -0.2584464 0.17944968 0.058391903 -0.23386762 0.09462186
-0.514922 0.15245914 -0.044411298 0.056782868 0.11623248 -0.059932243 0.20217025 -0.19441028
-0.7144634 0.15318081 0.18023622 0.093826145 -0.0067297253 0.14470927 -0.3552715 -0.21912393
-0.2605354 0.31445697 -0.43746465 -0.050421223 -0.5984119 0.11715375 0.0937043 -0.022207182
-0.52840847 -0.9556715 0.28054774 -0.041606095 -0.07995119 0.4776119 0.5552805 -0.4625519
-0.79348046 -0.042664785 -1.6379429 -0.08237105 0.1727194 0.1229533 0.22248101 -0.09099974
-0.11690561 0.032310158 -0.13624102 0.016776705 0.44305605 -0.10421041 -0.28367236 0.002372078
-0.41202593 -0.15289693 -0.46138966 -0.026284441 0.25769117 0.32081056 -0.0010152508 -0.037253316
0.23637217 -0.17992683 -0.55222356 -0.10668567 -0.11561144 -0.35359076 -0.22798495 -0.19402185
0.0663102 0.3155797 0.0030957325 -0.27967706 -1.5090883 -0.048986517 -0.47051027 -0.47779122
-0.32142034 0.1297083 -0.19048055 -0.11125006 -0.29076973 0.2782972 -0.16501357 -0.5607937
-0.41093114 -0.15548186 -1.4436054 -0.34181023 0.0817721 -0.18434861 0.38139772 -0.24383964
-0.08482689 0.3171102 0.393234 0.1254145 -0.1489828 -0.47150236 -0.044819463 0.2496101
-0.19643028 0.093440644 0.020945156 -0.06566297 -0.74081 0.45478776 -0.3019977 -0.6765295
0.1251492 -0.07301835 0.14019084 0.20489912 0.22137758 0.04326685 0.16766825 -0.60917085
0.035036925 -0.4376765 0.17916586 -0.09562677 -0.663846 -0.20729811 0.048712827 0.19403315
0.64574873 0.10965213 -0.4004825 -0.038739312 -2.159179 -0.11799603 0.012975593 -0.2573484
-0.67315495 -0.24822448 -0.016722918 -0.743826 0.19743374 -0.37738445 0.1488502 0.19111839
-0.34960306 -0.21286596 -0.18045191 -0.26355812 -0.24964336 -0.1348058 -0.4311964 0.09129051
0.03627471 -0.10805553 0.3536839 0.10438871 -0.26086053 0.07369705 0.01323011 -0.16469571
0.17506544 0.0649228 0.021999404 0.33917558 0.095617816 -0.48420095 -0.18338642 0.13912681
-0.4728815 -0.50326693 0.46520907 0.16095096 0.0060770903 -0.0012142429 -0.34639564 0.2899621
-0.23981236 0.102358826 0.046518773 0.3186878 -0.1255938 -0.2053882 0.1263313 -0.44000533
-0.09300609 -0.52461344 0.3288258 0.08165361 -0.72311187 -0.08304079 0.12534901 0.110648036
0.6824653 0.2970694 -0.2829099 0.108956836 0.15156484 -0.008009242 0.24414939 -0.5230547
-0.5009722 0.031589847 -0.06963248 -1.0632433 0.115139976 -0.44431207 -0.13854636 -0.2481461
-0.07703734 -0.017073516 -0.53014255 -0.61884207 -0.25978798 -0.192965 -0.23630834 0.086490154
0.27564177 -0.45988172 0.35895434 -0.14825054 -0.19440672 -0.117306486 -0.02288574 -0.18412521
-0.16291776 0.09242505 -0.15968665 0.47151685 0.25415918 -0.9471973 -0.68725675 0.14204821
-0.106697775 -0.51077795 -0.7121159 0.281945 -0.023216855 -0.13784984 -0.19247332 0.34443706

fc_2.bias f4 [64]
00000000: 4605 4b3d 4132 263e 5761 bcbe 6484 2cbd
00000010: 4d1b 583d 1372 51bd f24a 23be 5481 a53d
00000020: 5640 0bbe 57ba f03c 9b10 b63e e6b9 61bd
00000030: 0694 d63e ede0 9d3d 3900 8d3d f4e1 98be
00000040: da66 183d e0b4 893e b55d c53d ae83 48be
00000050: 714b 34be 78fd 343d 3904 823e 384e 923b
00000060: a602 f23d 0a3f 393e 8d0c 6b3d a2fb 253e
00000070: 6f99 a8bc cb96 953d 7619 3dbd 7b40 d1bd
00000080: 45bb 48bd dd51 83be 3378 81bd 5601 bcbd
00000090: 4ca1 313e 7492 1ebe 451f 85be 041f ee3d
000000a0: df53 9abd eddc d7bd 3d83 283e 99d2 483e
000000b0: 15cf 993e 0abc 07bd 2a8b 033c dd20 0dbe
000000c0: 0588 3a3e 60b6 19be 3cfc 60bd 6ed8 fcbb
000000d0: d1a1 82be 2854 1abe 503e 8f3d f296 673e
000000e0: 8340 a9bd b2f1 713a bd0b 283e 6570 71bd
000000f0: b712 6abd 6f9c 953d 4538 3e3e c3d7 54be
0.049565576 0.16230108 -0.36793014 -0.042118445 0.05276041 -0.05113418 -0.15946558 0.08081308
-0.13598761 0.029385729 0.35559544 -0.055108927 0.41909808 0.07708917 0.06884808 -0.2985989
0.037207462 0.2689581 0.09637014 -0.19581482 -0.17606904 0.04418704 0.25393847 0.004464891
0.118169114 0.18090454 0.057385016 0.16209272 -0.020580975 0.07304152 -0.04616686 -0.10217377
-0.04900672 -0.25648394 -0.06321754 -0.09179942 0.17346686 -0.15485555 -0.2600042 0.116270095
-0.075355284 -0.10540185 0.16456313 0.19611587 0.30040804 -0.033138312 0.008028785 -0.13782068
0.1821595 -0.15010977 -0.05492805 -0.00771623 -0.2551408 -0.15071166 0.06994307 0.22616175
-0.08264258 0.0009229436 0.16410728 -0.05894508 -0.057146754 0.07305228 0.18576153 -0.20785432

fc_mu.weight f4 [1, 64]
00000000: 99e4 483e 2912 26be 6299 0c3e 85b3 e53d
00000010: 1a45 4bbd 1f9e c6bf ebb8 4d3e 2910 e13b
00000020: 7478 83bc adda b53a 5644 71be 7f66 c4bf
00000030: 7206 063e 5b5e 1cbe 8de1 3540 6898 85be
00000040: ebbe 223f 3fcc 0cbf 9f29 f13e 3efc e3be
00000050: c6f2 1e3e 3d10 143f 691a b93e 20ed 873f
00000060: 894c 883d 794b 9a3d d165 2c3f 3a4a 023d
00000070: 8a44 2c3f f9f4 cb3f 7caa 78bf 9490 7cbe
00000080: 7076 cbbd 6af1 5cbe 1a63 a03f 836f 1f3e
00000090: 10fd 4db8 4daa 53bc c64f d83d 01ca 6c3f
000000a0: 89fd 1c39 c2cf a0bb b912 dcbf 3920 e5bb
000000b0: 4000 75bc b6b4 58bf 2f90 a13f ebbe febe
000000c0: 3562 a83d 9622 213c 259f b2bb e88a 433e
000000d0: e12d a93f 513e 2abc 5478 3a3b d397 4c3d
000000e0: 3939 c1bf 685b 7e3f c884 313f 718a 853f
000000f0: 3b4a 27bc a16e 6ebe a771 b03f 7b9c aabe
0.19618453 -0.16217865 0.13730386 0.11215881 -0.049626447 -1.5517005 0.20090072 0.0068683815
-0.016048647 0.0013874375 -0.23561224 -1.5343779 0.13088396 -0.15270369 2.8418915 -0.2609284
0.6357257 -0.54999155 0.47102067 -0.44528383 0.15522298 0.5783728 0.36152962 1.061924
0.06655223 0.075339265 0.6734286 0.03180907 0.6729208 1.5934135 -0.9713514 -0.24664527
-0.099346995 -0.21576467 1.2530243 0.15569882 -4.911149e-05 -0.012919021 0.105620906 0.92495733
0.00014971769 -0.004907579 -1.7193214 -0.0069923666 -0.014953673 -0.84650743 1.2622126 -0.49755034
0.082218565 0.009834906 -0.0054511004 0.19095957 1.3217126 -0.010390834 0.0028453069 0.04994948
-1.5095588 0.99358225 0.69343233 1.0432874 -0.010210569 -0.23284389 1.3784684 -0.3332251

fc_std.weight f4 [1, 64]
00000000: cb02 8dbe c6b8 8cbe 4581 39be d74c e93e
00000010: 8ae9 b9bd 2fab 9c3e a439 05bf e161 1cbf
00000020: c15f 67bd e1b1 9cbe 626c e3bd a05d 523f
00000030: 9c18 e4be 214c f43d 0b22 0240 6362 8a3e
00000040: 0ea3 4fbe b632 1a3c 1666 02be 07f6 de3c
00000050: af9d 2cbe a40d 813f 7922 9ebf b561 a93f
00000060: e9f5 d6bd 0158 7abe 7922 85bf 386c bfbe
00000070: dc7f 0a3f 40f5 293f 87ff 0a3f 6537 a23e
00000080: 19c1 88bd 39fe 083e 4879 4b3d a1f2 b63e
00000090: 9462 09bf 1dc1 353d 0099 e13e 97f2 bb3e
000000a0: 13ed 853d b348 95bf bc56 653f c379 8ebf
000000b0: 1dad 08bf b190 6d3e e36b 12bd 7f75 0f3f
000000c0: e81f 55be 193c 2b3e bb39 133d c89d 153f
000000d0: fbfe dfbe 4af9 303c 1de7 4bbe e1f5 d3be
000000e0: 34ef 5f3f 8904 143e 50f5 043f 4b60 58be
000000f0: 3c51 eb3d e9c9 a33e b2fd a83e a178 ca3e
-0.27541193 -0.2748472 -0.18115719 0.45566437 -0.09077747 0.30599353 -0.5204108 -0.6108685
-0.056487802 -0.3060446 -0.11104657 0.8217411 -0.44550025 0.11928583 2.0333278 0.27028188
-0.20277044 0.0094115045 -0.12734255 0.027216924 -0.16857027 1.0082288 -1.235427 1.3232943
-0.104961224 -0.24447633 -1.0401145 -0.37387252 0.5410135 0.66389847 0.54296154 0.31682888
-0.066774555 0.13378228 0.04967621 0.35731986 -0.53666043 0.04437362 0.44062042 0.3670852
0.06539359 -1.1662811 0.8958547 -1.1130909 -0.5338915 0.23199727 -0.03574742 0.5603866
-0.20812953 0.16722144 0.035943728 0.5844388 -0.43749222 0.010801623 -0.19912381 -0.41398528
0.8747437 0.14454855 0.5193682 -0.21130483 0.114901036 0.31989983 0.33006054 0.39545158
