Pendulum_SAC/saved_model/0404/sac_actor_EP340.pt (torch, 20559 bytes, 6 tensors)

fc_1.weight f4 [64, 3]
0.64174867 -0.47021654 -0.48791304 -0.03373711 -0.8307345 -0.36543253 -0.7148718 0.68362516
0.4480298 -0.33523908 0.27456057 -0.060685612 0.4392009 -0.5518571 0.6747294 0.24388032
-1.5039748 -0.54416275 -0.19976957 0.8857396 -0.18224803 -0.46852574 -1.2060978 -0.3181165
0.9633031 -0.28142497 -0.38418767 0.7925377 -1.3501122 -0.5359852 0.1611432 1.057955
-0.40944105 0.09319577 0.6851775 -0.17559403 -0.3666132 -1.0383345 -0.16802119 0.17755246
-0.06945309 2.3206607e-05 0.048621725 1.452863 0.5950187 0.16128081 -0.05955926 -0.35414717
0.16642146 -0.8397706 -0.0033640936 0.5660863 1.8118992 -0.023537282 -1.18347 -0.32449558
0.020907842 -0.094435126 1.4504672 0.24985014 -0.36717007 -2.0367467 -0.37634522 -0.42132992
-0.047488607 -0.2880836 -0.26216677 1.0544571 0.15678327 0.37121505 -1.0944477 -0.34316543
-0.7634698 -1.0302547 0.011372252 0.61758137 -0.6988329 0.055488665 0.49295962 1.1156101
0.14868477 -0.4386354 -2.0562198 -0.41065863 -0.14069289 1.0436877 0.76536065 -0.12996075
-0.9384902 -0.19667341 0.03682811 -1.3071127 -0.5582664 -0.7825571 -0.08443594 0.16841143
-0.8468078 -0.03450678 -0.018509386 0.41316703 0.062078085 0.035727054 0.16708319 -1.006849
-0.32442477 0.8410617 -1.4863467 -0.37690258 -0.031447757 -0.31063777 -0.9086543 0.17441107
-1.5515373 -0.13148041 -0.6217283 -0.15323843 -0.24518551 -0.66105473 0.7641239 0.36063862
-0.6090675 0.31829637 -0.019561311 0.7723496 -0.8872787 -0.29206005 -0.3854773 1.9015613
0.34326157 -0.16285294 0.6539731 -0.38505927 -0.6887965 -0.7714529 0.1116328 0.57447803
-0.095375024 -0.628938 0.9426818 -0.71307856 0.49303836 0.079524405 -0.21895386 -0.611276
-0.9675308 -0.08581306 -0.1853167 0.43618774 1.4074519 0.46772525 1.0868154 0.05775867
0.39872172 0.04451569 -0.10656165 -0.20957965 -0.61037743 0.683546 -0.13042699 0.72440726
-0.3470016 -0.3465079 0.46910286 0.041492235 -0.34021515 0.8299255 1.4115893 0.43222287
-1.1894063 0.36960438 -0.042903397 -1.0788083 -0.13275892 0.040837135 -1.1680498 -0.8869069
-0.14728756 -0.09381299 0.53778464 -0.69276536 0.045313686 -1.5153804 -0.62876356 0.075566165
-0.08429278 0.13726708 -0.08368329 -1.5994684 -0.6123193 0.09704124 1.0406736 -0.31485304
00000000: a449 243f 39c0 f0be bdcf f9be ed2f 0abd
00000010: 04ab 54bf f919 bbbe d701 37bf 0f02 2f3f
00000020: 2964 e53e 75a4 abbe 3493 8c3e 7a91 78bd
00000030: f1de e03e 8246 0dbf 11bb 2c3f c3bb 793e
00000040: 3f82 c0bf 404e 0bbf 6590 4cbe d5bf 623f
00000050: 3a9f 3abe 9be2 efbe 6a61 9abf 2ae0 a2be
00000060: 089b 763f ef16 90be 3fb4 c4be c0e3 4a3f
00000070: 7ad0 acbf 5336 09bf b902 253e 126b 873f
00000080: 42a2 d1be 6ddd be3d cb67 2f3f ecce 33be
00000090: bab4 bbbe 25e8 84bf bf0d 2cbe 50d0 353e
000000a0: 6c3d 8ebd cfab c237 9327 473d 6af7 b93f
000000b0: 2553 183f cc26 253e 69f4 73bd c752 b5be
000000c0: 636a 2a3e 35fb 56bf 2078 5cbb 08eb 103f
000000d0: 50ec e73f 42d1 c0bc f27b 97bf 4924 a6be
000000e0: ec46 ab3c 3467 c1bd e9a8 b93f b7d8 7f3e
000000f0: b7fd bbbe 0f5a 02c0 52b0 c0be 8eb8 d7be
00000100: 6a83 42bd b27f 93be b93a 86be 73f8 863f
00000110: cb8b 203e e60f be3e dd16 8cbf 61b3 afbe
00000120: c272 43bf 63df 83bf af52 3a3c d019 1e3f
00000130: b7e6 32bf 1548 633d 3465 fc3e 50cc 8e3f
00000140: d240 183e d294 e0be 1b99 03c0 d941 d2be
00000150: cc11 10be 8f97 853f adee 433f 6e14 05be
00000160: e540 70bf c164 49be 13d9 163d 784f a7bf
00000170: 8cea 0ebf a955 48bf c0ec acbd 0c74 2c3e
00000180: 65c8 58bf fb56 0dbd ffa0 97bc a18a d33e
00000190: 9745 7e3d 8856 123d db17 2b3e 6ee0 80bf
000001a0: 011b a6be d24f 573f 9c40 bebf 60f9 c0be
000001b0: 5dcf 00bd ea0b 9fbe 919d 68bf d198 323e
000001c0: c698 c6bf cda2 06be 9629 1fbf 89ea 1cbe
000001d0: e911 7bbe e23a 29bf a09d 433f a0a5 b83e
000001e0: d9eb 1bbf bef7 a23e 0b3f a0bc b4b8 453f
000001f0: b224 63bf e588 95be 485d c5be 5c66 f33f
00000200: fbbf af3e ecc2 26be c86a 273f 7d26 c5be
00000210: f854 30bf f07d 45bf bd9f e43d fe10 133f
00000220: fb53 c3bd 1502 21bf 9853 713f 518c 36bf
00000230: 866f fc3e b1dd a23d 7135 60be 957c 1cbf
00000240: 19b0 77bf c2be afbd a9c3 3dbe 0054 df3e
00000250: 6227 b43f af79 ef3e c41c 8b3f 5b94 6c3d
00000260: 4125 cc3e 1656 363d ff3c dabd 0c9c 56be
00000270: b241 1cbf dffc 2e3f a78e 05be c172 393f
00000280: 32aa b1be 7c69 b1be 402e f03e c3f3 293d
00000290: ae30 aebe ff75 543f f5ae b43f 514c dd3e
000002a0: 773e 98bf c93c bd3e 79bb 2fbd 6416 8abf
000002b0: f4f1 07be d744 273d a882 95bf 550c 63bf
000002c0: 8dd2 16be 0621 c0bd 41ac 093f 1259 31bf
000002d0: d89a 393d fcf7 c1bf a6f6 20bf 6fc2 9a3d
000002e0: b1a1 acbd be8f 0c3e 2562 abbd 61bb ccbf
000002f0: f5c0 1cbf 8fbd c63d cb34 853f 6b34 a1be

fc_1.bias f4 [64]
-0.44603845 -0.044518817 -0.11339305 0.03447287 -0.59817237 0.14883438 0.28309798 0.20337391
-0.93994665 -0.74398756 -0.32839638 0.2783941 0.36429605 -0.22895491 -0.028917864 -0.58593833
-0.3297792 0.027398808 0.0071380073 0.16325712 -0.38532192 -0.3667869 0.31024304 -0.061323933
0.39814934 0.048313946 -0.08642774 -0.47609037 -0.21452191 0.009257247 -0.000969018 -0.900162
0.5338324 -0.032923907 0.08838961 -0.2967768 0.26883614 -0.12134843 -0.8131008 -0.19321477
0.48033175 -0.46415603 -0.43608168 -0.67004204 0.27813274 -0.39072245 -0.5993389 0.073694214
-0.55955076 -0.40285552 -1.088761 -0.4592072 0.17197192 -1.0414886 -1.4659795 -0.5280689
0.07298618 -0.14121379 -0.5262467 -0.5880171 -0.0042354586 -0.10159405 -0.17671351 -0.04867872
00000000: 275f e4be 5d59 36bd 9e3a e8bd 6d33 0d3d
00000010: d321 19bf 0a68 183e 38f2 903e 4041 503e
00000020: 58a0 70bf f875 3ebf 9223 a8be ac89 8e3e
00000030: 0385 ba3e 2873 6abe 28e5 ecbc 0e00 16bf
00000040: d2d8 a8be 7773 e03c f2e5 e93b e02c 273e
00000050: ea48 c5be 7ecb bbbe 2dd8 9e3e ce2e 7bbd
00000060: 3bda cb3e d8e4 453d 0701 b1bd 1ec2 f3be
00000070: a2ab 5bbe b5ab 173c b205 7eba 0471 66bf
00000080: 3da9 083f 38db 06bd 9d05 b53d 21f3 97be
00000090: e4a4 893e 8785 f8bd 6027 50bf 18da 45be
000000a0: 0bee f53e dca5 edbe 1946 dfbe e087 2bbf
000000b0: 6a67 8e3e c60c c8be 466e 19bf feec 963d
000000c0: b83e 0fbf 1443 cebe 855c 8bbf 351d ebbe
000000d0: 6819 303e 804f 85bf 37a5 bbbf 862f 07bf
000000e0: c779 953d 599a 10be 1bb8 06bf 4a88 16bf
000000f0: 9ac9 8abb 8b10 d0bd 63f4 34be 5663 47bd

fc_2.weight f4 [64, 64]
0.32185313 0.25064757 -0.9787812 -0.32913393 0.19097285 0.23403049 -0.25492653 -0.027821572
0.45970622 0.32385466 -0.1984988 -0.20125854 0.03279771 -0.10759918 -0.33890256 0.09331443
0.3908698 -0.2509348 -1.3785471 -0.27126974 0.2426259 -0.038392726 -0.2531481 0.12606035
-0.42991298 0.1490364 -0.14360403 0.102695145 0.025110494 -0.01860819 0.25411147 -0.21066462
-0.60725635 0.12241259 0.2300313 0.12147763 0.018110853 0.23752765 -0.5946624 -0.23084639
-0.217106 0.30796307 -0.45049924 -0.109204546 -0.36436525 0.09792945 -0.011331132 -0.007333588
-0.80931926 -1.3321545 0.28200102 -0.12000947 -0.1386984 0.29938626 0.35260886 -0.56523526
-1.0940387 -1.0393579 -1.8027809 -0.12944387 0.2219093 0.044416267 0.254336 -0.08203834
-0.09852214 -0.03775185 -0.28278324 -0.022704395 0.41808394 -0.06897534 -0.35473737 -0.046487447
-0.5331777 -0.2960538 -0.52848727 -0.041695084 0.222318 0.35629618 -0.07326215 -0.1294843
0.2811219 -0.20155306 -0.65982866 -0.15866965 -0.1918185 -0.40020177 -0.3936559 -0.1105045
0.010540179 0.3621341 -0.005425291 -0.27502382 -1.5574386 -0.391252 -0.891219 -0.55306244
-0.5842311 0.1453359 -0.11382149 -0.034376457 -0.33695287 0.27007255 -0.22598167 -0.9231488
-0.38482255 -0.10141847 -1.5720475 -0.41073707 0.029097557 -0.19318779 0.4019077 -0.25249207
-0.15302178 0.2333384 0.42400348 0.05064251 -0.1817308 -0.53931767 -0.10425965 0.24168889
-0.25540945 0.08501979 0.0015143323 -0.13329916 -1.1566628 0.44841722 -0.4380352 -1.137277
0.05470741 -0.09770687 0.13976127 0.25731665 0.23876902 -0.009108128 0.047893945 -0.81303585
0.0009601236 -0.4450598 0.16432591 -0.21725775 -0.8594649 -0.15424821 0.061216284 0.1762639
1.0666527 0.11749328 -0.50773185 -0.039302856 -2.084967 -0.10670307 -0.001844653 -0.32849938
-0.7423052 -0.034405034 0.032404337 -0.66416746 0.20119706 -0.5351175 0.15768035 0.13435146
-0.4170154 -0.43090314 -0.25391525 -0.4342658 -0.30291015 -0.12083592 -0.6182798 0.08242027
-0.04150093 -0.13791761 0.35658085 0.15266113 -0.2987603 0.0019774367 0.04884181 -0.22412725
0.250258 0.094085924 0.15802975 0.35009152 0.23058635 -0.41299766 -0.13411446 0.18136874
-0.58370537 -0.60331887 0.57810676 0.1521386 -0.008925508 0.020557854 -0.39584672 0.247724
-0.18345477 0.106957845 0.046520576 0.27571023 -0.1278882 -0.23323907 0.0978188 -0.3551778
-0.14819524 -0.7858356 0.37355477 0.06286526 -0.6436714 -0.06334925 0.11258312 0.12790383
0.9262548 0.3245511 -0.31297928 0.09574088 0.27093315 -0.018471718 0.22000024 -0.67460793
-0.5189716 0.11091915 -0.04852003 -0.9393697 0.112113915 -0.3273132 -0.19801383 -0.30188742
-0.12709135 0.055014476 -0.63444585 -0.7924218 -0.22659846 -0.41425553 -0.0016400696 0.07758596
0.24058889 -0.7154101 0.32190612 -0.14034837 -0.19736825 -0.06681151 0.0055511924 -0.1622048
0.013655959 0.07207069 -0.079655714 0.44044498 0.2714217 -1.3597164 -0.84149206 0.110422485
-0.12905046 -0.5454746 -0.7184019 0.31281132 -0.07493889 -0.12456527 -0.2521544 0.35406846
00000000: efc9 a43e e154 803e 6891 7abf 3e84 a8be
00000010: 638e 433e b0a5 6f3e bb85 82be 11ea e3bc
00000020: 9d5e eb3e 47d0 a53e 4543 4bbe b816 4ebe
00000030: e456 063d f55c dcbd a384 adbe a31b bf3d
00000040: 1620 c83e 877a 80be 3b74 b0bf dee3 8abe
00000050: ed72 783e b141 1dbd a19c 81be f715 013e
00000060: 8e1d dcbe ff9c 183e ef0c 13be d551 d23d
00000070: 86b4 cd3c 3470 98bc e61a 823e 77b8 57be
00000080: 2775 1bbf 74b3 fa3d 538d 6b3e 44c9 f83d
00000090: 365d 943c 733a 733e cc3b 18bf ff62 6cbe
000000a0: 0951 5ebe 56ad 9d3e d6a7 e6be a2a6 dfbd
000000b0: 158e babe 3c8f c83d 36a6 39bc 984e f0bb
000000c0: 8c2f 4fbf 0a84 aabf 7062 903e 86c7 f5bd
000000d0: f406 0ebe 2849 993e 2689 b43e 42b3 10bf
000000e0: 7609 8cbf ae09 85bf 86c1 e6bf ef8c 04be
000000f0: 313c 633e d5ed 353d 5438 823e b803 a8bd
00000100: fac5 c9bd afa1 1abd f7c8 90be 91fe b9bc
00000110: 190f d63e f142 8dbd 23a0 b5be 9f69 3ebd
00000120: 557e 08bf 5d94 97be f14a 07bf 77c8 2abd
00000130: 54a7 633e 746c b63e 770a 96bd 8897 04be
00000140: 36ef 8f3e ed63 4ebe 88ea 28bf 4c7a 22be
00000150: 126c 44be 3fe7 ccbe 448d c9be 2f50 e2bd
00000160: b7b0 2c3c a469 b93e a4c6 b1bb eccf 8cbe
00000170: 265a c7bf 2f52 c8be ee26 64bf 8095 0dbf
00000180: 2b90 15bf efd2 143e 3e1b e9bd 54ce 0cbd
00000190: 1685 acbe f346 8a3e bd67 67be 7b53 6cbf
000001a0: 7607 c5be 7db4 cfbd da38 c9bf 214c d2be
000001b0: 005e ee3c 05d3 45be d9c6 cd3e a446 81be
000001c0: beb1 1cbe 43f0 6e3e fc16 d93e 856e 4f3d
000001d0: a417 3abe b910 0abf 1586 d5bd 4b7d 773e
000001e0: 07c5 82be db1e ae3d 8f7c c63a 937f 08be
000001f0: 870d 94bf f196 e53e 2646 e0be 4b92 91bf
00000200: e114 603d 8a1a c8bd 941d 0f3e 02bf 833e
00000210: de7f 743e 423a 15bc 712c 443d 1e23 50bf
00000220: ceb0 7b3a e1de e3be 0d45 283e d178 5ebe
00000230: e405 5cbf 3ef3 1dbe edbd 7a3d 867e 343e
00000240: 1388 883f 51a0 f03d b7fa 01bf 08fc 20bd
00000250: 1970 05c0 2487 dabd 49c8 f1ba 1231 a8be
00000260: b707 3ebf 4bec 0cbd 69ba 043d e106 2abf
00000270: 9a06 4e3e 76fd 08bf f576 213e 6e93 093e
00000280: 0b83 d5be 569f dcbe 2e01 82be 1658 debe
00000290: 0a17 9bbe d378 f7bd 9647 1ebf f5cb a83d
000002a0: e1fc 29bd 463a 0dbe c491 b63e 3353 1c3e
000002b0: 1cf7 98be e297 013b 5a0e 483d 9d81 65be
000002c0: d121 803e 1fb0 c03d 8dd2 213e 323f b33e
000002d0: d41e 6c3e 6e74 d3be 4d55 09be bab8 393e
000002e0: b76d 15bf 1b73 1abf cefe 133f 39ca 1b3e
000002f0: 4b3c 12bc f268 a83c 6cac cabe 5cab 7d3e
00000300: 91db 3bbe b70c db3d 5c8c 3e3d e429 8d3e
00000310: 20f5 02be 39d6 6ebe 3955 c83d ddd9 b5be
00000320: 7ec0 17be 862c 49bf 9242 bf3e 80bf 803d
00000330: a6c7 24bf 40bd 81bd fb91 e63d 39f9 023e
00000340: 091f 6d3f 902b a63e d23e a0be cb13 c43d
00000350: c0b7 8a3e 0052 97bc be47 613e 1bb3 2cbf
00000360: 53db 04bf 9429 e33d f0bc 46bd 887a 70bf
00000370: fb9b e53d 9995 a7be 23c4 4abe fd90 9abe
00000380: 3c24 02be dc56 613d 0b6b 22bf 28dc 4abf
00000390: 6d09 68be 4d19 d4be 9bf7 d6ba 63e5 9e3d
000003a0: ef5c 763e 1e25 37bf e1d0 a43e 7cb7 0fbe
000003b0: e71a 4abe 79d4 88bd c7e6 b53b 0419 26be
000003c0: 3ebd 5f3c cc99 933d 8922 a3bd 0182 e13e
000003d0: c9f7 8a3e 300b aebf 066c 57bf 2f25 e23d
000003e0: ce25 04be 39a4 0bbf 30e9 37bf ce28 a03e
000003f0: 9079 99bd 141c ffbd 621a 81be 7648 b53e

fc_2.bias f4 [64]
0.0742468 0.18775904 -0.45253167 -0.049656358 0.051835172 -0.015156925 -0.17924888 0.10204426
-0.10294181 0.018294426 0.37076622 -0.06603158 0.39996374 0.04090241 0.053547144 -0.3446698
0.08678861 0.29574564 0.09713105 -0.191943 -0.20278724 0.07665472 0.2726559 0.035766326
0.075828 0.14993583 0.076151565 0.10839383 -0.06593085 0.086554274 -0.057516932 -0.13376324
-0.07388653 -0.20371956 -0.06126361 -0.09468807 0.19592208 -0.17863049 -0.26487163 0.09462645
-0.14067702 -0.07127666 0.1199438 0.19209473 0.38195997 0.0127161015 0.043223105 -0.085223936
0.21040677 -0.19418591 -0.09456282 -0.06285479 -0.21740074 -0.18732749 -0.009214276 0.24340588
-0.05998272 -0.019764418 0.16373457 -0.020063883 -0.058084108 0.08047429 0.18571413 -0.29288453
00000000: b50e 983d e843 403e 3bb2 e7be 7764 4bbd
00000010: 1e51 543d c054 78bc 058d 37be 95fc d03d
00000020: 28d3 d2bd 31de 953c 12d5 bd3e 913b 87bd
00000030: 0cc8 cc3e 4989 273d 4054 5b3d 8f78 b0be
00000040: 3abe b13d f96b 973e a5ec c63d b58c 44be
00000050: 75a7 4fbe 26fd 9c3d 8e99 8b3e b67f 123d
00000060: b64b 9b3d c788 193e 5af5 9b3d 96fd dd3d
00000070: c106 87bd 5e43 b13d e096 6bbd 3bf9 08be
00000080: d251 97bd dc9b 50be 8def 7abd d2eb c1bd
00000090: cc9f 483e e9ea 36be 419d 87be 83cb c13d
000000a0: a30d 10be 7ff9 91bd 18a5 f53d 7bb4 443e
000000b0: 4290 c33e 3257 503c b60a 313d e389 aebd
000000c0: df74 573e acd8 46be 27aa c1bd 03ba 80bd
000000d0: 4d9e 5ebe c7d2 3fbe 7af7 16bc 643f 793e
000000e0: 71b0 75bd fde8 a1bc 09aa 273e 035d a4bc
000000f0: 9ae9 6dbd b4cf a43d d82b 3e3e f6f4 95be

fc_mu.weight f4 [1, 64]
0.2227919 -0.23919483 0.20070021 0.09092947 0.029149054 -2.2841988 0.1985942 0.0052711465
-0.022048235 -0.019792952 -0.27886665 -1.5750809 0.06266186 -0.104206346 3.1215887 -0.19818567
0.6524362 -0.5501774 0.41954425 -0.56151307 0.056304 0.84724396 0.54325974 1.1040288
0.095313445 0.066914685 0.5990772 -0.0031516727 0.7696665 1.7195197 -1.0216345 -0.7831435
-0.08659095 -0.1813034 1.3290627 0.35615978 0.005248755 -0.009120878 0.06687444 0.9842672
0.002753184 -0.009851295 -1.9016899 -0.031194422 -0.0015384357 -0.794714 1.3695503 -0.49297285
0.107838064 -0.005657211 -0.009850523 0.4126364 1.3734988 -0.00781859 -0.017062562 0.07340618
-1.581096 1.3891056 0.6131136 1.1503484 -0.010055162 -0.14041448 1.5736747 -0.3949342
00000000: 8f23 643e 7def 74be 5b84 4d3e 3b39 ba3d
00000010: ffc9 ee3c 5030 12c0 475c 4b3e 95b9 ac3b
00000020: 809e b4bc d424 a2bc 9cc7 8ebe 409c c9bf
00000030: dc54 803d 236a d5bd 1cc8 4740 2ff1 4abe
00000040: 0f06 273f 6dd8 0cbf 81ce d63e 52bf 0fbf
00000050: 069f 663d fbe4 583f 1213 0b3f d150 8d3f
00000060: b233 c33d 910a 893d 205d 193f 4b8c 4ebb
00000070: dd08 453f 3919 dc3f ebc4 82bf 187c 48bf
00000080: 9956 b1bd 99a7 39be ba1e aa3f 935a b63e
00000090: c0fd ab3b bc6f 15bc 77f5 883d eff8 7b3f
000000a0: c36e 343b 5367 21bc 936a f3bf 728b ffbc
000000b0: 56a5 c9ba 6072 4bbf 6d4d af3f f066 fcbe
000000c0: 34da dc3d 2060 b9bb 1764 21bc 1445 d33e
000000d0: cfce af3f 8b19 00bc c9c6 8bbc fb55 963d
000000e0: 5b61 cabf 36ce b13f 03f5 1c3f 9e3e 933f
000000f0: 68be 24bc d0c8 0fbe 2c6e c93f d134 cabe

fc_std.weight f4 [1, 64]
-0.23988228 -0.34219834 -0.22958878 0.45638195 -0.14872783 0.4834382 -0.35815057 -0.7415751
-0.078258276 -0.33716393 -0.073830985 0.8468078 -0.28486446 0.016928982 2.0033154 0.33021364
-0.10878126 -0.016130937 -0.18693273 -0.048346616 -0.27631822 1.0592468 -1.4047563 1.1373111
0.006135361 -0.15258138 -1.1726918 -0.3706257 0.7326649 0.55243033 0.66324455 0.21280433
-0.028131653 0.066409305 0.08081319 0.38630214 -0.51981115 0.04432949 0.50652 0.2760025
0.09186002 -1.140575 1.308499 -1.1313511 -0.5808913 -0.12745333 -0.095486864 0.39547223
-0.21844599 0.16577834 0.058312926 0.5179701 -0.5231337 0.119888045 -0.26702723 -0.25709116
0.8708142 0.13098155 0.43848583 -0.21782872 0.0027695063 0.24564357 0.4266759 0.30698377
00000000: b3a3 75be 9f34 afbe 5219 6bbe e5aa e93e
00000010: 1c4c 18be 3685 f73e 835f b7be ded7 3dbf
00000020: e045 a0bd c0a0 acbe b334 97bd 65c8 583f
00000030: c1d9 91be a6ae 8a3c 5236 0040 c311 a93e
00000040: b6c8 debd 0725 84bc 4b6b 3fbe 1a07 46bd
00000050: 9579 8dbe 6695 873f 0ecf b3bf 6993 913f
00000060: 230b c93b 4b3e 1cbe c41a 96bf a7c2 bdbe
00000070: ed8f 3b3f 136c 0d3f 65ca 293f 61e9 593e
00000080: 5a74 e6bc 9a01 883d 6381 a53d 65c9 c53e
00000090: 5812 05bf d792 353d 4bab 013f 3350 8d3e
000000a0: 1b21 bc3d 5dfe 91bf e57c a73f 1dd0 90bf
000000b0: 4bb5 14bf 2083 02be 9e8e c3bd 567b ca3e
000000c0: 4eb0 5fbe ccc1 293e 89d9 6e3d b099 043f
000000d0: 17ec 05bf dd87 f53d cbb7 88be 74a1 83be
000000e0: aeed 5e3f 0720 063e 3781 e03e 7e0e 5fbe
000000f0: 9b80 353b fd89 7b3e 4375 da3e fa2c 9d3e
