Pendulum_SAC/saved_model/0404/sac_actor_EP50.pt (torch, 20559 bytes, 6 tensors)

fc_1.weight f4 [64, 3]
0.5912232 0.25520968 -0.4427185 -0.17099984 -0.48239496 -0.49866262 -0.7254155 0.16806957
0.43714347 -0.33338916 0.51993626 0.030071527 0.24860147 -0.97062016 0.3703529 0.2739847
-0.67989063 -0.6411333 -0.17309347 0.5062316 0.036498792 -0.30534115 -1.1995963 -0.35016397
0.77033246 0.161308 -0.4251394 0.7211566 -1.1210871 -0.55457103 0.35140258 1.0218351
-0.22738537 -0.04252939 0.62487495 -0.002364732 -0.28779215 -0.7319262 -0.12289943 0.26340288
-0.056531228 0.11613527 0.1237846 0.84260404 0.5851822 0.014145135 0.093415886 -0.71292937
0.22442047 -0.76034385 0.010663295 0.5854196 1.680548 -0.05799409 -0.8189649 -0.01056228
-0.13092373 -0.11381391 1.1942595 0.24031185 -0.2138488 -1.4036741 -0.33019042 -0.253295
-0.050909728 -0.42539075 -0.26410237 0.96190953 0.13455944 0.43957967 -0.513492 -0.39922148
-0.4369896 -0.73032373 -0.11230706 0.742808 -0.11462799 -0.048359513 1.214201 0.65573364
0.013341648 -0.5164467 -1.2174022 -0.43684474 -0.32934758 0.82201976 0.49007046 -0.2627782
-0.81954587 -0.2867506 0.07015352 -0.46759978 -0.5178043 -0.4461954 -0.16236223 0.1747611
-0.76192987 -0.037511867 -0.08015261 0.6837303 -0.0777084 -0.12460851 0.19975786 -0.7178556
-0.2824284 0.673132 -1.2022007 -0.38014227 -0.18584211 -0.65939015 -0.4233345 0.11295269
-1.2640189 -0.0067806095 -0.44183224 -0.052282672 -0.32783508 -0.7772562 0.33139405 0.35875452
-0.26207688 0.556946 0.059820767 0.60933673 -0.4418457 -0.31054884 -0.08183529 1.6046097
0.15604788 0.1586621 0.83206433 -0.21060647 -0.4379374 -0.30642954 -0.021602532 0.6799174
0.37172574 -0.51892865 0.8823993 -0.5291713 0.47432277 0.05574984 -0.06013912 -0.4561718
-0.6729963 -0.12102696 -0.20944597 0.37428153 1.2482998 0.35688713 0.60372436 0.051983293
0.35648224 0.04977109 0.111292094 -0.5304182 -0.049981344 0.72016186 -0.10534226 0.46163073
-0.30965927 -0.29352483 0.25461575 0.01425685 -0.40266338 0.60049105 1.1039586 0.43878052
-0.7813576 0.13991466 -0.026104633 -0.6837566 0.27672708 0.032332342 -0.53282857 -0.0698866
-0.25945055 0.042247575 0.37838352 -0.8865208 0.04683322 -0.59235036 -0.62301517 0.1799275
-0.51328397 0.3014942 -0.13122623 -0.7898554 -0.68663937 0.2709763 0.6956927 -0.37446478
00000000: 675a 173f d8aa 823e 00ac e2be 951a 2fbe
00000010: 79fc f6be b550 ffbe d5b4 39bf 6e1a 2c3e
00000020: 45d1 df3e fcb1 aabe 8b1a 053f 9058 f63c
00000030: 6291 7e3e 907a 78bf e59e bd3e b947 8c3e
00000040: 500d 2ebf 5021 24bf 6a3f 31be 6598 013f
00000050: c27f 153d ad55 9cbe 5f8c 99bf b148 b3be
00000060: 8234 453f ed2d 253e dfab d9be b89d 383f
00000070: c87f 8fbf 5ef8 0dbf 0aeb b33e 7ecb 823f
00000080: b6d7 68be 4c33 2ebd cef7 1f3f 9ff9 1abb
00000090: 7e59 93be 845f 3bbf b2b2 fbbd bedc 863e
000000a0: 4a8d 67bd 54d8 ed3d c882 fd3d e6b4 573f
000000b0: 80ce 153f ffc0 673c d450 bf3d 8a82 36bf
000000c0: 7bce 653e e5a5 42bf 1ab5 2e3c 0fde 153f
000000d0: 321c d73f 368b 6dbd afa7 51bf 6a0d 2dbc
000000e0: df10 06be 4417 e9bd 7fdd 983f 4f14 763e
000000f0: 2efb 5abe 98ab b3bf b80e a9be e2af 81be
00000100: b886 50bd d1cc d9be 6d38 87be b43f 763f
00000110: f3c9 093e 9610 e13e 3674 03bf c266 ccbe
00000120: 1abd dfbe 7ff6 3abf 3e01 e6bd aa28 3e3f
00000130: 14c2 eabd a014 46bd f06a 9b3f 29de 273f
00000140: ed96 5a3c da35 04bf d6d3 9bbf 1daa dfbe
00000150: 3fa0 a8be e36f 523f 84ea fa3e dd8a 86be
00000160: c2cd 51bf fad0 92be a6ac 8f3d 3d69 efbe
00000170: d38e 04bf b973 e4be 4942 26be 93f4 323e
00000180: d60d 43bf 0ba6 19bd 0d27 a4bd f308 2f3f
00000190: 9525 9fbd bf32 ffbd 538d 4c3e 62c5 37bf
000001a0: 759a 90be 6152 2c3f b6e1 99bf 02a2 c2be
000001b0: 654d 3ebe cbcd 28bf 4dbf d8be bd53 e73d
000001c0: 5fcb a1bf e02f debb d637 e2be 5b26 56bd
000001d0: 00da a7be 43fa 46bf 7bac a93e acae b73e
000001e0: f12e 86be 0394 0e3f 9f06 753d 7efd 1b3f
000001f0: 9939 e2be 4200 9fbe 4399 a7bd da63 cd3f
00000200: 04cb 1f3e 5178 223e 2b02 553f 39a9 57be
00000210: 5539 e0be 55e4 9cbe cbf7 b0bc 110f 2e3f
00000220: d652 be3e 82d8 04bf ece4 613f c577 07bf
00000230: 6fda f23e f259 643d 7054 76bd 5a8f e9be
00000240: 7c49 2cbf fcdc f7bd 0179 56be d4a1 bf3e
00000250: 4ac8 9f3f e9b9 b63e ae8d 1a3f 6fec 543d
00000260: d784 b63e c5dc 4b3d 1ced e33d 7dc9 07bf
00000270: 3db9 4cbd 875c 383f afbd d7bd dd5a ec3e
00000280: a98b 9ebe e348 96be ff5c 823e 9095 693c
00000290: e529 cebe c8b9 193f 844e 8d3f d7a7 e03e
000002a0: 0d07 48bf ca45 0f3e 62d9 d5bc ac0a 2fbf
000002b0: 2caf 8d3e eb6e 043d 7467 08bf b520 8fbd
000002c0: b4d6 84be cb0b 2d3d 7cbb c13e 07f3 62bf
000002d0: 31d4 3f3d 46a4 17bf ec7d 1fbf ea3e 383e
000002e0: 9466 03bf 735d 9a3e 2b60 06be f733 4abf
000002f0: 99c7 2fbf 68bd 8a3e eb18 323f d9b9 bfbe

fc_1.bias f4 [64]
-0.49112213 -0.07052248 -0.19182302 0.32063377 -0.21365368 0.34103248 0.36669964 0.29800978
-0.73126227 -0.4929223 -0.047074113 0.7128849 0.3933018 0.29720935 -0.004409137 -0.2319386
0.1440701 0.036566123 0.29342884 0.3432056 -0.47704324 -0.19655046 0.3954889 0.14081475
0.27464086 0.5263332 0.10323984 -0.40360847 -0.19638772 0.2671483 0.15447202 -0.7172355
0.34159738 0.5448325 0.2905231 -0.25361806 0.4152596 0.27330977 -0.40597892 -0.24531257
0.2640299 -0.36063588 -0.5708587 -0.39047527 0.4234068 -0.3128497 -0.39038163 0.099651076
-0.17368865 -0.27045855 -0.78570175 -0.14722778 0.58835566 -0.78937393 -0.96156025 -0.5940305
0.08544976 -0.3147375 -0.48902166 -0.2928419 0.15339498 0.30830055 -0.055113856 -0.013438943
00000000: 5c74 fbbe 176e 90bd 416d 44be 1c2a a43e
00000010: 08c8 5abe cf9b ae3e 0ec0 bb3e bd94 983e
00000020: 0134 3bbf 5060 fcbe c9d0 40bd a07f 363f
00000030: db5e c93e d32b 983e 867a 90bb 5081 6dbe
00000040: 1d87 133e 5cc6 153d 4e3c 963e a5b8 af3e
00000050: 033f f4be 8644 49be 857d ca3e be31 103e
00000060: ba9d 8c3e c6bd 063f 696f d33d c5a5 cebe
00000070: dd19 49be a9c7 883e ea2d 1e3e bf9c 37bf
00000080: dae5 ae3e 257a 0b3f 72bf 943e 3ada 81be
00000090: e89c d43e 42ef 8b3e 78dc cfbe 3833 7bbe
000000a0: ed2e 873e 44a5 b8be cc23 12bf 60ec c7be
000000b0: c7c8 d83e d62d a0be 1ae0 c7be dd15 cc3d
000000c0: 70db 31be 8b79 8abe c023 49bf e1c2 16be
000000d0: 7a9e 163f 6914 4abf d028 76bf 6212 18bf
000000e0: 4900 af3d 4625 a1be 0c61 fabe 60ef 95be
000000f0: 9313 1d3e 92d9 9d3e 11bf 61bd 032f 5cbc

fc_2.weight f4 [64, 64]
0.075617395 0.07997012 0.0986491 0.062075183 0.0680877 0.036700875 0.0156229185 -0.11830908
0.12062837 -0.1052392 -0.106894694 0.10330661 0.028473588 -0.01489046 0.03192517 0.017506914
0.13391346 0.06587572 -0.11437197 0.041005842 -0.24056344 0.07375202 0.10652614 -0.072336525
-0.07647153 0.10796057 0.0534888 -0.29072353 0.048917722 -0.12871963 -0.00854421 -0.09552395
0.11246989 0.15709236 0.01924051 -0.25544396 -0.08790274 0.054482486 -0.14674157 -0.017514868
0.05389199 -0.11989495 -0.284723 0.26187763 -0.012013252 0.05894725 -0.043228332 -0.01223976
0.020854294 -0.21019638 0.090729475 -0.10667934 0.13934359 -0.11596452 -0.050422564 -0.34450668
0.035050943 0.14478953 -0.14340462 -0.12672181 0.0061237602 0.14382842 0.031540297 0.08071238
-0.030348336 -0.013490718 -0.11931649 0.2875675 0.24207194 0.0013996692 0.08736942 0.007522757
-0.2148365 0.07199042 -0.062462643 0.14533322 0.0959858 0.3540795 -0.122690916 -0.03109591
0.028924104 -0.06765662 -0.05105315 0.065603055 -0.095776424 -0.06868892 0.013204459 -0.15208131
-0.015460428 0.32149985 0.11982965 -0.15743507 -1.612744 -0.015292739 0.16255593 0.01750853
0.06148292 0.22556448 -0.17235771 -0.11049871 -0.05060243 0.05283403 -0.07380061 -0.14141694
0.09726926 -0.16633628 -0.6133815 -0.40226015 0.056287322 -0.09861262 0.21508977 -0.15324637
-0.018663352 0.22590221 0.32165268 0.16212194 -0.08769588 -0.083026476 0.042939767 0.23908326
0.13784556 0.12023867 0.01571552 -0.07334934 -0.15187436 0.25197434 -0.09983859 -0.08768502
0.15085267 -0.08003663 0.015332491 0.041047998 0.061146785 0.17130238 0.14538808 -0.23932725
0.0912236 -0.24836637 0.01768582 0.0066647925 -0.03560206 0.036084026 -0.032191977 0.13680218
0.10183051 0.06434023 -0.29868305 -0.07867471 -0.52626836 -0.122681506 0.026091486 -0.06751002
-0.22181696 -0.0328936 0.15159136 -0.45671585 0.09186934 -0.12138129 0.16823912 -0.030427411
-0.3148269 0.06526891 0.029440492 0.025793564 -0.14221518 0.02720497 -0.30100775 -0.011339134
0.067632236 0.08122327 0.2349313 0.0065334523 -0.07358121 0.09416407 -0.032891948 -0.1206389
0.18352447 -0.0645919 -0.07710225 0.27785382 0.0870858 -0.11927838 -0.11568791 0.004757394
-0.120516375 -0.21527763 0.05937563 0.09239534 0.041992392 -5.6828267e-05 -0.1547986 0.24847779
-0.237423 0.08347038 0.031625018 0.09650274 -0.10466355 -0.05183154 -0.013540677 -0.10454756
-0.03232505 -0.29784742 0.09189823 0.050228972 -0.20077327 -0.14549175 0.14637779 6.672256e-06
-0.105252534 0.08832255 -0.18656354 0.02037219 0.00018433623 0.04679728 0.16514827 -0.33219004
-0.096243225 0.021615524 0.047467463 -0.040166866 0.12655285 -0.17280625 -0.045518186 -0.22857858
-0.12073473 0.085979514 -0.2405437 -0.25696757 -0.17035766 -0.16976824 0.06461143 0.073888026
0.18362951 -0.1090989 0.25037602 -0.14630876 -0.006055207 -0.14553772 0.04013731 -0.16716349
0.117939614 0.07955836 -0.06517308 0.31741145 0.04547569 -0.058487386 -0.076972306 0.20053014
-0.1150698 -0.42656526 0.14569427 0.15025967 0.040597763 -0.037461143 0.054851722 0.21008746
00000000: 4bdd 9a3d 60c7 a33d 8a08 ca3d 8c42 7e3d
00000010: 9071 8b3d a853 163d 45f7 7f3c 084c f2bd
00000020: 020c f73d a687 d7bd 9beb dabd 6a92 d33d
00000030: 7141 e93c 1ef7 73bc f8c3 023d a96a 8f3c
00000040: 9c20 093e d9e9 863d da3b eabd bef5 273d
00000050: 4356 76be 4d0b 973d 602a da3d 2c25 94bd
00000060: 1b9d 9cbd 6e1a dd3d 1217 5b3d b7d9 94be
00000070: f35d 483d 14cf 03be 04fd 0bbc 10a2 c3bd
00000080: 9d56 e63d d2dc 203e 469e 9d3c 8dc9 82be
00000090: 5a06 b4bd 0729 5f3d 6c43 16be 577b 8fbc
000000a0: d9bd 5c3d 7c8b f5bd 37c7 91be d314 863e
000000b0: 3bd3 44bc ac72 713d 3110 31bd 4689 48bc
000000c0: a0d6 aa3c b83d 57be 60d0 b93d b37a dabd
000000d0: 16b0 0e3e ce7e edbd e487 4ebd 2e63 b0be
000000e0: 9491 0f3d b543 143e a9d8 12be 5dc3 01be
000000f0: d3a9 c83b c247 133e 6630 013d 884c a53d
00000100: 139d f8bc 2c08 5dbc 345c f4bd 0c3c 933e
00000110: b5e1 773e 1b75 b73a bdee b23d 7681 f63b
00000120: 19fe 5bbe b76f 933d d4d8 7fbd 3bd2 143e
00000130: 3494 c43d e949 b53e 6045 fbbd dabc febc
00000140: 3ef2 ec3c 8e8f 8abd 1c1d 51bd e55a 863d
00000150: 6e26 c4bd c7ac 8cbd 8457 583c 34bb 1bbe
00000160: bc4d 7dbc a19b a43e 3f69 f53d a936 21be
00000170: 656e cebf 658e 7abc 1075 263e 0c6e 8f3c
00000180: 84d5 7b3d 60fa 663e 8a7e 30be 264d e2bd
00000190: 7e44 4fbd 7f68 583d c624 97bd 9acf 10be
000001a0: 1b35 c73d 0f54 2abe 9206 1dbf 0bf5 cdbe
000001b0: 898d 663d 6af5 c9bd 7e40 5c3e 9eec 1cbe
000001c0: e3e3 98bc e952 673e a9af a43e 4b03 263e
000001d0: e699 b3bd c909 aabd 9ce1 2f3d 3ed2 743e
000001e0: 6327 0d3e b13f f63d d6bd 803c 2e38 96bd
000001f0: f484 1bbe c802 813e 2d78 ccbd 3494 b3bd
00000200: 1f79 1a3e 3fea a3bd 2135 7b3c f221 283d
00000210: 0d75 7a3d e469 2f3e 9de0 143e 3412 75be
00000220: 70d3 ba3d c153 7ebe dae1 903c 5564 da3b
00000230: 77d3 11bd d8cc 133d bcdb 03bd df15 0c3e
00000240: 848c d03d cfc4 833d fcec 98be 3520 a1bd
00000250: 86b9 06bf 7140 fbbd d0bd d53c b242 8abd
00000260: fc23 63be 71bb 06bd c43a 1b3e a9d6 e9be
00000270: fe25 bc3d c196 f8bd e046 2c3e e842 f9bc
00000280: fe30 a1be b5ab 853d 302d f13c 064d d33c
00000290: dba0 11be f5dc de3c b01d 9abe c6c7 39bc
000002a0: c582 8a3d 6358 a63d d591 703e 9216 d63b
000002b0: bfb1 96bd 18d9 c03d b5b9 06bd 8711 f7bd
000002c0: d7ed 3b3e c248 84bd c9e7 9dbd db42 8e3e
000002d0: 0a5a b23d 3948 f4bd c8ed ecbd eae3 9b3b
000002e0: 4ad1 f6bd bd71 5cbe dc33 733d c539 bd3d
000002f0: 3700 2c3d e35a 6eb8 8683 1ebe f670 7e3e
00000300: 041f 73be 85f2 aa3d 3c89 013d 3ba3 c53d
00000310: d859 d6bd 4f4d 54bd b7d9 5dbc 081d d6bd
00000320: 4667 04bd 757f 98be 2435 bc3d e5bc 4d3d
00000330: 8297 4dbe cafb 14be 0fe4 153e 3ee2 df36
00000340: a48e d7bd 74e2 b43d 830a 3fbe 94e3 a63c
00000350: 614a 4139 81ae 3f3d a11c 293e d014 aabe
00000360: 2b1b c5bd 0a13 b13c 3e6d 423d 0386 24bd
00000370: 1297 013e 1ff4 30be 4771 3abd 8110 6abe
00000380: c543 f7bd 0716 b03d 1651 76be 4191 83be
00000390: 3d72 2ebe bad7 2dbe ff52 843d 9b52 973d
000003a0: 6009 3c3e 3e6f dfbd 4931 803e f7d1 15be
000003b0: c26a c6bb d707 15be 0567 243d e82c 2bbe
000003c0: 538a f13d 7eef a23d 7779 85bd c183 a23e
000003d0: b844 3a3d 7890 6fbd a8a3 9dbd c657 4d3e
000003e0: b7a9 ebbd c366 dabe e130 153e acdd 193e
000003f0: d749 263d db70 19bd 33ac 603d 2b21 573e

fc_2.bias f4 [64]
0.16095386 0.18966493 -0.078117415 0.05138718 -0.00051987317 0.054608174 -0.069117054 0.014101851
-0.07088963 0.1196148 0.23954895 -0.06269088 0.18856865 0.1297134 0.17467122 -0.3555001
0.0031667964 0.2282451 0.08078343 0.020940866 -0.08085781 0.035680745 0.24752036 0.03435059
0.159641 0.21181637 0.041038062 0.22888751 -0.05027181 0.10338707 -0.12662499 -0.12929046
-0.0282187 -0.11050435 -0.030809803 -0.10853347 0.21573092 -0.023967056 -0.09899311 0.13568175
-0.017722344 -0.07295705 -0.02945339 0.111570954 0.28865412 -0.06977074 0.026365867 -0.01703418
0.1335897 0.035926796 -0.040787082 -0.025061367 -0.12701175 -0.15752563 0.13306056 0.16970631
0.015141673 0.14729586 0.0792109 -0.0025380868 0.015805395 0.020337418 0.1754776 0.004639178
00000000: 17d1 243e 8637 423e 06fc 9fbd 5d7b 523d
00000010: 1948 08ba d2ac 5f3d 3e8d 8dbd 730b 673c
00000020: 952e 91bd 9bf8 f43d 524c 753e 1364 80bd
00000030: 2418 413e 97d3 043e 03dd 323e 1c04 b6be
00000040: 078a 4f3b 15b9 693e c871 a53d 2e8c ab3c
00000050: c898 a5bd f925 123d fa75 7d3e 34b3 0c3d
00000060: ee78 233e 64e6 583e 8717 283d 7d61 6a3e
00000070: d0e9 4dbd 9abc d33d fba9 01be b864 04be
00000080: e72a e7bc 1b50 e2bd d764 fcbc cc46 debd
00000090: 91e8 5c3e 8f56 c4bc e6bc cabd 28f0 0a3e
000000a0: 732e 91bc 816a 95bd 3c48 f1bc 507f e43d
000000b0: 79ca 933e f6e3 8ebd 3bfd d73c 448b 8bbc
000000c0: bdcb 083e fa27 133d 5b10 27bd 7f4d cdbc
000000d0: 5e0f 02be 664e 21be 0741 083e 7ec7 2d3e
000000e0: c814 783c bad4 163e 5339 a23d 0856 26bb
000000f0: 517a 813c a89a a63c 66b0 333e 3f04 983b

fc_mu.weight f4 [1, 64]
-0.010199011 -0.25432336 0.1584988 0.09632211 -0.20100397 -0.06648729 0.41662812 0.06840128
0.01375394 -0.15873788 0.031846385 -1.1629212 0.06796835 -0.31193578 1.1335809 -0.68004143
0.024031887 -0.19481315 0.17878848 -0.24124676 0.3324903 -0.010723439 0.10369148 0.17570278
0.11626212 0.29627147 1.0305386 0.110137425 0.1896983 0.9814696 -0.47997802 0.005974083
-0.181011 -0.024243794 1.0737282 0.004814988 0.2033019 -0.0047582067 -0.0091648605 0.7865507
0.0031488854 -0.015395715 -0.011500679 -0.09256287 -0.1447523 -0.5081006 0.8346147 -0.17072332
0.055425197 -0.009943615 0.004853853 0.05059918 0.52400094 0.0023054571 0.23894836 0.0228844
-0.78509253 0.020705579 0.53101665 0.6423553 0.06988044 -0.7580545 1.2653971 0.09091229
00000000: c119 27bc ac36 82be 824d 223e 8744 c53d
00000010: fcd3 4dbe 7d2a 88bd 4850 d53e f815 8c3d
00000020: 3558 613c 2f8c 22be 5b71 023d 9ada 94bf
00000030: fe32 8b3d 0cb6 9fbe 2e19 913f 3217 2ebf
00000040: 85de c43c 197d 47be 5414 373e 6409 77be
00000050: 2b3c aa3e 5db1 2fbc 335c d43d 6eeb 333e
00000060: d61a ee3d e5b0 973e b0e8 833f bb8f e13d
00000070: 4540 423e 9741 7b3f aebf f5be 3ec2 c33b
00000080: f35a 39be ec9a c6bc ed6f 893f 0cc7 9d3b
00000090: 602e 503e bbea 9bbb 3628 16bc 635b 493f
000000a0: 885d 4e3b 4f3e 7cbc 586d 3cbc 9a91 bdbd
000000b0: f239 14be e212 02bf 4fa9 553f 18d2 2ebe
000000c0: 8805 633d 8bea 22bc 120d 9f3b 1641 4f3d
000000d0: ed24 063f 2717 173b e1ae 743e 1178 bb3c
000000e0: d3fb 48bf bf9e a93c b5f0 073f 6671 243f
000000f0: 7a1d 8f3d dc0f 42bf 88f8 a13f 3930 ba3d

fc_std.weight f4 [1, 64]
-0.18747926 -0.0760961 -0.026826803 0.15692572 0.1113668 -0.026108751 -0.160941 -0.067327656
0.023141675 -0.16827294 -0.21042469 0.30407417 -0.25279698 0.23421757 0.6087605 0.5028069
-0.061124854 -0.013275917 -0.055674408 -0.08579479 -0.025878387 0.223589 -0.1826164 0.3583307
-0.04556907 -0.14443605 0.039308928 -0.30246618 0.022245312 0.5637138 0.09759157 0.10453374
-0.04863647 0.17320062 -0.034789123 0.09842939 -0.25161874 0.066834554 0.05563884 0.29771322
0.10667849 -0.03617612 0.0987512 -0.19213197 -0.2512337 0.19711886 0.2311735 -0.2079009
-0.09361026 0.0014713765 0.056294225 -0.15489945 0.106253795 0.04709933 0.02968892 -0.2871373
0.33305538 -0.06799425 0.51875603 0.25575644 -0.05290619 0.3154787 0.3767798 -0.03983395
00000000: 90fa 3fbe 46d8 9bbd e2c3 dbbc 23b1 203e
00000010: 4714 e43d 05e2 d5bc b8cd 24be 15e3 89bd
00000020: 9c93 bd3c be4f 2cbe 9279 57be 9caf 9b3e
00000030: 9b6e 81be bbd6 6f3e bad7 1b3f f4b7 003f
00000040: 0e5e 7abd 3b83 59bc d90a 64bd 2eb5 afbd
00000050: e9fe d3bc 84f4 643e cbff 3abe 1f77 b73e
00000060: a2a6 3abd 0be7 13be 6602 213d d9dc 9abe
00000070: cd3b b63c 8c4f 103f 17de c73d c915 d63d
00000080: 0937 47bd 815b 313e 0a7f 0ebd 5995 c93d
00000090: 2cd4 80be 8ee0 883d 8de5 633d de6d 983e
000000a0: 417a da3d 692d 14bd 123e ca3d 3ebe 44be
000000b0: b4a1 80be 87d9 493e bfb8 6c3e f9e3 54be
000000c0: bcb6 bfbd 34db c03a c694 663d f69d 1ebe
000000d0: 979b d93d 3aeb 403d 2e36 f33c a903 93be
000000e0: 3c86 aa3e 9240 8bbd 32cd 043f 82f2 823e
000000f0: 29b4 58bd 6d86 a13e 48e9 c03e ed28 23bd
