Pendulum_SAC/saved_model/0404/sac_actor_EP170.pt (torch, 20559 bytes, 6 tensors)

fc_1.weight f4 [64, 3]
00000000: c7cc 203f 78a4 28be 05d1 edbe 62dc 1abe
00000010: 567f 42bf 66dd e1be 1b7e 29bf 19f0 173f
00000020: 02da e83e ee32 90be b74c 253f e307 bbbb
00000030: fa4f f53e 952e 5cbf d8a5 e43e 09d4 203e
00000040: 84d3 babf 640a e0be cb17 febd f85b 6e3f
00000050: 2feb 04be f53b cfbe 6c33 9cbf 58c4 bfbe
00000060: 0317 513f 24b4 3c3a bed3 a1be 2515 443f
00000070: a3de a1bf 17fa 14bf 771b 9b3e 009d 723f
00000080: df6b 61be 7945 11be d811 f03e 88e1 9ebd
00000090: 8aad 8abe a7df 79bf 0713 17be 8632 333e
000000a0: 39a4 98bd 2964 b33c 146e ae3d 8381 993f
000000b0: c456 133f 4a04 ed3c a5e5 0cbd 6225 19bf
000000c0: 2bb8 f03d 11b3 75bf 6f24 013d 2504 f53e
000000d0: faa1 ed3f 154f bc3d 9d74 76bf 0741 90bd
000000e0: 5b95 5dbd 2484 0abe ed64 a93f 9207 643e
000000f0: eb00 92be aa70 eabf 3fe0 c0be d890 d8be
00000100: 2156 343d e291 a8be 3bd6 86be 2674 6c3f
00000110: 6919 d83d 3e50 a63e 2bad 80bf 020b b0be
00000120: 585e 37bf 3a1f 44bf 53ef 4fbd 7c4e 0b3f
00000130: 6d5b e2be cb8f bebd 86ac 573f e427 7e3f
00000140: 0854 8a3d 3121 09bf 1adf ddbf 9148 e7be
00000150: 5f3e 39be 2b11 793f a90b 413f eb88 39be
00000160: 408c 68bf 26ad 93be 83b5 133d c3b6 91bf
00000170: 7594 fbbe d55a 03bf 3e26 d9be 43d1 123e
00000180: a493 4fbf 9fb1 1a3e 38be 01bd 83f4 043f
00000190: 380c 163e b554 bebd ff2a ea3d 9d70 83bf
000001a0: 8365 8dbe 5905 373f feee acbf 5416 cabe
000001b0: ef77 f9bd b412 8dbf 06a4 f3be e10b 073e
000001c0: d485 c1bf 05ff 70bd a081 18bf 0bd1 c03c
000001d0: 0b32 aebe 13b3 2dbf 8c3f 2e3f 0bb4 b83e
000001e0: aa7a e7be 605b ff3e 07f3 293d dc43 1c3f
000001f0: 7e9c 37bf 00d8 9bbe 66b1 55be aeac e53f
00000200: fedd b63e 2ec9 b1be cb42 2e3f 1212 b2be
00000210: 6656 0abf c3b4 12bf 5260 01bc b342 183f
00000220: 2a0e 2b3d ee2d 01bf 5740 513f 0a78 57bf
00000230: a2a7 0c3f ddd3 8c3c 4465 80be aac2 e3be
00000240: 27e3 48bf 6796 0abe 23bb 83be 035e b13e
00000250: 4bf4 ac3f 47ad dc3e ad5e 783f 50dc 06bc
00000260: 6463 c33e a567 44bd 2179 e03d c6a3 cabe
00000270: b869 00bf 10b2 153f e1bc 57be 1c17 c13e
00000280: d89f eabe 6aba adbe 4747 413e 83bd c4bd
00000290: 5532 96be 7609 363f d872 9b3f ce0f e43e
000002a0: ffd6 7cbf 0d15 9d3d b3ec 9dbd 14f3 6bbf
000002b0: c986 b33e 9197 593d 2b39 78bf 7556 00bf
000002c0: 94f5 c1bd 4678 873c 9306 023f ec0d 25bf
000002d0: 3af2 1c3d 2fba afbf bbea 1bbf 6ae5 123e
000002e0: ca59 50be 30e8 243e e3ed 3ebe 14fb b0bf
000002f0: 3fb3 12bf ed9b 133e 0f7a 863f 6c5b 84be
0.62812465 -0.1646899 -0.46448532 -0.15123132 -0.7597555 -0.44114226 -0.66208047 0.59350735
0.45478827 -0.28163856 0.6457018 -0.0057077273 0.4791258 -0.8600858 0.4465778 0.15705885
-1.45958 -0.43757927 -0.12406882 0.93109083 -0.1298034 -0.4047543 -1.2203193 -0.37454486
0.8167574 0.0007198474 -0.3160686 0.76594764 -1.2646068 -0.58194107 0.30294392 0.94770813
-0.22013806 -0.14186658 0.46888614 -0.077578604 -0.27085525 -0.9760689 -0.14753352 0.17499742
-0.07453198 0.021898346 0.085170895 1.1992649 0.5755427 0.02893271 -0.034398694 -0.59822667
0.11753877 -0.9597636 0.031528886 0.47854725 1.8565056 0.09194771 -0.9627169 -0.07043653
-0.054097515 -0.1352697 1.3233925 0.22268513 -0.28516325 -1.8315632 -0.37671086 -0.42298007
0.04402745 -0.329238 -0.2633532 0.9236473 0.105517216 0.32483095 -1.0052847 -0.34383398
-0.7162833 -0.7661015 -0.050765347 0.5441663 -0.44210377 -0.0930477 0.84247625 0.9927962
0.06754309 -0.5356627 -1.733371 -0.4517255 -0.18090199 0.9729182 0.75408417 -0.18118636
-0.90839005 -0.2884304 0.036061775 -1.13839 -0.491367 -0.51310474 -0.4241199 0.1433764
-0.81084657 0.1510682 -0.031675547 0.51935595 0.14653099 -0.092935 0.11433982 -1.0268742
-0.2761651 0.71492535 -1.3510435 -0.3947016 -0.12181079 -1.1021333 -0.47586077 0.13188125
-1.5118966 -0.058836956 -0.5957279 0.02353718 -0.34022555 -0.6785137 0.68065715 0.36074862
-0.45210773 0.498744 0.041491535 0.61041045 -0.71723163 -0.30438232 -0.20868453 1.7943323
0.35716242 -0.347238 0.6807067 -0.34779412 -0.54038084 -0.5730707 -0.0078965 0.59476775
0.041761555 -0.5046071 0.817388 -0.8416754 0.5494329 0.017190868 -0.2507726 -0.44484454
-0.78471607 -0.13533936 -0.2572871 0.34642038 1.3512052 0.4310095 0.97019464 -0.0082312375
0.38161767 -0.047950406 0.109606035 -0.39578074 -0.50161314 0.58474827 -0.21068145 0.37712944
-0.45825076 -0.33931285 0.18874846 -0.09606459 -0.29335275 0.71108186 1.2144423 0.44543308
-0.9876556 0.07670031 -0.077111624 -0.9216778 0.3506377 0.05312306 -0.9696223 -0.5013192
-0.094706684 0.016536843 0.5079128 -0.6447437 0.038316943 -1.3728694 -0.60905045 0.14345327
-0.20346752 0.16104198 -0.18645434 -1.3826623 -0.5730476 0.1441495 1.0505999 -0.25851

fc_1.bias f4 [64]
00000000: ac42 06bf e16f 153d 029e 6ebe 4ef5 843e
00000010: 6180 06bf 7798 783e 1069 293e e6a0 c03e
00000020: d2bc 67bf 19af 05bf ae2a 83be 7c6a c03e
00000030: a33d dd3e 45ac 84bd f29f 49bd 7c91 d2be
00000040: 88e2 33be 133d e838 2289 8d3e b477 723e
00000050: b305 acbe 7bf0 c8be 0c22 c13e 9295 a43d
00000060: 286d fd3e b6ea 8c3d 75a0 0abe 2c66 b9be
00000070: dfbe 79be d473 283e a7ec 083e c1bb 49bf
00000080: b26c 1c3f aa00 5a3e b918 343e fbef 91be
00000090: 1fb4 963e 9972 dd3d 99e2 0cbf 138a 44be
000000a0: e16b 843e 45e2 e3be 35ad e2be f509 ccbe
000000b0: 6a0b b23e fab1 d5be 1c85 08bf 74cf ce3d
000000c0: 1f6e 8dbe 5ce9 adbe d698 7abf 0663 75be
000000d0: 76f3 b73e 395f 5bbf ac05 acbf a74e 1bbf
000000e0: a6dc c83d dd31 40be f7c8 15bf 8633 0abf
000000f0: f0c9 2d3e bcef 07be 1f7d 76bd 2038 f9bd
-0.52445483 0.03648365 -0.23302463 0.25968403 -0.5253964 0.2427691 0.16543984 0.37622756
-0.9052249 -0.522203 -0.256185 0.3758124 0.43211088 -0.0647817 -0.0492248 -0.4112662
-0.17566884 0.00011073998 0.27643687 0.23678476 -0.33598098 -0.39245972 0.37721288 0.08036341
0.49497342 0.06880705 -0.13537772 -0.36210763 -0.24389218 0.16450435 0.13371526 -0.78802115
0.61103356 0.21289316 0.17587556 -0.28503403 0.29434296 0.108128734 -0.5503326 -0.19193296
0.25863555 -0.44508567 -0.4427277 -0.39851347 0.34774333 -0.41737348 -0.5332811 0.10098162
-0.27623078 -0.33967102 -0.9788946 -0.23963556 0.35927933 -0.85692173 -1.3439231 -0.6066689
0.0980771 -0.18769021 -0.58509773 -0.5398487 0.16971564 -0.13275045 -0.06017792 -0.12168908

fc_2.weight f4 [64, 64]
00000000: 5119 8d3e 5362 363e 5662 3dbe c6bd 25be
00000010: 83c2 393e 9ecf 073e a164 22be d0dd ddbd
00000020: 5540 f13e e944 433e a651 18be c86e 86bd
00000030: 4789 81bc 8202 f6bd 2b66 8abd e9d9 b73d
00000040: a3f6 193e a9f7 b0bd 8223 41bf c328 68be
00000050: 1b2f a6bc 3fd5 95bc d055 d0bd 93a1 4e3d
00000060: 84f0 b8be f9c7 d83d d8bd 4b3d 4ccc 0bbe
00000070: c9c1 ad3d fb51 f2bd 1fe9 133e 0380 81be
00000080: 0b31 bcbe 2280 153e 45b7 143e 7bd5 09bd
00000090: d003 42ba 3245 ed3d 3d51 25bf b1f1 88be
000000a0: 4034 46be af21 2f3e 2e97 dabe 628d 1a3d
000000b0: bf29 89be 1049 ce3d 1aa2 9eba 3787 c6bb
000000c0: b825 6abf 7020 2cbf 022d 7b3e cffe acbd
000000d0: a0ae f93c 05fd e73d d9b1 253e 98d9 f8be
000000e0: eb00 7bbf 2cd6 f9bc de36 bbbf be18 02be
000000f0: 9661 003e 5e46 8c3d 9344 143e 4b88 3fbb
00000100: f110 b03c c9f1 153e 4b45 83bd 8c4d 593d
00000110: 8850 ce3e a717 c2bc 7d32 c2bd 38ec f63d
00000120: 5850 5ebe 84f3 a73d 59f5 62be dbe5 223d
00000130: 29ad 653e 7fd2 a03e 84df 35bc 3087 823c
00000140: c57d 2f3e be7a 02be 1913 a8be 9da2 323d
00000150: 6e50 9dbd e420 b5be cb47 a8bd cc9c 1abe
00000160: 4d2c 553d 68d0 a23e e117 873d 2684 97be
00000170: 8887 c3bf fd57 ca3d 987d 0dbd ca65 95be
00000180: 9187 c7bd 7c4e 363e 7891 1bbe 5f96 99bd
00000190: 96d2 a1bd c858 463e e12a 21be 11c9 3fbe
000001a0: 981c 0cbe 9077 dcbd 575d 9fbf 86f8 abbe
000001b0: fbd5 4e3d bef3 b6bd ab32 9d3e 61a5 f9bd
000001c0: 3517 a2bd 46bd ab3e f6e6 9c3e fb28 2c3e
000001d0: 5700 0ebe 0515 fcbe 5b90 a4bd 0ce5 8f3e
000001e0: dbf5 b8bd 031a 7e3e 00a0 9d3b 14ab dabc
000001f0: de93 96be 7823 c13e f360 f5bd 25e8 0ebe
00000200: 4a05 3d3e 8ab9 81bd 7eba f53d 8d72 0f3e
00000210: 1931 263e 1d3d b83d 5041 623e ff9f dabe
00000220: 19b1 c63d 1ecc cdbe 69fa 2d3e c197 cbbc
00000230: 2291 9dbe 173d 12be ce1b bd3c ce37 503e
00000240: 2587 33bc 78bf 353e dd35 69be f0a8 fbbc
00000250: 42d3 0dc0 ba54 e1bd 59e8 773d bc7a 3dbe
00000260: f406 12bf 45f0 92be 1bb6 33bc c780 dbbe
00000270: 4c94 303e 39cc 45be 0cae 2b3e 5ef8 103e
00000280: dc28 6cbe 923f 49bd 03b9 f0bd 0843 48be
00000290: ec9c 55be 862c 4abd e030 9cbe fb0c b43d
000002a0: 8662 033e 984c 66bd 17c0 b63e 0e7a d13d
000002b0: 01ba 75be 7807 fe3d 6375 5fbd 83df ecbd
000002c0: 7829 733e 0500 be3c 87c4 2abd 6d1a b03e
000002d0: 76af 0e3e c630 a0be 83b8 fbbd 96f0 ce3d
000002e0: b0e5 fbbd c0b1 c4be 330c c83e f0ce 2a3e
000002f0: f4d2 ee3c a3e1 35bd 9a01 13be 5e16 9d3e
00000300: 0529 54be 6944 c13d 1300 213d 1218 1f3e
00000310: 1e7a 02be 654d 0fbe bc80 dc3d e544 9dbe
00000320: 907c 5dbd 544a eebe 0b07 9c3e 315b 9d3d
00000330: 2b69 c0be e6a8 e8bd e2f4 073e 9d08 b43d
00000340: 4f44 90bd a2c1 a23e a891 69be 44b5 b93d
00000350: 76bc cc3d 7c02 9c3c b19b 633e b879 dbbe
00000360: 7338 ecbe 65ae cd3d 545a ddbb 1ecc 3fbf
00000370: 7438 f63d f7d2 89be 629c b4bd c595 5fbe
00000380: a0cc f9bd cb3f ce3d 8368 dbbe f04f f6be
00000390: fb68 43be 5624 99bd f5ac 32be 683f 9e3d
000003a0: 9bb8 553e c83e a3be 1f9e ae3e 4d6d 0fbe
000003b0: 38d8 58be 7d44 91bd 0358 cbbc 134f 01be
000003c0: f1e8 88be 9bd6 df3d f819 e5bd 75f0 de3e
000003d0: 9736 373e bfa9 19bf 11fa 16bf 9a3c 553e
000003e0: 843c edbd ca28 00bf 07b4 dfbe ab80 893e
000003f0: a87c 883c cfdb fdbd e8b2 923c 5c85 ab3e
0.27558377 0.17810945 -0.18494543 -0.16185674 0.18140607 0.13262793 -0.158587 -0.10833323
0.47119394 0.19069256 -0.14874896 -0.065640986 -0.01581253 -0.12012197 -0.06757768 0.0897711
0.1503549 -0.086409874 -0.75444806 -0.226718 -0.020286134 -0.01829016 -0.101726174 0.050447058
-0.36121 0.10585017 0.049741596 -0.13652152 0.08484227 -0.11832043 0.14444397 -0.25292978
-0.36756167 0.1459966 0.14523037 -0.033650856 -0.0007401081 0.115854636 -0.64577085 -0.26746896
-0.1935587 0.17102693 -0.42693466 0.03773249 -0.26789662 0.10072529 -0.0012102753 -0.0060585993
-0.91463804 -0.67236996 0.24528888 -0.084470384 0.030478776 0.113275565 0.16181125 -0.4860351
-0.98048276 -0.030497633 -1.4626119 -0.12704751 0.12537226 0.06849359 0.14479284 -0.0029225524
0.021492453 0.14643015 -0.06409701 0.05305247 0.40295815 -0.023692919 -0.09482286 0.12056774
-0.21710336 0.08200744 -0.22163905 0.03976999 0.22429337 0.31410596 -0.011100654 0.015933603
0.17137821 -0.12742135 -0.3282707 0.04361211 -0.07681356 -0.35376656 -0.082168184 -0.15098876
0.0520442 0.31799626 0.065963514 -0.2959301 -1.5275736 0.09880064 -0.034543604 -0.2917922
-0.09742654 0.17803377 -0.1519221 -0.07499384 -0.07901494 0.19369805 -0.15739013 -0.18729044
-0.13682783 -0.10764992 -1.245036 -0.33588046 0.050497036 -0.08933209 0.3070272 -0.12189747
-0.07914583 0.33542842 0.3064496 0.16812508 -0.13867317 -0.49234787 -0.08035346 0.28104436
-0.09031268 0.2481461 0.0048103333 -0.026692905 -0.2940969 0.37722373 -0.11981382 -0.13955744
0.18459049 -0.06334217 0.11998461 0.14008541 0.16229667 0.089960314 0.22095227 -0.42700192
0.097017474 -0.40194792 0.16990055 -0.024852635 -0.3077479 -0.14281116 0.023084547 0.20333788
-0.010957514 0.17748821 -0.22774453 -0.030720204 -2.2160192 -0.110024884 0.06052432 -0.1850385
-0.5704186 -0.28698936 -0.01096871 -0.42871687 0.17244071 -0.19316186 0.16765612 0.14157245
-0.23062462 -0.04913289 -0.11754038 -0.1955682 -0.20860642 -0.049358867 -0.3050604 0.08791538
0.12830552 -0.05622539 0.35693428 0.10228358 -0.23996736 0.12403768 -0.054555308 -0.11566069
0.23746288 0.023193369 -0.04169133 0.3439516 0.1393412 -0.3128721 -0.12291052 0.10104482
-0.12299669 -0.38416862 0.39071807 0.16680503 0.029153325 -0.044404637 -0.1435608 0.30681127
-0.20718773 0.09436876 0.03930671 0.15536526 -0.12741897 -0.13994367 0.10766742 -0.30716625
-0.05407387 -0.46541083 0.30474123 0.07683409 -0.37580237 -0.1136034 0.13277009 0.08790705
-0.07044279 0.31788355 -0.2280947 0.09067777 0.099968836 0.019044153 0.2222736 -0.42866302
-0.46136817 0.10043029 -0.0067551527 -0.74920833 0.12022486 -0.26918766 -0.0881889 -0.21834476
-0.12197232 0.10070761 -0.42853174 -0.48107862 -0.19083016 -0.07477634 -0.1744879 0.077269375
0.20871203 -0.31883836 0.34105012 -0.14006539 -0.21176231 -0.07093141 -0.02482224 -0.1262782
-0.2674022 0.109296046 -0.11186594 0.4354283 0.17891918 -0.60024637 -0.5897532 0.20823899
-0.11583808 -0.5006224 -0.43692037 0.26855978 0.016661003 -0.12395441 0.017907575 0.33500183

fc_2.bias f4 [64]
00000000: 9f92 b23d 5bae 393e 8190 77be 6cc1 de3b
00000010: edc3 583d aa97 09be f7c4 3abe 86ed 1c3d
00000020: 8731 90bd d7b5 913d f971 c93e 20d3 91bd
00000030: f156 aa3e 034d d73d ee2e ab3d 91f3 a9be
00000040: dd55 543b de01 493e 4930 3b3e 9cee 9abd
00000050: 6599 00be 5338 413d e0fe 813e d5ba 253d
00000060: b6f5 d63d 83fb 3a3e 6c63 9e3d 5bde 223e
00000070: 706d 55bd de99 933d 61c3 38bd e4ce f9bd
00000080: a835 a0ba 67c1 8abe f6a0 bcbd 3c78 40be
00000090: e8aa 353e 68ee f7bd dc68 45be 1b92 de3d
000000a0: 5ba0 e4bd b8e1 c7bc 6f08 143e 88f4 cd3d
000000b0: 9558 9f3e 84b4 a1bd 4509 eab8 a964 1cbe
000000c0: 28b0 8f3d 821f 4abd 5c2c 00be b0d3 003c
000000d0: 9c88 89be ea3f 2fbe a22a f63d 7a6d 363e
000000e0: 28f4 a8bd 2228 5f3c d6e0 c83d 92db 67bd
000000f0: ef05 e9bc 1093 993d dbbb 443e 983e 23be
0.08719372 0.18132918 -0.24176218 0.00679796 0.052921224 -0.13436761 -0.18239199 0.038312458
-0.070406966 0.07114761 0.39344767 -0.07120347 0.33269456 0.10512736 0.083585605 -0.3319364
0.0032399811 0.19629619 0.18280138 -0.075650424 -0.12558515 0.047172856 0.25389767 0.04046138
0.104960844 0.18260007 0.07733807 0.15905134 -0.05210632 0.07207082 -0.045108203 -0.121976644
-0.0012223022 -0.2710068 -0.09210388 -0.18795866 0.17740977 -0.12106019 -0.19278282 0.10867711
-0.11163398 -0.024399623 0.14456342 0.10056406 0.3112227 -0.07895759 -0.00011159716 -0.15272774
0.07016021 -0.049346454 -0.12516922 0.00786297 -0.26862037 -0.17114225 0.1201985 0.178152
-0.08249694 0.013620408 0.09808509 -0.056605883 -0.028445212 0.07498753 0.19212286 -0.15941846

fc_mu.weight f4 [1, 64]
00000000: 9808 e53d d8f5 d9bd 708f 0d3e 1605 013e
00000010: 65d5 c6bd a41f 79bf bc14 3a3e 3f95 c33b
00000020: 1377 493c f366 5a39 3d2b 88be 1a4f c1bf
00000030: 6098 f43c 7baa 12be 3143 2040 b90e b9be
00000040: a50d 203f e7fe e4be 241b 013f 1d4d f1be
00000050: 287c 4b3e 46f3 033f f01b 083e 21b8 723f
00000060: 4d22 083e 38e0 743e a603 203f 4d3e 663b
00000070: 55b8 7e3e fb87 a43f 1ba5 7cbf 555f 25bc
00000080: f9f6 a2bd ca62 9ebe 1e70 a63f caa6 a2bb
00000090: a2a1 7a3d 6e82 28bc 45e4 a7bc ee93 843f
000000a0: e0e7 babc d1cc 093d 8de6 d1bf 1c13 57bd
000000b0: 4e92 2ebd 6f64 7abf 5872 873f a601 0ebf
000000c0: a09c 7c3d 6178 5c3b 2631 c5ba c9a9 003e
000000d0: 30cf 9f3f ba8b e2bb 1205 173e 5ce5 013d
000000e0: 340d a1bf d89c 253f 0f2c 063f 4f20 633f
000000f0: 01f1 0bbc 1391 73be b7a5 bb3f 1823 88be
0.1118328 -0.10642594 0.13824248 0.12599596 -0.097086705 -0.97313905 0.18171972 0.0059687193
0.012296456 0.00020828452 -0.26595488 -1.5102265 0.029857814 -0.14322846 2.504101 -0.36144045
0.6252082 -0.44725725 0.5043204 -0.47129145 0.1987158 0.5154308 0.13291907 0.9481221
0.13294335 0.23913658 0.6250557 0.003513235 0.24875005 1.2853998 -0.9868943 -0.01009353
-0.079572625 -0.30934745 1.3002965 -0.0049637305 0.0611893 -0.010285003 -0.02049459 1.0357645
-0.022815645 0.033642594 -1.6398484 -0.05250846 -0.042619996 -0.978095 1.058177 -0.55471265
0.061672807 0.0033641087 -0.0015044555 0.12564768 1.2485104 -0.0069136294 0.14748028 0.031712875
-1.2582154 0.6469245 0.5241098 0.88721174 -0.0085413465 -0.2378581 1.4659947 -0.26589274

fc_std.weight f4 [1, 64]
00000000: 3eb1 cdbe d0bc c3bd 4016 1dbe 92a1 e83e
00000010: 4e46 54bd 6c4a 6a3e 6fd6 13bf fc5f 0abf
00000020: 2e03 8dbc 4f2d e1be 8fb3 38be 2369 563f
00000030: 911f e0be a92b c33e b353 da3f 04e4 9a3e
00000040: 0ff2 0cbe 8edf ad3b 9571 a8bc 81e8 633c
00000050: 5063 8d3d b75f 7e3f 7272 89bf 5a4c 7b3f
00000060: 2e85 97bd 3154 c4be 1458 06bf 9ba6 bebe
00000070: 6f53 0a3f 087e 483f f5b5 0c3f cf7c b33e
00000080: 2d59 04be 3b01 6c3e 85d3 a93d d0a5 713e
00000090: 296d 07bf 01b5 803d 6459 0f3e 672a ff3e
000000a0: 1ccd ec3d 538a 86bf 0a8b 273f 9b14 48bf
000000b0: fb43 f0be def9 e13e 79dc d53d 9904 093f
000000c0: 47cb 3cbe f5e9 e63d 1349 833c a42c 023f
000000d0: b641 43be 280e 03bc 5355 993d 3fa2 17bf
000000e0: df19 463f 0a14 513e 98c0 323f 15b2 97bd
000000f0: 2b61 efbd 41a1 053f 92e3 e23e 8d7c 503e
-0.40174288 -0.095574975 -0.15340519 0.45435768 -0.05182486 0.22879952 -0.57749075 -0.5405271
-0.01721343 -0.4397988 -0.18037246 0.83754176 -0.43774083 0.38119248 1.7056793 0.30252087
-0.13764213 0.005306191 -0.020561973 0.013910414 0.06903708 0.993648 -1.0738051 0.9816338
-0.07398449 -0.38345483 -0.52478147 -0.37236485 0.5403356 0.7831731 0.54965144 0.3505616
-0.12924643 0.23047344 0.08292297 0.23598409 -0.5290094 0.06284524 0.13998944 0.49837038
0.11562559 -1.0510963 0.6544653 -0.7815644 -0.46926865 0.44135946 0.104424424 0.5352264
-0.18436919 0.112750925 0.016026055 0.50849366 -0.19068035 -0.007998981 0.074869774 -0.5923194
0.77383226 0.204178 0.69825125 -0.07407013 -0.11688455 0.5219918 0.44314247 0.20360012
