Pendulum_SAC/saved_model/0404/sac_actor_EP320.pt (torch, 20559 bytes, 6 tensors)

fc_1.weight f4 [64, 3]
00000000: c943 243f a9ee f7be 6d08 f4be 0807 30bd
00000010: 7c46 48bf 1996 c4be f11e 37bf c528 333f
00000020: bdee e63e fb00 b1be 5590 853e 98c2 87bd
00000030: 5421 0a3f a155 19bf cf78 1f3f 83af 6f3e
00000040: c83c c2bf 75ba 0bbf 8452 36be 4587 603f
00000050: 091d 3ebe 707e e2be 1d64 9bbf 3100 a2be
00000060: 00f2 713f 9f54 80be 35db c2be e77a 4d3f
00000070: bbd6 abbf 7187 0abf 23c1 4e3e a20f 8a3f
00000080: 3951 babe 89b9 903d 27fd 333f 4f21 3dbe
00000090: f848 a3be d9c8 83bf 0361 43be 6aa8 313e
000000a0: ba75 a2bd 9154 793b f5e6 383d 247d b53f
000000b0: afac 1b3f ee12 0e3e f82e e7bc 805a cabe
000000c0: e812 193e f617 52bf 4c67 0bbb d38f fe3e
000000d0: d87c ed3f dc52 1dbd 28ea 92bf 019f a1be
000000e0: fc18 033c 3859 c3bd 0b03 b93f f850 813e
000000f0: b0bf d7be 6e95 00c0 667b bebe 35ca cebe
00000100: 0304 48bd 7a23 90be e45d 8bbe 4bd7 853f
00000110: 7e21 223e 9638 b03e bd19 89bf 1364 b8be
00000120: 0b53 43bf 3820 81bf d566 bf3c 46c2 1c3f
00000130: c91e 2ebf 4798 6f3d 2503 053f 24d4 8e3f
00000140: 2cef 183e cfe8 efbe ed2d ffbf 1eb0 dfbe
00000150: 734a 1cbe 19b7 893f b601 433f fd0b d1bd
00000160: 5001 70bf 0d9d 45be b1b9 673d 978d a9bf
00000170: 7fba 06bf f80e 4abf 1929 acbd c91c 223e
00000180: c4ac 47bf bcc8 4dbc 6f36 b5bc f186 de3e
00000190: 628f 953d d61a 033d 62d2 363e 637c 83bf
000001a0: e607 9ebe 23a5 503f bcbd bdbf 099d c2be
000001b0: 4566 c2bc c71e dbbe 071c 5cbf 91a8 213e
000001c0: b2a6 c6bf 67fa f8bd 9932 f0be 017a efbd
000001d0: a105 6fbe b886 27bf 8ad1 4c3f 250d b83e
000001e0: 5f01 19bf eb10 c43e 5ac7 c5bc d39e 3e3f
000001f0: 7df2 5bbf aabe 98be 118c b2be 591c f53f
00000200: d86e aa3e 35d7 0abe 8013 233f e2b2 bebe
00000210: a92f 30bf 83f9 44bf f955 e43d cd72 173f
00000220: 1c06 33be 97d8 1abf ed48 6d3f 0785 3fbf
00000230: 8961 013f c246 ac3d 533a 73be 132a 14bf
00000240: 11f7 66bf a761 f6bd 6ce9 39be b2bc dc3e
00000250: ded6 b13f db88 f33e a755 893f d68d 6f3d
00000260: 37f4 c83e 9f07 c63c 2918 6abd 82dd 7bbe
00000270: 6a0f 18bf 1525 2d3f aa04 13be 760f 313f
00000280: 9e5a b1be c79e aebe 9d00 e23e c235 913d
00000290: e4d0 aabe 609e 533f dced b13f 1ca1 de3e
000002a0: e438 8ebf ff60 ae3e 4d67 09bd b8f0 84bf
000002b0: 188b 07be c6c6 2c3d 3d67 96bf ba58 5bbf
000002c0: d39b 1dbe 22ab b9bd 910b 143f 0cbf 2dbf
000002d0: 071e 883d b322 c4bf e44d 1abf d952 003e
000002e0: d8e7 f2bd 7d20 043e c0fa a1bd 85d1 cabf
000002f0: 84e1 18bf 60d2 803d f6ac 863f 7729 a6be
0.6416593 -0.4842427 -0.47662678 -0.042975456 -0.7823255 -0.38395765 -0.7153159 0.69984084
0.45104018 -0.3457106 0.2608668 -0.06628913 0.53957105 -0.59896284 0.62293714 0.23406796
-1.5174799 -0.54581386 -0.17804915 0.87706405 -0.18565764 -0.4423709 -1.2139927 -0.3164077
0.9450989 -0.2506456 -0.38057867 0.8026566 -1.3424906 -0.5411292 0.20190863 1.0786021
-0.36390093 0.07066638 0.70308155 -0.18469737 -0.31891608 -1.0295669 -0.19079976 0.17349401
-0.07932611 0.003804479 0.045142133 1.4178815 0.6081037 0.13874409 -0.028220639 -0.3952217
0.14948618 -0.8206781 -0.0021271287 0.49719104 1.8553724 -0.0384091 -1.1477709 -0.31566623
0.008001562 -0.095385015 1.4454054 0.25257087 -0.42138433 -2.0091205 -0.3720352 -0.40388647
-0.04883195 -0.28152066 -0.2722007 1.0456327 0.15833089 0.34418172 -1.071098 -0.3601385
-0.7629859 -1.0087957 0.023364464 0.6123394 -0.68015724 0.058494832 0.51957923 1.115849
0.14934987 -0.46857306 -1.993589 -0.43689054 -0.15262775 1.0759002 0.76174486 -0.10207365
-0.93752 -0.19298191 0.056573573 -1.3246335 -0.5262832 -0.7892909 -0.08406276 0.15831293
-0.77997994 -0.012560066 -0.022120683 0.43462327 0.07302739 0.032008015 0.17853692 -1.0272335
-0.308654 0.8150198 -1.4823527 -0.38010433 -0.023730407 -0.4279692 -0.85980266 0.15786959
-1.5519621 -0.121571355 -0.46913603 -0.11693192 -0.23341991 -0.6543994 0.8000723 0.35947528
-0.5976772 0.38294157 -0.02414291 0.74461097 -0.8591688 -0.29832965 -0.34872487 1.9149276
0.33287692 -0.13558657 0.6370163 -0.37245852 -0.68822724 -0.76943225 0.111492105 0.5915955
-0.174828 -0.6048674 0.926894 -0.7481236 0.5053945 0.084119335 -0.23752718 -0.578767
-0.90220743 -0.120303445 -0.1815545 0.43112713 1.3893697 0.4756535 1.0729264 0.058484875
0.3924882 0.024173556 -0.057151947 -0.24596217 -0.5939852 0.6763471 -0.14357248 0.69164217
-0.34639448 -0.34105512 0.44141093 0.070903316 -0.33362496 0.82663536 1.3900714 0.43482292
-1.1111112 0.34058377 -0.03354578 -1.0385962 -0.13236654 0.042181753 -1.1750256 -0.8568226
-0.15391473 -0.09065844 0.5783015 -0.6786964 0.06646352 -1.5323089 -0.602751 0.12531604
-0.11860627 0.12903018 -0.07909155 -1.584519 -0.5971911 0.06290126 1.0521533 -0.3245351

fc_1.bias f4 [64]
00000000: ff28 e5be ec5d 1bbd 105c e0bd 94e0 6e3c
00000010: 0945 1abf 1106 f93d 59ff 863e 5d0b 413e
00000020: b732 6cbf 697e 34bf 6d01 b1be aed6 8d3e
00000030: 7f2a b23e 2bd6 69be 98f8 99bc f3aa 13bf
00000040: 5f64 b0be 6f03 b5bc bdc7 82bc 0d43 303e
00000050: 136e b5be 5282 c6be 42cc 9f3e f1f3 a5bd
00000060: c0f5 d13e c8bf 563d fe59 d0bd 703c f1be
00000070: 28cb 0abe 7a1e 723c 3eba 9ebc e421 67bf
00000080: ce85 113f 07a2 dc3b 1821 a13d cc34 93be
00000090: 84d5 8e3e 6889 c1bd 5b20 44bf 878c 37be
000000a0: 046e df3e 1ec5 f4be 2c6e d9be aeda 2fbf
000000b0: fadc 823e 3f60 babe 7fdf 15bf cb24 a63d
000000c0: 573d 0bbf cd1b c8be 8a6b 89bf 5976 dabe
000000d0: 217d 2f3e 3cd2 82bf ee31 bbbf 1c40 05bf
000000e0: 1ffa 81bb 5f94 27be be16 06bf 2376 11bf
000000f0: 87a7 cebc 0268 00be 2409 46be 01c8 a3bd
-0.4475784 -0.037931368 -0.109550595 0.014579911 -0.6026159 0.1215936 0.2636669 0.18851991
-0.92264885 -0.70505387 -0.345714 0.2770285 0.34798047 -0.22835605 -0.018795297 -0.5768272
-0.34451577 -0.022096364 -0.015964383 0.17213078 -0.35435542 -0.38771302 0.31210524 -0.08103169
0.41007805 0.05242899 -0.10173415 -0.47116423 -0.1355406 0.014777774 -0.019375917 -0.9028609
0.56844795 0.0067331824 0.0786764 -0.28751218 0.27897274 -0.09450036 -0.7661187 -0.179247
0.43638623 -0.47806638 -0.42466867 -0.68693054 0.25559217 -0.36401555 -0.5854415 0.081124865
-0.5439047 -0.3908371 -1.0735943 -0.42668417 0.17137577 -1.0220408 -1.4624612 -0.5205095
-0.0039665843 -0.16365193 -0.5237845 -0.5682089 -0.025226368 -0.12539676 -0.19339424 -0.07997132

fc_2.weight f4 [64, 64]
00000000: f6ed a63e e55f 813e 4141 5dbf 1bd2 9dbe
00000010: a429 3e3e afa1 6f3e 7e87 80be 99bc b1bc
00000020: 01a4 f23e 544a a53e 728b 4dbe edd6 40be
00000030: 7626 133d cc22 d7bd 3269 9dbe 0872 e73d
00000040: dbd4 bd3e fcbb 80be 4a4f aebf dea1 96be
00000050: 21b9 6d3e 0d2d 63bb 2304 8bbe 8535 053e
00000060: b7b4 debe db83 2c3e c976 04be 568b c03d
00000070: 1dd1 2c3d 813b 13bc 7064 803e 0b71 61be
00000080: fdef 1abf ece5 053e 6d10 6c3e 143c ff3d
00000090: 2154 943c d3ee 613e 9b96 f6be a190 70be
000000a0: 06ad 5cbe ccfa a03e aa0d e7be 0519 b8bd
000000b0: 5d9f c5be 1698 d73d 37ef 253b f295 eebb
000000c0: 7b63 3abf 78f7 9fbf 5eac 863e 8740 bbbd
000000d0: 191c f4bd 62a8 ac3e feb0 e63e 40f0 01bf
000000e0: f397 79bf 3f4b 58bf fa31 e6bf 4d97 ecbd
000000f0: 9214 603e 6649 283d 89e3 833e 9d26 a7bd
00000100: c758 f1bd 92e1 b9bc dc90 73be 3a2f 2bbc
00000110: 89d3 dd3e 0604 c3bd 8a92 9cbe a6bb 643d
00000120: c885 10bf 788a b1be fcc9 04bf 3a55 f1bc
00000130: 5471 873e fe33 b13e 18e9 f6bc c388 eabd
00000140: f1b9 923e 502d 3abe e280 1abf ab35 e6bd
00000150: 64b2 a2bd 205f ccbe 9aea a5be 6221 18be
00000160: bbae 583d 5a2c b43e 83d4 783b 8e69 5cbe
00000170: e633 c5bf c632 57be 7b43 3ebf 0ad4 0cbf
00000180: eb6d f7be 40d2 143e 2682 0cbe 2fea 67bd
00000190: 3b4d a7be 1bf7 963e fb8d 62be 7dc4 4cbf
000001a0: f9e5 bebe c67d 0bbe a900 c8bf fc02 cdbe
000001b0: a268 8b3d 0f84 42be d4e8 cc3e 3c6a 81be
000001c0: 319a 11be d5f6 913e ce48 d53e ad10 703d
000001d0: a730 2dbe 4a16 09bf a373 d5bd 1dfa 813e
000001e0: c00e 7bbe bf32 a23d 5bac d93b 35d8 f5bd
000001f0: 94ee 80bf 8d11 ec3e fc90 cfbe 21a5 81bf
00000200: a685 4b3d 2bd8 d4bd e283 083e 3f81 683e
00000210: 1591 743e f3a1 38bc 24b7 8e3d e13b 51bf
00000220: 2532 1fbc 81ae e8be 0491 223e a7c2 40be
00000230: f947 4abf 07ea 2dbe ccf8 613d 5843 293e
00000240: 6eee 843f df40 de3d af30 fabe 4e8d 36bd
00000250: 0f00 06c0 e1c0 d6bd 0465 71bb dadb a7be
00000260: 04e3 38bf 3db2 2ebd 8184 993c 9092 2cbf
00000270: be26 4a3e d04a 05bf 44c7 1a3e 335a 1b3e
00000280: 678c d2be f53d b7be 8be1 7dbe a20f a8be
00000290: 1b94 9ebe 63f0 6fbd d976 21bf 9e5e 9c3d
000002a0: bbae 08bd d21b 11be 0b0f b63e 37c0 153e
000002b0: c231 94be 2136 1ebc 8898 473d 15e9 6abe
000002c0: 53c0 673e 52f3 ab3d 7e1b 0e3e ba09 ae3e
000002d0: cc46 3d3e 9041 dabe 9064 16be ef13 2d3e
000002e0: ed32 0fbf f3c3 15bf 0d3f 0f3f 9b23 103e
000002f0: 2f06 76bc 1894 8c3c 9423 cebe 408e 833e
00000300: f265 40be 575a ff3d e887 323d 8e4a 823e
00000310: cd5c 02be c950 6fbe 6c00 be3d 68e6 d2be
00000320: 630f e8bd d6db 2ebf 5926 bf3e eea0 5f3d
00000330: ebb3 47bf 9cc5 64bd 2736 e83d 9c51 123e
00000340: 241e 4f3f 8216 9e3e c49c 97be a1fa b63d
00000350: 7919 823e 14f2 403c adf3 5c3e 5d1e 27bf
00000360: 59d3 ffbe 0ab2 a0bc 9d83 90bd ef39 75bf
00000370: a139 ec3d ac7c c5be 9723 3fbe 2559 89be
00000380: aff5 01be 79f0 e6bb 8945 1ebf 9755 57bf
00000390: d58e 66be fb8a b5be 6467 e7bd 9310 973d
000003a0: ac4a 6b3e 5e8e 30bf 3655 a63e 4b64 06be
000003b0: 6f32 44be e628 84bd 6826 5dbc 9fd0 20be
000003c0: 9b25 edbd 92b6 9c3d f6d7 d6bd e6a9 f33e
000003d0: 5701 803e 64b4 99bf 7b8a 35bf e306 e43d
000003e0: 43f8 1bbe a0a8 06bf fd87 48bf dfc7 9e3e
000003f0: a13c 72bd 3aba 06be ce86 61be 76d9 b43e
0.32603425 0.25268474 -0.86427695 -0.3082436 0.18570572 0.23401521 -0.25103372 -0.021696376
0.4739075 0.3228327 -0.20072725 -0.18831988 0.03592535 -0.10504684 -0.3074432 0.113010466
0.37076458 -0.2514342 -1.3617947 -0.2942037 0.23215152 -0.0034664304 -0.27151594 0.13008697
-0.4349725 0.16847174 -0.12935938 0.09401576 0.042191613 -0.008986355 0.25076628 -0.22015779
-0.60522443 0.1307599 0.23053141 0.12462631 0.018106522 0.2206376 -0.48161778 -0.23492672
-0.21550378 0.31441343 -0.45127612 -0.08989147 -0.38598147 0.10527055 0.0025319585 -0.0072810585
-0.72808045 -1.2497396 0.2630338 -0.09143167 -0.11919422 0.33722216 0.4505691 -0.5075722
-0.9749748 -0.84489816 -1.7984002 -0.11552296 0.21882847 0.041085623 0.25759533 -0.08161662
-0.11784511 -0.022690568 -0.23785728 -0.010448271 0.4332545 -0.09522252 -0.3058055 0.055843018
-0.56454134 -0.34675956 -0.51870704 -0.029459585 0.2645365 0.3460998 -0.030140445 -0.114518665
0.28657487 -0.18181348 -0.6035291 -0.11240705 -0.079441816 -0.39916325 -0.3240555 -0.14856485
0.05290101 0.35190088 0.0037968464 -0.21524641 -1.5406463 -0.21015462 -0.7432172 -0.55011046
-0.48326048 0.14533329 -0.13721523 -0.05661982 -0.3267611 0.29485402 -0.22124474 -0.7998732
-0.3728483 -0.13622198 -1.5625201 -0.4004134 0.068070665 -0.18995689 0.40021384 -0.25276363
-0.14218976 0.2850863 0.41657108 0.058609653 -0.1691309 -0.53549635 -0.104224466 0.25386134
-0.24517345 0.07919835 0.006642861 -0.12004129 -1.0072808 0.4610714 -0.40540302 -1.0128518
0.049688004 -0.10392793 0.1333156 0.22705553 0.2388347 -0.01126908 0.06968525 -0.8173199
-0.009716545 -0.45445636 0.15875632 -0.18824254 -0.7901607 -0.16983806 0.05516891 0.16529596
1.0385263 0.10852217 -0.48865268 -0.044568352 -2.0937536 -0.104860075 -0.0036833892 -0.3278492
-0.722214 -0.04265045 0.01873994 -0.67411137 0.19741341 -0.5206728 0.15115076 0.15171127
-0.41122743 -0.35789457 -0.24793069 -0.32824427 -0.3097237 -0.05857886 -0.6307197 0.07635234
-0.03336976 -0.14170769 0.35558352 0.14624105 -0.28944212 -0.00965646 0.04872945 -0.22940476
0.2263196 0.08396019 0.13877675 0.33991796 0.18484038 -0.42628145 -0.14686799 0.16902135
-0.5593708 -0.5850212 0.5595558 0.14076082 -0.015016123 0.01716046 -0.4026152 0.25694466
-0.18788889 0.12468403 0.04358664 0.25447506 -0.12730713 -0.23370661 0.09277424 -0.4119141
-0.1133106 -0.68304193 0.37333944 0.054596834 -0.7800891 -0.055852517 0.11338454 0.14288944
0.80905366 0.30876547 -0.2961179 0.089345224 0.2541006 0.011776466 0.2157733 -0.65280706
-0.49965933 -0.019616146 -0.07056353 -0.95791525 0.11534429 -0.3857168 -0.1866592 -0.26825824
-0.12691377 -0.0070477095 -0.6182485 -0.84114975 -0.22515424 -0.35457596 -0.11299017 0.07376208
0.22977704 -0.68967235 0.32486886 -0.13124196 -0.19159864 -0.06453113 -0.013497926 -0.15704583
-0.11579438 0.0765201 -0.1049041 0.4759056 0.25001022 -1.2008176 -0.7091443 0.11134126
-0.15231423 -0.5260105 -0.783325 0.31011865 -0.05913985 -0.13156977 -0.2202408 0.3532216

fc_2.bias f4 [64]
00000000: 7a6d af3d 8257 3f3e b2d9 dcbe 6a79 a0bd
00000010: 3142 363d ccd4 93bc b659 3bbe 4919 aa3d
00000020: 119c aebd f36c f23c 3248 bb3e 4bf9 a3bd
00000030: 7fdf da3e 312f 4b3d d84e 293d 092a acbe
00000040: bb82 7e3d 4374 9a3e a4c4 d43d dc96 41be
00000050: 3253 47be 1ab2 803d 54b6 8c3e dd3b 083d
00000060: e1f8 c43d eabf 403e 5af0 a83d 22e6 ef3d
00000070: b4b0 20bd f094 af3d 1a79 19bd ee32 04be
00000080: b5dc 8fbd cecc 60be 62ed 4dbd e6ef a8bd
00000090: 26e6 473e f1bf 30be 4f8d 8cbe a83f d03d
000000a0: 942b d2bd 908a c8bd 0bdc 153e 53af 2a3e
000000b0: f46b b73e 8007 65bc c37c e83c 414f eabd
000000c0: ded0 583e da4c 51be 1896 91bd 3ecc 5cbd
000000d0: df07 6abe c00c 3dbe c4e1 84bc 775b 803e
000000e0: 7f0c 90bd 815b 803c 1691 2e3e 8272 01bd
000000f0: 5ec5 3cbd c7b6 a73d 8c35 353e 080f 72be
0.08565803 0.18685725 -0.43134838 -0.07835658 0.04449672 -0.018045805 -0.18295941 0.08305604
-0.08525861 0.029592967 0.36578518 -0.08006533 0.4274864 0.049605552 0.041334957 -0.3362582
0.062136393 0.30166826 0.10389069 -0.18905205 -0.1946533 0.0628397 0.27482855 0.033260215
0.096177824 0.1882321 0.082489684 0.11713816 -0.039231017 0.085733294 -0.037469007 -0.12910053
-0.070245184 -0.21953127 -0.050275214 -0.08248882 0.19521388 -0.1726072 -0.2745156 0.101683915
-0.10262218 -0.09792054 0.14634721 0.16668443 0.3582455 -0.013978839 0.028379804 -0.11440898
0.21173427 -0.20439473 -0.07108706 -0.053905718 -0.22854565 -0.18461895 -0.016220935 0.25069782
-0.070336334 0.015668632 0.17047533 -0.031603344 -0.04608666 0.08189159 0.17696208 -0.23638546

fc_mu.weight f4 [1, 64]
00000000: c74d 4f3e 076b 56be de8e 3a3e 998b 943d
00000010: b191 98b7 863e 07c0 e8d9 543e 48dc 0f3c
00000020: b10c 75bb 696c 1dbc c3f9 91be d64f c8bf
00000030: feb8 cf3d 90ca ccbd 84ba 4040 bf98 52be
00000040: d6a8 213f 2a40 13bf fa2b d93e af79 07bf
00000050: 4238 b43d 7cee 4c3f 0cd3 f93e 5392 873f
00000060: c8a4 a13d 85d0 8d3d f256 183f 0ecb 5b3c
00000070: 0f03 363f a821 d93f b6d3 82bf d445 4bbf
00000080: 7fa1 c9bd 7784 45be e6ff a63f ff41 aa3e
00000090: 6fc5 af3b 40ea 80ba 2119 913d cc66 793f
000000a0: 1043 d5ba caf6 40bc 30c6 f2bf c05b d8bc
000000b0: 89d0 8abb 5ba5 44bf 61c9 ac3f 60a1 01bf
000000c0: 2140 e53d 748c 823c 09b4 9fbb f998 af3e
000000d0: f971 b13f 1c5c 56bc f39f a9bc a283 913d
000000e0: ec82 cabf 6b9c a93f 8a7e 1a3f fb37 903f
000000f0: 3a17 82ba 944e 2abe dbbd c13f 67d7 b6be
0.20244513 -0.20939265 0.18218562 0.07253189 -1.8187655e-05 -2.1131911 0.2078625 0.0087805465
-0.0037391598 -0.0096083665 -0.28510866 -1.5649364 0.10142706 -0.09999573 3.011384 -0.2056608
0.6314825 -0.5751978 0.42416364 -0.5292005 0.08799793 0.800514 0.48793828 1.059153
0.07892758 0.069245376 0.5950767 0.013415111 0.7109842 1.6963396 -1.0220859 -0.79403424
-0.09845256 -0.19288813 1.3046844 0.33253476 0.005364112 -0.0009835437 0.07084871 0.9742248
-0.0016270597 -0.011777589 -1.8966732 -0.026410937 -0.004236285 -0.7681481 1.3498956 -0.50636864
0.11193872 0.015936114 -0.004873757 0.34296396 1.3862907 -0.013083484 -0.020706153 0.07105185
-1.5821204 1.325086 0.60349333 1.1267084 -0.0009925135 -0.16631538 1.5136064 -0.35711214

fc_std.weight f4 [1, 64]
00000000: 84d2 82be e5d0 b7be 050e 80be c087 e83e
00000010: 16a4 fabd 3864 ef3e 5c17 c6be 72ee 31bf
00000020: 45ed 1bbe bb1c adbe 20e2 b4bd 0e8b 533f
00000030: 5991 b1be 60a0 7e3d 1402 0340 1932 8e3e
00000040: 3e39 fdbd a668 8c37 e73a 3dbe 7b96 d53b
00000050: dd2d 99be 04ef 803f b8ec bbbf c3e5 953f
00000060: 5c85 dd3a 7b01 24be fb6d b0bf 920b abbe
00000070: 8a6d 3e3f 80b8 123f 993a 293f 9396 553e
00000080: 9403 c9bc e51a 963d 21f6 a53d 8bbc ad3e
00000090: 2c16 03bf 5a8e 673d b4f6 053f e8d0 923e
000000a0: 1dc4 d93d 5adf 91bf e4ed 9a3f ad37 91bf
000000b0: fa13 0cbf f884 85bc 86b2 8fbd ace3 d73e
000000c0: 46b9 5fbe 610c 2b3e 56b3 9c3d 191b 083f
000000d0: 590d 09bf c176 183e 722f 89be aa78 83be
000000e0: d83e 613f 6747 013e c3a5 d23e bbb8 48be
000000f0: 7b33 e73c 1376 8f3e e9ac d03e 1e49 933e
-0.25551236 -0.3590156 -0.25010696 0.4541607 -0.12238328 0.46756148 -0.38689697 -0.69504464
-0.1522723 -0.33810982 -0.088321924 0.82634056 -0.34681204 0.062164664 2.0470018 0.27772596
-0.12364434 1.6738031e-05 -0.184795 0.006518183 -0.29917803 1.0072942 -1.4681616 1.1710743
0.0016900706 -0.1601619 -1.3783563 -0.33407265 0.74385893 0.57312775 0.6610504 0.20858221
-0.024537839 0.073293485 0.08103586 0.3393291 -0.51205707 0.05653224 0.52329564 0.28675008
0.10633109 -1.1396286 1.2103848 -1.1345116 -0.5471798 -0.016298756 -0.070164725 0.42165887
-0.2184802 0.16703941 0.07651393 0.5316635 -0.5353599 0.14889051 -0.2679401 -0.25677997
0.87986517 0.12624894 0.4114209 -0.19601719 0.02822279 0.2801977 0.4075692 0.2876672
