Pendulum_SAC/saved_model/0404/sac_actor_EP60.pt (torch, 20559 bytes, 6 tensors)

fc_1.weight f4 [64, 3]
0	0x3f0cdeec	0.5502765
1	0x3b4144e3	0.0029490523
2	0xbeedeab0	-0.46468115
3	0xbe0385da	-0.12844029
4	0xbf232c02	-0.63739026
5	0xbefa92f8	-0.48940253
6	0xbf3c9230	-0.73660564
7	0x3e5912c7	0.21198569
8	0x3edc21c7	0.4299452
9	0xbeaa340c	-0.33242834
10	0x3f0f8d3e	0.56074893
11	0x3cc7446c	0.024324618
12	0x3e8d3248	0.27577424
13	0xbf58c1b5	-0.84670573
14	0x3ec67e9f	0.3876848
15	0x3e85ea05	0.26155105
16	0xbf76d26a	-0.96414816
17	0xbf13e712	-0.5777446
18	0xbe4a8d52	-0.19780472
19	0x3f0a62d6	0.5405706
20	0x3c868ff4	0.016426064
21	0xbe880ea9	-0.26573685
22	0xbfa5efae	-1.296377
23	0xbe9b6316	-0.30349034
24	0x3f44b622	0.7684041
25	0x3d118378	0.03552577
26	0xbed135c9	-0.40861347
27	0x3f3b4a46	0.7316021
28	0xbf94d655	-1.1627909
29	0xbf092168	-0.535666
30	0x3ec1f2dd	0.37880602
31	0x3f80f77c	1.0075526
32	0xbe5bb66b	-0.21456306
33	0xbdb41f93	-0.08795085
34	0x3f246602	0.6421815
35	0xbcf0e27d	-0.029404873
36	0xbe8e0578	-0.27738547
37	0xbf54f77f	-0.8319015
38	0xbdd6befe	-0.104856476
39	0x3e703109	0.23456205
40	0x3d584327	0.052798416
41	0x3df06c6e	0.11739431
42	0x3dc69cf7	0.096979074
43	0x3f6f568d	0.9349144
44	0x3f134fde	0.5754374
45	0x3d942fe7	0.07235699
46	0xbd8d7317	-0.06906717
47	0xbf2eb158	-0.68239355
48	0x3e53845b	0.20655958
49	0xbf58984d	-0.8460739
50	0xbc9d1fa0	-0.019180119
51	0x3f0ac525	0.5420707
52	0x3fe0ab04	1.755219
53	0x3cfeb0c5	0.03109015
54	0xbf54cc3e	-0.8312415
55	0x3c636618	0.0138793215
56	0xbde27847	-0.11058097
57	0xbdd5b407	-0.10434728
58	0x3f9b9a59	1.2156478
59	0x3e723462	0.23652795
60	0xbe6834dd	-0.22676416
61	0xbfc1f44a	-1.5152676
62	0xbea1a57d	-0.3157157
63	0xbe8983ec	-0.2685846
64	0xbdb6ffa2	-0.08935477
65	0xbed54b58	-0.41659045
66	0xbe8c267a	-0.27373105
67	0x3f76f769	0.9647127
68	0x3e279a81	0.16367532
69	0x3ecba95e	0.39777654
70	0xbf2cf47f	-0.6756057
71	0xbeceec5e	-0.4041471
72	0xbefdc50f	-0.49564406
73	0xbf345bca	-0.7045256
74	0xbe08f278	-0.13373744
75	0x3f28571d	0.65757924
76	0xbe25567a	-0.1614627
77	0xbcf7caf4	-0.030248143
78	0x3f9320bf	1.1494368
79	0x3f4051fa	0.75125086
80	0x3d6d531a	0.05794058
81	0xbf0679bc	-0.525295
82	0xbfa78b66	-1.3089416
83	0xbed45a5a	-0.41475183
84	0xbeb20ffb	-0.34777817
85	0x3f7f6271	0.99759585
86	0x3f003168	0.5007539
87	0xbe80460a	-0.25053436
88	0xbf53437e	-0.8252486
89	0xbe909afa	-0.28243238
90	0x3d7155ba	0.058919646
91	0xbf38243e	-0.719303
92	0xbef4c863	-0.47809133
93	0xbee7090a	-0.45124084
94	0xbe239a2c	-0.1597678
95	0x3e3f5504	0.18684775
96	0xbf473428	-0.7781396
97	0x3d042da9	0.032270107
98	0xbd7dae22	-0.061933644
99	0x3f25678c	0.64611125
100	0xbda19253	-0.07889237
101	0xbdb8b119	-0.09018154
102	0x3e4b733b	0.19868176
103	0xbf4ebdaa	-0.80758154
104	0xbe877826	-0.26458853
105	0x3f2f5021	0.6848164
106	0xbf992a06	-1.196595
107	0xbec95ab9	-0.39327028
108	0xbe29aa76	-0.16568932
109	0xbf297b1f	-0.6620349
110	0xbec93528	-0.39298368
111	0x3df0d40d	0.117591955
112	0xbfa9f4ea	-1.3277867
113	0x3ca01ff8	0.019546494
114	0xbef74a0b	-0.48298678
115	0xbd9744c1	-0.07386161
116	0xbe985cfb	-0.29758438
117	0xbf49effc	-0.7888181
118	0x3eb8764d	0.36027756
119	0x3eaf29b4	0.34211504
120	0xbe88c0e4	-0.26709664
121	0x3f217e07	0.6308293
122	0x3d869291	0.06570924
123	0x3f1cf1aa	0.6130625
124	0xbefbd289	-0.49184063
125	0xbe984813	-0.29742488
126	0xbe4787ef	-0.19485448
127	0x3fd1486c	1.6350226
128	0x3e45687b	0.19278137
129	0xbb91ef0b	-0.004453545
130	0x3f5c4c34	0.86053777
131	0xbe783c86	-0.24241838
132	0xbecc5d80	-0.39915085
133	0xbe981da4	-0.29710114
134	0xbcf62af3	-0.030049777
135	0x3f2ce342	0.6753427
136	0x3e859fe3	0.26098546
137	0xbf0286c9	-0.50986916
138	0x3f6886aa	0.9083048
139	0xbeff7ad6	-0.49898404
140	0x3ef33112	0.47498375
141	0x3dc23e9a	0.094845966
142	0xbde07cba	-0.1096129
143	0xbee5870e	-0.448296
144	0xbf1c3468	-0.61017466
145	0xbd55e961	-0.05222452
146	0xbe73f6fe	-0.23824689
147	0x3eb23110	0.34803057
148	0x3fa2c7e0	1.2717247
149	0x3ec98027	0.39355585
150	0x3f355b44	0.70842385
151	0x3db3dfb2	0.08782901
152	0x3ec32de5	0.38120952
153	0x3d9c03db	0.07617923
154	0x3d37ec73	0.04490323
155	0xbf05df60	-0.5229397
156	0xbe25765a	-0.16158429
157	0x3f33f649	0.70297676
158	0xbd292eff	-0.041304585
159	0x3ee02e04	0.43785107
160	0xbeb35948	-0.35029054
161	0xbe97bf38	-0.29638076
162	0x3e87a8bf	0.2649593
163	0xbccef85c	-0.025264911
164	0xbec551dd	-0.3853902
165	0x3f1a09fb	0.6017148
166	0x3f8f31c9	1.1187068
167	0x3eede453	0.4646326
168	0xbf57ab4a	-0.8424574
169	0x3e1b911c	0.15192074
170	0xbd5590a7	-0.052139904
171	0xbf30e7c7	-0.69103664
172	0x3ebd1bc1	0.36935237
173	0x3d14f75e	0.03636872
174	0xbf07b5dd	-0.53011876
175	0xbe06640c	-0.13124102
176	0xbe8c7972	-0.27436405
177	0x3db7d131	0.08975447
178	0x3ec299fd	0.3800811
179	0xbf53a18c	-0.82668376
180	0x3d56aa25	0.052408356
181	0xbf4d942c	-0.8030422
182	0xbf159b04	-0.5843966
183	0x3e62ffeb	0.22167937
184	0xbef41e70	-0.47679472
185	0x3e91c6d5	0.2847201
186	0xbddcc7d2	-0.107803
187	0xbf734bbb	-0.9503743
188	0xbf28ae4f	-0.65890974
189	0x3ea1082a	0.3145154
190	0x3f336652	0.70078003
191	0xbea2695b	-0.31721005

fc_1.bias f4 [64]
0	0xbef9f3be	-0.48818773
1	0xbd1ff524	-0.039052144
2	0xbe205616	-0.15657839
3	0x3ea2c2db	0.31789288
4	0xbebdb1e6	-0.37049788
5	0x3ea05308	0.31313348
6	0x3eabf940	0.335886
7	0x3e94940b	0.29019198
8	0xbf3dcb9c	-0.7413881
9	0xbefd8027	-0.49511835
10	0xbd8b46b1	-0.06800593
11	0x3f2ae61b	0.66757363
12	0x3ec33842	0.3812886
13	0x3e67d12f	0.22638391
14	0x3c48ccdc	0.0122558735
15	0xbeab2c3f	-0.33432195
16	0x3dbc3702	0.091901794
17	0x3d47bfdc	0.048766956
18	0x3ea8b61c	0.32951438
19	0x3eb231ef	0.3480372
20	0xbef9b5ad	-0.4877142
21	0xbe89d311	-0.26918843
22	0x3ec8c644	0.39213765
23	0x3e18b55c	0.14912933
24	0x3e836738	0.25664687
25	0x3f0479c1	0.5174828
26	0x3da850a6	0.082185075
27	0xbed7cb64	-0.42147362
28	0xbe3e6f48	-0.18597138
29	0x3e74cb96	0.23905787
30	0x3de5e69a	0.112256244
31	0xbf301664	-0.68784165
32	0x3edcbbaf	0.4311194
33	0x3ef5e013	0.48022518
34	0x3e8e7f30	0.2783141
35	0xbe7acf7e	-0.24493214
36	0x3ed85aac	0.42256677
37	0x3e86bf91	0.2631803
38	0xbef48a28	-0.47761655
39	0xbe70868d	-0.23488827
40	0x3e7fcda5	0.24980791
41	0xbebc13fc	-0.36733997
42	0xbf113098	-0.56714773
43	0xbee103e0	-0.4394827
44	0x3eeef476	0.46670884
45	0xbea027b6	-0.31280297
46	0xbecb559a	-0.39713746
47	0x3de94514	0.11390129
48	0xbe3e85b8	-0.18605697
49	0xbe87bad5	-0.2650973
50	0xbf405bf2	-0.751403
51	0xbe3e874c	-0.18606299
52	0x3f159d7a	0.58443415
53	0xbf4d45e1	-0.8018475
54	0xbf836193	-1.0264152
55	0xbf177dbb	-0.59176224
56	0x3dcec95d	0.10097001
57	0xbea70d3f	-0.32627293
58	0xbed67094	-0.41882765
59	0xbea65163	-0.32483968
60	0x3e208451	0.15675475
61	0x3e80548f	0.25064513
62	0xbcb70ad3	-0.022344029
63	0xbce0c078	-0.027435526

fc_2.weight f4 [64, 64]
0	0x3db290fa	0.08719058
1	0x3d84e789	0.06489474
2	0x3de611e3	0.1123388
3	0x3d8b353a	0.067972615
4	0x3db92631	0.090404876
5	0x3ce76a7c	0.028249018
6	0x3ca4f1bd	0.020134801
7	0xbdfd4b1a	-0.1236784
8	0x3e26e9b2	0.16300085
9	0xbdacab4f	-0.08431112
10	0xbdda8a92	-0.106709614
11	0x3dd78d57	0.10525005
12	0x3d13dab0	0.03609723
13	0xbc71ebf8	-0.014765732
14	0x3d34bfff	0.044128414
15	0xbb96bf99	-0.004600477
16	0x3e268dd0	0.16265035
17	0x3db737b4	0.089461714
18	0xbdf94997	-0.12172239
19	0x3d55f568	0.05223599
20	0xbe7c5422	-0.24641469
21	0x3d42f4fa	0.04759691
22	0x3dee933f	0.11649179
23	0xbd735974	-0.05941148
24	0xbd8986bc	-0.06715152
25	0x3dd5d7c0	0.10441542
26	0x3d5c4111	0.05377299
27	0xbecb7874	-0.39740336
28	0x3d8f591d	0.06999419
29	0xbe12fe4c	-0.14354819
30	0xbcdc4439	-0.026888
31	0xbe29d2ff	-0.16584395
32	0x3de813a6	0.11331873
33	0x3e1b6598	0.15175474
34	0x3d0a7bb9	0.033809397
35	0xbe7c2472	-0.24623278
36	0xbdea92b8	-0.11453766
37	0x3e038d7c	0.12846941
38	0xbe489098	-0.19586408
39	0xbc0fbd44	-0.008773152
40	0x3d7a5a2e	0.06112116
41	0xbdbb868d	-0.09156523
42	0xbe9aa6a3	-0.3020526
43	0x3e8d8a19	0.27644423
44	0x396c616c	0.00022543006
45	0x3d723633	0.05913372
46	0xbd3c2b7c	-0.045939907
47	0xbd280160	-0.041016936
48	0xbdafda17	-0.08586519
49	0xbe5d98ea	-0.21640363
50	0x3d520682	0.051275738
51	0xbe0ba62a	-0.13637605
52	0x3e144aca	0.14481655
53	0xbe328166	-0.17432174
54	0xbcccf0cb	-0.025017163
55	0xbecc27a8	-0.39874005
56	0x3c56bfb9	0.013107234
57	0x3deb605c	0.114929885
58	0xbe805ccd	-0.250708
59	0xbe2057c4	-0.1565848
60	0xbc4c20ef	-0.012459024
61	0x3e1fe987	0.15616427
62	0x3cca6165	0.024704644
63	0x3db00973	0.08595552
64	0xbd8867c0	-0.06660414
65	0x3cf67e6c	0.03008958
66	0xbe342e95	-0.17595895
67	0x3e85f417	0.26162788
68	0x3e6460f8	0.22302616
69	0x3bc9a528	0.0061537214
70	0x3da649fc	0.0811958
71	0x3d9fd863	0.07804944
72	0xbe720ab6	-0.23636898
73	0x3dd413c0	0.103553295
74	0xbda2085b	-0.0791175
75	0x3e0fe5d9	0.14052524
76	0x3e0746e9	0.13210644
77	0x3eb35680	0.35026932
78	0xbe0431ea	-0.12909666
79	0xbd1ba68e	-0.038000636
80	0x3d0caaf1	0.03434271
81	0xbda22e80	-0.079190254
82	0xbd60dbc8	-0.0548971
83	0x3d76d948	0.06026581
84	0xbcf1534a	-0.02945866
85	0xbdb6d699	-0.0892765
86	0x3c212f88	0.0098379925
87	0xbe17a494	-0.14808875
88	0x3c9bfe71	0.019042226
89	0x3ea77d6b	0.32712874
90	0x3df33dc2	0.11877014
91	0xbde3ec32	-0.11129035
92	0xbfd5e6f0	-1.6711102
93	0x3d400673	0.04688115
94	0x3e29d40f	0.165848
95	0xbe4f95fe	-0.20272061
96	0x3d5f5cb3	0.054531764
97	0x3e6bd9be	0.23032281
98	0xbe25bf2b	-0.16186206
99	0xbda84e55	-0.08218066
100	0xbcc74d3a	-0.024328817
101	0x3d844481	0.064583786
102	0xbdeec0c8	-0.11657864
103	0xbe41d967	-0.18930589
104	0x3dbb18d6	0.091355965
105	0xbe37c4d2	-0.17946175
106	0xbf486b19	-0.7828842
107	0xbed3ece2	-0.41391665
108	0x3d2514dc	0.040303096
109	0xbe01e09f	-0.12683342
110	0x3e4f78ec	0.20260972
111	0xbe2df921	-0.16989566
112	0xbd20809f	-0.039185163
113	0x3e7c896e	0.246618
114	0x3e9ecd62	0.3101607
115	0x3e0e6a08	0.13907635
116	0xbdbdb0e9	-0.092622586
117	0xbe240fc6	-0.16021642
118	0x3cdace69	0.026709752
119	0x3e86fa1a	0.26362687
120	0x3deb356d	0.114847995
121	0x3e0bbf35	0.13647158
122	0xbcb75991	-0.022381576
123	0xbdf28fb6	-0.11843817
124	0xbe0cfbbd	-0.13767906
125	0x3e7fd5da	0.24983922
126	0xbd2383ef	-0.039920744
127	0xbddbb752	-0.10728325
128	0x3e349818	0.17636144
129	0xbd9cd56a	-0.07657893
130	0x3d170a02	0.03687478
131	0x3d57eeda	0.05271802
132	0x3deb4c21	0.1148913
133	0x3e2a2d7e	0.16618916
134	0x3e19a52a	0.15004411
135	0xbeb4e1d2	-0.35328537
136	0x3dd34908	0.10316664
137	0xbe9d6e04	-0.30747998
138	0x3d85f75e	0.06541322
139	0x3aa8c264	0.0012875316
140	0xbe2e0234	-0.16993028
141	0x3d417201	0.047227863
142	0xbc7b0acd	-0.015322399
143	0x3e26f684	0.16304976
144	0x3d7f5b23	0.062342774
145	0x3db0f994	0.08641353
146	0xbeb68ec2	-0.3565579
147	0xbdc6e297	-0.09711187
148	0xbf830ac5	-1.0237662
149	0xbdc26a30	-0.0949291
150	0x3c0ec5ab	0.00871412
151	0xbdaa1efb	-0.0830669
152	0xbecbd6e3	-0.39812383
153	0xbd2bdceb	-0.04195873
154	0x3e24c002	0.1608887
155	0xbf09e8ee	-0.5387105
156	0x3dde7f8e	0.10864173
157	0xbe3055d2	-0.17220238
158	0x3e325c75	0.17418082
159	0x3d778d74	0.060437635
160	0xbeac5618	-0.33659434
161	0x3d5f6629	0.054540787
162	0xbc243ba9	-0.01002399
163	0xbd93dca3	-0.072198175
164	0xbe1a6120	-0.15076113
165	0x3bd26223	0.00642039
166	0xbe799b20	-0.24375582
167	0x3ac9ce4f	0.0015396568
168	0x3d6ba89c	0.057533845
169	0x3d392060	0.04519689
170	0x3e5f5c89	0.21812643
171	0x3d575077	0.05256697
172	0xbdde16e9	-0.108442135
173	0x3dfaf8f8	0.12254518
174	0xbccfb15f	-0.025353132
175	0xbdd0614a	-0.101748064
176	0x3e8d89c7	0.27644178
177	0xbd57ce18	-0.05268678
178	0xbd821543	-0.063517116
179	0x3e9d8ccd	0.30771485
180	0x3da12928	0.07869178
181	0xbe3db790	-0.18527055
182	0xbdae3d29	-0.08507759
183	0x3d2238bf	0.0396049
184	0xbe67f541	-0.2265215
185	0xbe9a342d	-0.30117932
186	0x3e2b4938	0.1672715
187	0x3e004ce8	0.12529337
188	0x3d36a0a5	0.044586796
189	0x3c2f48be	0.010698495
190	0xbe231d85	-0.1592923
191	0x3e845474	0.25845683
192	0xbe689d12	-0.22716168
193	0x3d9e81d5	0.07739607
194	0x3cf8e9f2	0.030384991
195	0x3e0200db	0.12695639
196	0xbdddcd2e	-0.108301505
197	0xbd3b9190	-0.045793116
198	0x3c131fd0	0.008979753
199	0xbe0d8fad	-0.13824339
200	0xbd1ad08e	-0.03779655
201	0xbea823c0	-0.32839775
202	0x3dfafe7d	0.12255571
203	0x3d945c78	0.072441995
204	0xbe54e585	-0.2079068
205	0xbe206cce	-0.15666506
206	0x3e0fc9fd	0.14041896
207	0x3c79a972	0.015238153
208	0xbe09fd49	-0.13475527
209	0x3db8f54d	0.090311624
210	0xbe21791f	-0.1576886
211	0x3d039364	0.032122985
212	0x3942fb32	0.0001859486
213	0x3d468fad	0.048476864
214	0x3e3983ee	0.18116733
215	0xbeac2b6d	-0.3362688
216	0xbdb3a389	-0.08771426
217	0x3d5ed21f	0.054399606
218	0x3d9af62e	0.07566486
219	0xbdca218b	-0.09869679
220	0x3dfc172d	0.12309108
221	0xbe184524	-0.14870125
222	0xbd0bfb2e	-0.03417509
223	0xbe512b3c	-0.20426649
224	0xbd9a66f2	-0.075391665
225	0x3de8d9a3	0.11369636
226	0xbe82aadf	-0.2552099
227	0xbe9610b5	-0.2930962
228	0xbe07d731	-0.13265683
229	0xbe6cba19	-0.23117866
230	0x3d1d323c	0.038377985
231	0x3d99645b	0.074898444
232	0x3e52d9af	0.20590852
233	0xbdf43d7a	-0.11925788
234	0x3e85e93e	0.26154512
235	0xbe39b43e	-0.18135163
236	0x3bf1eb46	0.007382783
237	0xbdfcb536	-0.12339251
238	0x3c47f5b3	0.012204575
239	0xbe037b79	-0.1284007
240	0x3e3a06e6	0.18166694
241	0x3d9e3b38	0.07726139
242	0xbdb3c200	-0.08777237
243	0x3eb24fc2	0.34826475
244	0x3d854f95	0.0650932
245	0xbe3f4377	-0.1867808
246	0xbe11455d	-0.14186616
247	0x3e501874	0.20321828
248	0xbd953781	-0.07285977
249	0xbecad694	-0.39616835
250	0x3e134c2c	0.14384526
251	0x3e3b5a7f	0.1829624
252	0x3d52d2a0	0.0514704
253	0xbd62c62a	-0.055364765
254	0x3d20326a	0.03911058
255	0x3e4dc793	0.20095663

fc_2.bias f4 [64]
0	0x3e304f3e	0.17217728
1	0x3e43acf8	0.19108951
2	0xbdc964d4	-0.098336846
3	0x3d7cbc2b	0.06170289
4	0x3bb6e337	0.0055812853
5	0x3d4b1daf	0.049588855
6	0xbd9c7b02	-0.076406494
7	0x3bc65671	0.006052785
8	0xbd92bedb	-0.07165309
9	0x3e018b72	0.1265085
10	0x3e72e627	0.23720609
11	0xbd4bd4c2	-0.04976345
12	0x3e3fad37	0.1871842
13	0x3e000c28	0.12504637
14	0x3e380c45	0.1797343
15	0xbebd1e31	-0.36937097
16	0x3ba52d01	0.0050407653
17	0x3e6f6024	0.23376518
18	0x3da76fe9	0.08175642
19	0x3cac04e7	0.020998431
20	0xbd942feb	-0.07235702
21	0x3cba2927	0.022724701
22	0x3e80d2fa	0.25160962
23	0x3cecbac9	0.02889766
24	0x3e09f5d0	0.13472676
25	0x3e6b8173	0.229986
26	0x3cf8d592	0.030375276
27	0x3e6d975d	0.23202272
28	0xbda2563e	-0.07926606
29	0x3ddea91d	0.108720995
30	0xbe03afb2	-0.12859991
31	0xbe027dcc	-0.127433
32	0xbcd79ca1	-0.026319804
33	0xbe04287e	-0.12906072
34	0xbd215833	-0.039390754
35	0xbe18d6e6	-0.14925727
36	0x3e66508f	0.22491668
37	0xbc868e73	-0.016425347
38	0xbdaf7ce5	-0.085687436
39	0x3dff0751	0.12452567
40	0xbc89c6f2	-0.016818497
41	0xbda1393a	-0.07872243
42	0xbcfddb09	-0.030988233
43	0x3ded1e96	0.115780994
44	0x3e951b50	0.291224
45	0xbd664756	-0.056220375
46	0x3cdc278d	0.026874328
47	0xbcbead62	-0.023276035
48	0x3e04c6d9	0.1296648
49	0x3d51561a	0.051107503
50	0xbd6a7b04	-0.057246223
51	0xbd220863	-0.03955878
52	0xbe21e7f7	-0.15811144
53	0xbe1e3254	-0.15448886
54	0x3e16ad75	0.14714606
55	0x3e21a177	0.1578425
56	0xbba8d543	-0.005152376
57	0x3e0c732b	0.13715808
58	0x3dbcb8b5	0.092149176
59	0xbc71627c	-0.014732953
60	0x3b8c6e7b	0.0042856312
61	0x3cb0d311	0.02158502
62	0x3e3b6913	0.18301801
63	0xbb7d0fe1	-0.00386142

fc_mu.weight f4 [1, 64]
0	0xbc0dc3c0	-0.0086526275
1	0xbe8a4e89	-0.27013043
2	0x3e6b7d28	0.22996962
3	0x3db00536	0.08594744
4	0xbe57251d	-0.21010251
5	0xbd0fc757	-0.035102215
6	0x3ed76dea	0.42076045
7	0x3d442096	0.04788264
8	0xbb8a0307	-0.0042117867
9	0xbe15c907	-0.14627467
10	0x3d2e6486	0.042576335
11	0xbf9938aa	-1.1970417
12	0x3c6054a6	0.013692057
13	0xbe9e1232	-0.30873257
14	0x3fa8189b	1.3132509
15	0xbf24235b	-0.6411645
16	0x3b892732	0.0041855806
17	0xbe6844db	-0.22682516
18	0x3e4eb40b	0.20185868
19	0xbe76cbbc	-0.24101156
20	0x3e9d9b69	0.3078263
21	0x3d265812	0.040611334
22	0x3e0235e9	0.12715878
23	0x3e8203c6	0.25393504
24	0x3dd9f9f4	0.10643378
25	0x3e94e1c9	0.2907851
26	0x3f7f41b0	0.99709606
27	0x3dcdc09b	0.10046502
28	0x3e87680f	0.26446578
29	0x3f8b0d85	1.0863501
30	0xbf1659d0	-0.58730793
31	0x3a2d7603	0.00066170114
32	0xbe3406c9	-0.17580713
33	0xbbd4b300	-0.006491065
34	0x3f860736	1.0470951
35	0x3cf626da	0.030047823
36	0x3e48c3e8	0.19605982
37	0xba1c08b9	-0.00059522275
38	0xbbad5ee9	-0.005290855
39	0x3f64f1f8	0.89431715
40	0x3aef75d2	0.0018269366
41	0xbb6666d7	-0.0035156512
42	0xbda19084	-0.07888892
43	0xbda5fc36	-0.08104746
44	0xbe0804d0	-0.13283086
45	0xbf0339a9	-0.5125986
46	0x3f65b397	0.8972716
47	0xbe158b4f	-0.14603923
48	0x3d316683	0.043310653
49	0xba800bfd	-0.0009769198
50	0x3aed4abf	0.0018103941
51	0x3d1b85b2	0.0379693
52	0x3f3c5601	0.7356873
53	0xbaa95691	-0.0012919476
54	0x3e6bde94	0.23034126
55	0x3d8f8774	0.070082575
56	0xbf6d46b0	-0.92685986
57	0x3cbe5e5d	0.023238355
58	0x3f229eea	0.63523734
59	0x3f303538	0.68831205
60	0x3d6747e1	0.056465033
61	0xbf3751d0	-0.7160921
62	0x3fa88492	1.3165457
63	0x3d776f87	0.060409095

fc_std.weight f4 [1, 64]
0	0xbe85ae0b	-0.26109347
1	0xbd6670ff	-0.056260105
2	0xbd3c50c3	-0.045975458
3	0x3e4c33b2	0.19941595
4	0x3df2937f	0.11844539
5	0xbcd3d7a2	-0.025859658
6	0xbe227ecd	-0.15868683
7	0xbd920b72	-0.07131089
8	0x3cbb7434	0.022882558
9	0xbe458c88	-0.1929189
10	0xbe478378	-0.19483745
11	0x3eee83d0	0.4658494
12	0xbe874280	-0.26417923
13	0x3e51fc9c	0.20506519
14	0x3f2e01ce	0.67971504
15	0x3ef85d81	0.48508838
16	0xbdb26b8e	-0.08711921
17	0x3c2838da	0.010267461
18	0xbd6325d8	-0.055456012
19	0xbc324631	-0.010880993
20	0xbcf77239	-0.030205833
21	0x3e923acc	0.28560483
22	0xbe307568	-0.17232287
23	0x3ec27aa5	0.37984195
24	0xbc9d89a4	-0.019230671
25	0xbe302350	-0.1720097
26	0x3d8d8943	0.06910946
27	0xbeb9dd7f	-0.363018
28	0x3d30257a	0.04300449
29	0x3f3f85f8	0.74813795
30	0x3da91401	0.082557686
31	0x3ddfe5e1	0.10932518
32	0xbd0005f5	-0.03125568
33	0x3e47e73b	0.19521801
34	0xbdfa1239	-0.12210507
35	0x3dcda2e3	0.10040834
36	0xbe9cb71c	-0.3060845
37	0x3d8bc9b6	0.06825583
38	0x3d7e2b9f	0.06205332
39	0x3ef1af72	0.47204167
40	0x3df29344	0.11844495
41	0xbdc1a6f7	-0.09455674
42	0x3e663c9d	0.2248406
43	0xbe62fe28	-0.22167265
44	0xbe931d47	-0.28733274
45	0x3e5477ad	0.20748778
46	0x3ea91080	0.330204
47	0xbe52c1e5	-0.20581777
48	0xbe19c238	-0.15015495
49	0x3b1aff12	0.002365057
50	0x3d9a6614	0.07539001
51	0xbe20eb4d	-0.1571476
52	0xbd45d5ed	-0.04829972
53	0x3d4988b9	0.049202655
54	0x3d533c98	0.05157146
55	0xbea48773	-0.3213459
56	0x3ec7ac09	0.3899844
57	0xbdecbe30	-0.11559713
58	0x3f054c4a	0.5206953
59	0x3e84e299	0.2595413
60	0xbd182f00	-0.037154198
61	0x3ea8184d	0.3283104
62	0x3f031dcf	0.5121736
63	0xbc9a6628	-0.01884754
