Pendulum_DQN/saved_model/0404/DQN_Q_EP410.pt (torch, 12311 bytes, 6 tensors)

fc_1.weight f4 [64, 3]
-0.09112221 3.7821178 0.78224784 -0.20259988 -1.3064318 -0.47486573 0.050479487 -0.32605714
0.71057475 -0.4027592 0.86722577 0.6078907 1.9702418 -2.4097116 -0.74475044 -1.2271371
-1.5063168 -0.30906025 -2.4844155 -0.99205804 -0.078081585 -0.3587372 -2.7748938 -0.237461
3.9026794 -2.7268298 -0.8870507 -1.2969134 2.6160197 0.7470907 3.0265853 7.0685253
1.7398788 -1.385398 4.869184 0.88862723 3.9281325 1.9818518 0.11889517 1.6747254
2.056062 0.63614714 0.11105853 -4.138589 -0.8616061 -0.3830558 -4.0760245 -0.7262288
0.3144256 0.042768404 0.073285595 4.0350447 1.7973324 0.9229575 3.942174 1.4140772
1.4933228 -0.42062303 3.136016 0.68962586 1.9348701 4.2981606 0.7982284 0.9188915
-2.6893518 0.14086786 1.977689 2.8237069 0.2600527 -1.3928281 0.476323 0.27735624
-0.3099414 1.6906883 0.19887304 2.0894468 -0.67093694 -0.649598 -2.916044 0.7022408
0.5425921 2.3550847 -2.9694216 -0.75216734 -2.2675276 -1.0492452 -0.48076683 1.67542
-6.1410785 -1.332459 -2.7805157 -2.2250395 -0.2254111 2.073061 2.4915984 0.64589864
-3.584259 -4.0392933 0.118660875 -1.4547564 0.18416747 -0.34399658 0.16275397 -0.70544875
0.6199481 1.76147 -3.1313784 -0.6981456 -3.3972857 -1.4345149 -0.018561484 -0.37704578
6.846115 1.2573044 -2.3924532 -0.3138867 0.26690543 -2.3840249 2.115419 0.6056665
1.2115159 3.1555786 0.5679035 -3.7072923 2.4285815 -0.35250074 -1.217234 -0.3529087
0.039979637 3.048527 -1.7908437 -0.68201643 3.902372 -1.5507601 -1.3911946 0.9202532
1.6020858 -0.5206959 -0.74474806 -2.1175544 -0.41056937 -1.1474099 2.3787131 0.939471
-0.55623806 -0.064621665 -0.7483354 -3.106944 4.8197193 0.39200148 2.9516723 3.6777222
1.1611183 -1.8046145 -1.6789658 0.25533935 0.11427616 -0.066069305 -0.0011156155 -2.0418162
0.05745663 -0.0660972 -1.1057448 0.2735144 -0.19996527 0.11706776 0.15552604 0.022742279
-0.20106709 -1.4922775 -0.4312781 -2.7006984 -0.19337894 0.13847639 -0.77814984 2.5075748
0.52487814 -1.9309883 -0.14582093 0.35147703 2.043875 -6.6585226 -1.5618894 1.7288227
2.9104733 0.797813 1.103192 1.5119928 0.09688472 1.3786032 6.542162 1.0837208
00000000: 489e babd 380e 7240 6541 483f 5876 4fbe
00000010: 2839 a7bf 9a21 f3be 94c3 4e3d f6f0 a6be
00000020: 3ae8 353f 7436 cebe 8202 5e3f ba9e 1b3f
00000030: e230 fc3f b738 1ac0 f7a7 3ebf d412 9dbf
00000040: fdce c0bf 253d 9ebe aa00 1fc0 84f7 7dbf
00000050: 3de9 9fbd 67ac b7be dc97 31c0 fa28 73be
00000060: 80c5 7940 6184 2ec0 c115 63bf 4201 a6bf
00000070: de6c 2740 5641 3f3f 93b3 4140 5c31 e240
00000080: 59b4 de3f b954 b1bf 5bd0 9b40 137d 633f
00000090: 8666 7b40 52ad fd3f 507f f33d 675d d63f
000000a0: 8596 0340 8ada 223f a872 e33d 526f 84c0
000000b0: 3892 5cbf e41f c4be cb6e 82c0 21ea 39bf
000000c0: 64fc a03e ec2d 2f3d c216 963d 161f 8140
000000d0: fd0e e63f f146 6c3f 944c 7c40 7b00 b53f
000000e0: 3425 bf3f e75b d7be 7cb4 4840 528b 303f
000000f0: d3a9 f73f 888a 8940 b258 4c3f 793c 6b3f
00000100: 571e 2cc0 aa3f 103e ea24 fd3f 9db7 3440
00000110: a125 853e 3148 b2bf 9ce0 f33e a301 8e3e
00000120: a4b0 9ebe 7968 d83f 60a5 4b3e 7fb9 0540
00000130: 86c2 2bbf 0e4c 26bf 77a0 3ac0 0ec6 333f
00000140: 51e7 0a3f b5b9 1640 010b 3ec0 0a8e 40bf
00000150: 2c1f 11c0 ab4d 86bf 1227 f6be 2a74 d63f
00000160: b783 c4c0 048e aabf f8f3 31c0 0c67 0ec0
00000170: 2bd2 66be 08ad 0440 5976 1f40 9d59 253f
00000180: 8064 65c0 e441 81c0 7904 f33d 7535 babf
00000190: 6696 3c3e 5220 b0be faa8 263e 4a98 34bf
000001a0: ebb4 1e3f d977 e13f 8168 48c0 acb9 32bf
000001b0: 216d 59c0 2f9e b7bf 410e 98bc 250c c1be
000001c0: 6013 db40 5aef a03f f41d 19c0 c2b5 a0be
000001d0: d4a7 883e dd93 18c0 0663 0740 f60c 1b3f
000001e0: f412 9b3f 00f5 4940 2062 113f 4744 6dc0
000001f0: e16d 1b40 fa7a b4be 53ce 9bbf 73b0 b4be
00000200: b0c1 233d 111b 4340 5e3a e5bf a198 2ebf
00000210: 76c0 7940 4f7f c6bf aa12 b2bf b795 6b3f
00000220: 2611 cd3f 544c 05bf cfa7 3ebf 0386 07c0
00000230: 2636 d2be 54de 92bf d63c 1840 2c81 703f
00000240: 9e65 0ebf 5d58 84bd e992 3fbf 2cd8 46c0
00000250: 243b 9a40 6bb4 c83e 33e8 3c40 cd5f 6b40
00000260: 869f 943f 9cfd e6bf 5ae8 d6bf d7bb 823e
00000270: 9f09 ea3d 584f 87bd d839 92ba 1ead 02c0
00000280: a557 6b3d f85d 87bd 0c89 8dbf 140a 8c3e
00000290: b2c3 4cbe 39c1 ef3d 3842 1f3e 044e ba3c
000002a0: 88e4 4dbe f302 bfbf 7cd0 dcbe 3ed8 2cc0
000002b0: 2105 46be c1cc 0d3e d434 47bf 1b7c 2040
000002c0: 6a5e 063f a02a f7bf 1552 15be ccf4 b33e
000002d0: d9ce 0240 9e12 d5c0 feeb c7bf 104a dd3f
000002e0: 3245 3a40 793d 4c3f 6535 8d3f fb88 c13f
000002f0: 7f6b c63d 1276 b03f 6459 d140 5db7 8a3f

fc_1.bias f4 [64]
1.0361096 -0.6151967 -0.9507725 -0.39159653 -1.2762597 0.95023334 -0.35489026 -0.71972096
0.86214453 -1.3150328 -3.9544184 0.5811659 -2.0288143 -1.2733569 -0.60480154 -0.4936631
-0.7394936 -3.3513105 -5.4095902 -0.9209901 -3.004525 -1.2626578 -3.0538452 0.3814509
-0.020275794 -0.6664309 -0.373593 -1.7592282 -0.7864 -2.791527 -2.753145 -1.813037
-3.34735 1.1714272 0.31575143 -1.2212975 -1.7649937 -0.7591017 0.98660994 1.9633131
-0.83420545 -3.3772829 0.5894793 -2.6589148 -4.7281923 0.56596637 -0.060788374 -1.1595016
-0.53620464 -2.268591 -1.8043119 0.0045310925 -0.40749374 0.5103 1.7261162 -0.5282474
-0.5748192 0.73532504 1.3229514 -0.614871 -2.8297026 -1.1504225 -1.126694 -2.4358592
00000000: 3d9f 843f 887d 1dbf d465 73bf 577f c8be
00000010: 7a5c a3bf 7e42 733f 2db4 b5be a23f 38bf
00000020: 81b5 5c3f ff52 a8bf 3115 7dc0 4ac7 143f
00000030: 18d8 01c0 5cfd a2bf 46d4 1abf 69c1 fcbe
00000040: 744f 3dbf df7b 56c0 5d1b adc0 02c6 6bbf
00000050: 234a 40c0 c59e a1bf 3372 43c0 884d c33e
00000060: 6c19 a6bc 379b 2abf 9547 bfbe 642e e1bf
00000070: 8351 49bf 61a8 32c0 8733 30c0 9911 e8bf
00000080: fb3a 56c0 54f1 953f 2caa a13e 7a53 9cbf
00000090: 50eb e1bf 7d54 42bf 7892 7c3f d84d fb3f
000000a0: 7d8e 55bf 6725 58c0 1ee8 163f a92b 2ac0
000000b0: 5a4d 97c0 2ce3 103f 3bfd 78bd 8c6a 94bf
000000c0: b544 09bf 9830 11c0 b1f3 e6bf 8f79 943b
000000d0: 05a3 d0be 05a3 023f 60f1 dc3f 393b 07bf
000000e0: 5a27 13bf 433e 3c3f 7956 a93f 3068 1dbf
000000f0: d919 35c0 0b41 93bf 8237 90bf 1ee5 1bc0

fc_2.weight f4 [32, 64]
-1.9515412 -0.7023721 0.5103067 -1.2423186 0.40916565 -0.106453225 -1.093175 0.26320595
-1.7377084 1.794168 0.98062056 -0.55196106 -6.3457966 -1.1551198 0.51321214 0.05542893
1.1687211 -3.1445527 7.2407556 1.6651968 0.5411156 -1.7955214 1.2615272 0.5563867
-1.2912496 -1.4810276 0.058082957 -2.4423554 0.68558854 0.93906265 2.8268073 -1.3381567
-6.843547 -0.60407585 -1.5488296 -0.37248066 0.820853 0.49847442 -0.06612432 -1.5630593
-1.5327382 1.9863747 -0.6822082 -1.8014293 -0.15986337 -1.7541468 -0.29048982 0.83911616
1.2640636 2.5256786 -3.6801412 -1.2710458 0.9339236 -1.645754 -1.3061401 1.0166888
-0.07187062 0.461385 -1.6524402 -0.5044818 -0.32967654 -1.7514863 -0.048971575 -0.8442899
1.2462622 0.38054082 -1.901503 -0.39081702 -3.0074663 0.53624827 0.7969394 0.48843488
-1.5259047 -1.318255 -1.7656181 0.41164038 -0.5733308 -0.84201527 -0.66608006 -0.11358371
0.2519549 2.2142966 -4.3777905 -1.6875069 -0.15412274 -3.1601262 -0.62182933 -0.8150941
1.2054502 0.48454526 -1.3325543 3.408705 -1.488395 0.49096563 0.70792085 -2.1054084
1.1014655 1.2124435 -0.2563483 -0.24827448 0.8631084 0.06895217 0.7772902 1.200541
0.13631104 -2.998322 0.05553625 -7.1778746 -23.437193 1.3222314 -0.20820749 -1.2470896
1.6347963 0.25314805 -0.64620805 2.0548253 0.20396797 -0.22822957 1.3686103 0.19085798
0.21217358 0.6154075 1.2277665 1.0924731 0.35069492 -1.0701385 -0.64556783 0.9653133
1.6235965 -0.32195142 -0.529874 -0.24928224 -1.8166105 0.25305986 -0.44044027 0.23823994
0.7802017 -1.1817012 0.59634984 0.47383362 -0.48805878 -0.04072434 0.025053702 0.5048705
0.14081088 1.0268215 0.63049346 -1.0975667 -1.1145822 -0.27470666 -0.49229923 -1.1950799
0.6068545 -0.120320916 -0.27065507 -0.6977071 -0.83768266 0.2459594 -2.124754 -0.20871812
2.325162 1.6594377 1.3191729 -0.6819805 -0.9958479 -0.10098437 -0.40400016 0.99027336
0.47813886 -0.37204286 -0.038677122 -2.3337033 -3.3377395 -0.59295225 -0.63479745 -1.2280567
-0.49052346 -1.3630784 1.5844468 0.24871059 0.14425409 1.4678504 1.0915029 0.15750018
-0.7532581 -1.0471718 1.349124 -0.36593282 -0.1050245 -0.101755664 -0.001719571 0.07688314
0.9997335 1.4228871 0.3188206 0.3574044 0.73047924 -2.0611255 0.49572203 -1.4817579
1.8742582 -1.5626734 -14.906857 -7.4439893 3.4161391 -1.2569233 -3.61553 -4.5639954
-0.10174001 1.4956557 3.8458784 -0.8613502 -2.9882622 -1.7973304 -0.6496125 0.15531634
0.2621975 1.269097 1.760337 -8.445032 0.77151996 -1.3278843 1.3711411 -5.9838943
-2.6374693 0.9095116 0.077245556 -5.3417234 0.9593539 -8.728602 1.1503187 -4.252834
-4.339331 -1.4077208 -0.5363699 -4.220188 -2.2897592 1.1817437 -1.2488904 2.0278666
1.3187732 -5.365565 2.6852393 0.882395 0.2633333 -0.19031303 0.50127184 -0.0021320765
-0.11591329 1.0594293 -0.76741415 1.7801644 -10.995931 -5.3188953 0.012412117 -5.8846407
00000000: 1acc f9bf a8ce 33bf 76a3 023f 4c04 9fbf
00000010: 297e d13e 2604 dabd 29ed 8bbf eec2 863e
00000020: 3b6d debf 4ca7 e53f f309 7b3f 524d 0dbf
00000030: c410 cbc0 f7da 93bf df61 033f 7209 633d
00000040: a798 953f 5a40 49c0 45b4 e740 2b25 d53f
00000050: 8d86 0a3f a5d3 e5bf b979 a13f 5c6f 0e3f
00000060: ab47 a5bf 5092 bdbf 65e8 6d3d 8d4f 1cc0
00000070: bb82 2f3f 6966 703f 69ea 3440 b848 abbf
00000080: 56fe dac0 b7a4 1abf 0c40 c6bf c9b5 bebe
00000090: 6c23 523f 0a38 ff3e 306c 87bd 5412 c8bf
000000a0: c430 c4bf 8741 fe3f 32a5 2ebf 3c95 e6bf
000000b0: 39b3 23be e287 e0bf 15bb 94be 51d0 563f
000000c0: d6cc a13f b8a4 2140 6f87 6bc0 a1b1 a2bf
000000d0: 9e15 6f3f 11a8 d2bf 992f a7bf dc22 823f
000000e0: e730 93bd a83a ec3e 2983 d3bf b825 01bf
000000f0: 5dcb a8be b430 e0bf 6b96 48bd 6223 58bf
00000100: 8585 9f3f 3fd6 c23e 7364 f3bf 2b19 c8be
00000110: 547a 40c0 9147 093f 3804 4c3f 2314 fa3e
00000120: d850 c3bf 94bc a8bf c6ff e1bf 87c2 d23e
00000130: cfc5 12bf 508e 57bf 3984 2abf 939e e8bd
00000140: 3c00 813e 09b7 0d40 dc16 8cc0 3a00 d8bf
00000150: 5ad2 1dbe 823f 4ac0 3530 1fbf 02aa 50bf
00000160: 314c 9a3f 5116 f83e 2491 aabf 3928 5a40
00000170: ba83 bebf d95f fb3e 4d3a 353f 03bf 06c0
00000180: d2fc 8c3f 5931 9b3f 1640 83be aa3b 7ebe
00000190: acf4 5c3f cc36 8d3d 7efc 463f 54ab 993f
000001a0: 1f95 0b3e 82e4 3fc0 fb79 633d 26b1 e5c0
000001b0: 5f7f bbc1 e13e a93f 5834 55be a2a0 9fbf
000001c0: 0141 d13f 9f9c 813e e46d 25bf 4282 0340
000001d0: fbdc 503e 03b5 69be 9f2e af3f 4670 433e
000001e0: 0844 593e 598b 1d3f 7427 9d3f 29d6 8b3f
000001f0: 498e b33e 4cfa 88bf ef43 25bf c61e 773f
00000200: 03d2 cf3f d1d6 a4be d3a5 07bf d843 7fbe
00000210: b186 e8bf 1091 813e 6381 e1be 2cf5 733e
00000220: 4cbb 473f fc41 97bf 62aa 183f 529a f23e
00000230: d7e2 f9be 91ce 26bd 6c3d cd3c 313f 013f
00000240: ba30 103e e36e 833f 0568 213f 117d 8cbf
00000250: a1aa 8ebf 5aa6 8cbe a50e fcbe 61f8 98bf
00000260: d15a 1b3f d06a f6bd 4d93 8abe ef9c 32bf
00000270: 5f72 56bf c8dc 7b3e f8fb 07c0 34ba 55be
00000280: 74cf 1440 7468 d43f a8da a83f 4696 2ebf
00000290: e3ef 7ebf e5d0 cebd 1cd9 cebe 8e82 7d3f
000002a0: 9ece f43e 677c bebe e76b 1ebd 655b 15c0
000002b0: 869d 55c0 b8cb 17bf 1682 22bf f630 9dbf
000002c0: e425 fbbe 5a79 aebf 27cf ca3f fdad 7e3e
000002d0: 58b7 133e 86e2 bb3f 5eb6 8b3f ba47 213e
000002e0: 86d5 40bf ba09 86bf 18b0 ac3f 8c5b bbbe
000002f0: 1617 d7bd 4665 d0bd 3a63 e1ba e874 9d3d
00000300: 89ee 7f3f 2a21 b63f 743c a33e b6fd b63e
00000310: b000 3b3f 7be9 03c0 47cf fd3e 3eaa bdbf
00000320: b1e7 ef3f af05 c8bf 7c82 6ec1 2935 eec0
00000330: 06a2 5a40 dde2 a0bf d864 67c0 400c 92c0
00000340: 115d d0bd a571 bf3f df22 7640 7281 5cbf
00000350: b03f 3fc0 ec0e e6bf 014d 26bf 3f0b 1f3e
00000360: c03e 863e c571 a23f b952 e13f da1e 07c1
00000370: 5582 453f 1df8 a9bf 8d81 af3f 107c bfc0
00000380: 4ccc 28c0 c1d5 683f eb32 9e3d 66ef aac0
00000390: 3898 753f 5ba8 0bc1 a53d 933f 3717 88c0
000003a0: cddb 8ac0 3230 b4bf 8a4f 09bf c80b 87c0
000003b0: 6a8b 12c0 6143 973f a4db 9fbf 91c8 0140
000003c0: 8fcd a83f b5b2 abc0 f6da 2b40 a4e4 613f
000003d0: 9fd3 863e 6be1 42be 5a53 003f 4fba 0bbb
000003e0: f263 edbd 619b 873f 4175 44bf 6ddc e33f
000003f0: 55ef 2fc1 6434 aac0 315c 4b3c fa4e bcc0

fc_2.bias f4 [32]
-4.471811 2.258406 2.618276 2.2980099 -0.727102 1.8358401 -2.5551295 -0.8895221
-4.5093946 1.0810825 -4.6331987 0.30731767 -1.8651391 2.1484492 0.083650194 0.15423843
0.35717532 -5.009172 0.60340726 -4.769555 2.5373914 3.780835 -0.23257495 3.3693712
-0.065666705 0.72208434 -4.308235 -0.60579866 0.48489544 1.9612637 1.156205 1.9923499
00000000: 1319 8fc0 b989 1040 d591 2740 9812 1340
00000010: 5b23 3abf cffc ea3f 3e87 23c0 b8b7 63bf
00000020: f64c 90c0 e960 8a3f 2a43 94c0 be58 9d3e
00000030: e1bc eebf 3180 0940 cb50 ab3d aef0 1d3e
00000040: afdf b63e 234b a0c0 e678 1a3f 32a0 98c0
00000050: 9f64 2240 33f9 7140 2128 6ebe c7a3 5740
00000060: 447c 86bd 85da 383f 10dd 89c0 9f15 1bbf
00000070: 3744 f83e b00a fb3f 87fe 933f 5205 ff3f

fc_out.weight f4 [9, 32]
0.25051033 -1.8050252 -0.86795914 7.0240088 4.9422417 -1.6518127 0.017105985 1.1752372
0.58536327 -0.6442095 -0.3750045 -2.0728765 0.4197649 0.09643616 -0.3936622 -0.914986
3.9788203 -0.0068245744 -0.27196884 0.27911592 -1.6715413 -1.7718359 -0.8278441 -1.2085323
-0.4694231 -2.1068144 0.71986645 0.31702006 -0.8486266 -4.29856 -1.3990427 -0.93613654
0.27413926 -1.6618211 -0.84218985 5.856992 3.9243665 -1.6766003 0.3644029 1.1731966
0.3457836 -0.66634375 0.17917691 -2.0748098 0.18645191 -0.06384743 -0.3645922 -0.89217216
3.4009924 0.11041888 -0.2866243 -0.12975283 -1.607127 -1.6840897 -0.6371012 -1.2686465
-0.29836848 -2.0512996 -0.1806501 0.22760008 -0.8309169 -3.0023284 -1.3520565 -0.9727589
1.1550629 -1.5552493 -0.89097416 5.9858227 4.025453 -1.6356963 1.6542846 1.2483068
0.39565447 -0.7246292 0.06861667 -2.1320744 0.23529495 -0.14223972 -0.47048277 -0.9558974
3.540842 -0.14441068 -0.256981 0.78891706 -1.5657372 -1.5411707 -0.72047573 -1.3858924
-0.100318894 -2.0747426 -0.2512617 0.22128631 -0.8146875 -3.183251 -1.3332266 -1.0007995
0.7657642 -1.2769222 -0.91273403 4.0100894 2.915345 -1.6309274 1.0956407 1.3427073
0.013445478 -0.7061041 1.5015523 -2.382159 -0.26956683 -0.3839615 -0.5487565 -0.7664337
2.5603082 1.2628564 -0.33975497 0.8670614 -1.4528422 -1.2893234 -0.34833583 -1.634547
-0.2789504 -2.0913625 -0.08169723 0.010955355 -0.85205406 -0.8750556 -1.2482209 -1.0084426
1.5947976 -0.9548285 -0.8370302 1.897411 1.675392 -1.6392039 1.3254775 1.4220752
1.1694618 -0.72842836 1.6032951 -2.4868937 -0.4913369 -0.74843997 -0.6986034 -0.5986611
1.5663192 1.676792 -0.3880564 1.2293128 -1.4039313 -0.9928295 -0.039821666 -1.9165183
-0.21721244 -2.0797467 0.6126015 -0.15222229 -0.8703448 1.4833097 -1.1468507 -1.041404
1.2099108 -0.5046886 -0.7897738 -1.1816992 -0.19069053 -1.6200336 0.21567221 1.5422984
1.288296 -0.75853133 2.4910958 -2.6164293 -0.1707 -1.1290319 -0.7231796 -0.45504326
0.114102855 2.5497396 -0.5550787 3.354721 -1.2343247 -0.6416785 0.2858199 -2.240266
-0.31687427 -2.0348542 0.8138005 -0.36113444 -0.8742132 4.9128275 -0.9769602 -1.06279
1.1290174 -0.24419035 -0.73897964 -3.1738958 -1.2813315 -1.6168991 -0.686306 1.6052554
2.5513952 -0.7854297 3.0346265 -2.8578775 0.56130034 -1.4209208 -0.83193004 -0.23918746
-0.92074573 3.693972 -0.5783434 3.9224026 -1.1281067 -0.41860545 0.5407353 -2.4489892
-0.4219959 -2.0367563 0.6386888 -0.5654491 -0.91069955 7.2256126 -0.9321145 -1.1167363
2.5729487 -0.12717691 -0.7328062 -3.7053962 -1.5309378 -1.5593989 0.6379279 1.7175962
2.6988626 -0.7425865 2.3093655 -2.9571419 0.54068595 -1.620453 -0.79913586 -0.11983661
-1.0093791 3.0493772 -0.5572304 2.5554783 -1.0855167 -0.3763033 0.69168055 -2.472623
-0.29159647 -2.0693088 2.5864537 -0.58774215 -0.93444574 7.691583 -0.8458002 -1.2263381
00000000: e442 803e 110b e7bf 9232 5ebf aec4 e040
00000010: d826 9e40 996e d3bf da21 8c3c 2c6e 963f
00000020: 5eda 153f eaea 24bf 9700 c0be 02aa 04c0
00000030: 6deb d63e 5280 c53d 188e c9be 863c 6abf
00000040: fea4 7e40 aea0 dfbb 803f 8bbe 48e8 8e3e
00000050: 11f5 d5bf 85cb e2bf 97ed 53bf 30b1 9abf
00000060: 3958 f0be 0cd6 06c0 2b49 383f 7450 a23e
00000070: 983f 59bf ce8d 89c0 d513 b3bf a5a6 6fbf
00000080: fb5b 8c3e 8eb6 d4bf c199 57bf 7a6c bb40
00000090: d228 7b40 d79a d6bf 0493 ba3e 4e2b 963f
000000a0: 8c0a b13e 8195 2abf 277a 373e afc9 04c0
000000b0: 40ed 3e3e 71c2 82bd d4ab babe 6565 64bf
000000c0: dca9 5940 4b23 e23d 6cc0 92be eddd 04be
000000d0: 56b6 cdbf 4090 d7bf 1019 23bf 0263 a2bf
000000e0: c1c3 98be 7e48 03c0 57fc 38be ff0f 693e
000000f0: f8b6 54bf 2626 40c0 3010 adbf ba06 79bf
00000100: 1ad9 933f 6912 c7bf e216 64bf dc8b bf40
00000110: 83d0 8040 7f5e d1bf 99bf d33f 84c8 9f3f
00000120: 3993 ca3e 4d81 39bf e686 8c3d e873 08c0
00000130: 29f1 703e 4aa7 11be 1ee3 f0be b1b5 74bf
00000140: 289d 6240 65e0 13be 0393 83be 78f6 493f
00000150: 146a c8bf 1545 c5bf 1971 38bf ec64 b1bf
00000160: fe73 cdbd 95c8 04c0 60a5 80be e198 623e
00000170: 5c8f 50bf 62ba 4bc0 2ba7 aabf 331a 80bf
00000180: 1f09 443f 3072 a3bf f0a8 69bf a752 8040
00000190: 0395 3a40 3bc2 d0bf f43d 8c3f d5dd ab3f
000001a0: 6c4a 5c3c 3dc3 34bf de32 c03f 4b75 18c0
000001b0: aa04 8abe 9a96 c4be 4e7b 0cbf 0035 44bf
000001c0: 17dc 2340 47a5 a13f 5df4 adbe bcf7 5d3f
000001d0: bcf6 b9bf 8d08 a5bf 1359 b2be d638 d1bf
000001e0: 96d2 8ebe e2d8 05c0 e150 a7bd 177e 333c
000001f0: 3720 5abf a503 60bf b4c5 9fbf a614 81bf
00000200: 5422 cc3f a46f 74bf 9c47 56bf 5dde f23f
00000210: 3f73 d63f 6fd1 d1bf 3fa9 a93f 8f06 b63f
00000220: edb0 953f 487a 3abf c638 cd3f 4429 1fc0
00000230: 8390 fbbe c399 3fbf acd7 32bf db41 19bf
00000240: 267d c83f 1fa1 d63f 54af c6be 1f5a 9d3f
00000250: 05b4 b3bf 132a 7ebf 0b1c 23bd 7950 f5bf
00000260: f06c 5ebe 921a 05c0 74d3 1c3f 29e0 1bbe
00000270: ebce 5ebf 18dd bd3f 01cc 92bf ba4c 85bf
00000280: 5bde 9a3f 4633 01bf 9e2e 4abf eb41 97bf
00000290: 6144 43be 435d cfbf 2dd9 5c3e 096a c53f
000002a0: e2e6 a43f 1c2f 42bf 1d6e 1f40 9473 27c0
000002b0: fbcb 2ebe 1e84 90bf 4c22 39bf 6efb e8be
000002c0: c2ae e93d ef2e 2340 a319 0ebf c0b3 5640
000002d0: 5afe 9dbf 0b45 24bf fc56 923e 8560 0fc0
000002e0: 583d a2be 0d3b 02c0 3b55 503f 9de6 b8be
000002f0: 70cc 5fbf e235 9d40 101a 7abf 8109 88bf
00000300: a483 903f 090d 7abe c52d 3dbf 1c21 4bc0
00000310: ac02 a4bf 8df6 cebf c0b1 2fbf 0279 cd3f
00000320: 0f4a 2340 ec11 49bf 5237 4240 77e7 36c0
00000330: 61b1 0f3f bce0 b5bf 5ef9 54bf 8fed 74be
00000340: feb5 6bbf 0a6a 6c40 500e 14bf a508 7b40
00000350: cd65 90bf 7453 d6be a16d 0a3f 3dbc 1cc0
00000360: d90f d8be 375a 02c0 1c81 233f 46c1 10bf
00000370: 9b23 69bf 3838 e740 0e9f 6ebf 37f1 8ebf
00000380: 31ab 2440 aa3a 02be 3099 3bbf 3625 6dc0
00000390: c5f5 c3bf 629a c7bf 3e4f 233f 31da db3f
000003a0: 2aba 2c40 261a 3ebf a5cc 1340 d041 3dc0
000003b0: 656a 0a3f 016b cfbf 2b94 4cbf e66c f5bd
000003c0: 5633 81bf ff28 4340 a7a6 0ebf f58c 2340
000003d0: 36f2 8abf d3aa c0be fa11 313f 753f 1ec0
000003e0: 224c 95be 8e6f 04c0 7588 2540 4576 16bf
000003f0: d637 6fbf 7321 f640 5d86 58bf a6f8 9cbf

fc_out.bias f4 [9]
-3.000716 -4.275522 -3.0295775 -3.2329636 -3.7325895 -4.1584454 -4.33557 -5.30012
-5.285233
00000000: bb0b 40c0 14d1 88c0 99e4 41c0 e0e8 4ec0
00000010: bfe2 6ec0 fc11 85c0 fdbc 8ac0 959a a9c0
00000020: a120 a9c0
