Pendulum_DQN/saved_model/0404/DQN_Q_EP40.pt (torch, 12311 bytes, 6 tensors)

fc_1.weight f4 [64, 3]
000000 20 c5 f1 be 9d aa 42 40 eb a2 1f 3f 28 57 4d bf
       -0.47220707 3.0416634 0.6235797 -0.80211115
000010 f7 05 47 3f bb 3c 7c bf 2a be de 3f 3f 9c 2b c0
       0.77743477 -0.9853017 1.7401783 -2.6814115
000020 b8 97 b7 3d 5a 5b 82 bf 02 57 1d c0 a4 ae 08 3f
       0.08964485 -1.0184128 -2.4584355 0.5339148
000030 12 e6 ed 3f e3 af c2 bf 78 aa 14 bf 6d 27 90 bf
       1.8585837 -1.5209926 -0.58072615 -1.1262032
000040 07 c3 d5 bf c8 80 d6 be 5c 20 7f bf 6d d6 1a be
       -1.6700143 -0.41895127 -0.9965875 -0.1512086
000050 44 d6 a2 bc 95 90 81 bf 47 28 01 c0 61 0c 56 be
       -0.01987756 -1.0122248 -2.0180833 -0.2090316
000060 a6 e9 7e 40 e7 23 0d bf eb 40 44 bf e9 c1 a3 bf
       3.9830108 -0.5513291 -0.76661557 -1.2793552
000070 53 bf 28 40 5d 9f 10 3f 41 20 c9 3f b5 6f f3 3f
       2.6366775 0.5649317 1.5712968 1.9018465
000080 5e a7 1d 3f 66 f8 1d bf 87 ea 4d 40 c5 10 15 3f
       0.6158351 -0.6170715 3.2174394 0.58228713
000090 e8 8e 42 40 09 56 0e 40 fe e8 a1 3e ad 04 c6 3f
       3.0399723 2.2240012 0.3162307 1.5470177
0000a0 7b b3 1a 40 ef d5 29 3f 37 23 8f bd 0f 09 12 c0
       2.4172046 0.6634206 -0.069891386 -2.281803
0000b0 a2 1b 3f bf 83 67 50 bf dc 80 b0 bf 37 12 91 be
       -0.7465154 -0.81407946 -1.3789325 -0.2833421
0000c0 b7 05 8c bf df d5 1f bf 48 8d 58 be ee 92 30 40
       -1.0939244 -0.62435716 -0.21147645 2.7589679
0000d0 29 b9 02 bf 50 c3 2f 3f b9 9a ed 3f 1a 50 3e 3f
       -0.5106378 0.686574 1.8562843 0.74340975
0000e0 85 aa 49 3f 49 a8 68 be e3 a8 17 40 77 16 07 3f
       0.7877582 -0.22720446 2.369683 0.52768654
0000f0 38 a5 f6 bc d4 78 05 40 52 8c 19 3f 3c 97 49 3f
       -0.03010808 2.0854998 0.59979737 0.7874639
000100 f5 94 27 c0 ea c2 d6 bd 42 8d 62 3f d1 09 12 40
       -2.6184666 -0.10486396 0.8849679 2.2818491
000110 df cb 07 3f 9f ea d8 bf 8b a3 d4 3e 6d 67 ac 3e
       0.5304546 -1.6946601 0.41531023 0.33672658
000120 55 5f 92 be d9 cf b8 3f af ba 9b 3e 7e a4 eb 3e
       -0.28588358 1.443843 0.30415866 0.46023935
000130 38 88 b6 3f 71 2b 54 bd 5b 2a c3 bf 1f 52 ae bf
       1.4260321 -0.05179924 -1.5247301 -1.3618811
000140 ce c6 3c 3f b6 90 e7 3f 97 9c fa bf 67 32 17 bf
       0.7374085 1.8091037 -1.9579037 -0.5906128
000150 ee 09 cd bf 14 aa 99 3f 95 8a c9 bc 15 70 a5 3e
       -1.6018655 1.2005029 -0.024602214 0.32312074
000160 ec 07 34 c0 f8 e4 13 bf b8 c3 02 c0 14 a4 5d bf
       -2.8129835 -0.57771254 -2.0431957 -0.8657849
000170 c4 62 3b 3d e2 d3 c7 3f e9 c5 fb 3f 7c 75 0f 3f
       0.045748487 1.5611537 1.9669772 0.5603864
000180 53 25 06 be 8f 2d 1f c0 b4 9a 6e be 80 45 94 bf
       -0.13100176 -2.4871557 -0.23301202 -1.158371
000190 f1 7a 13 bf b6 14 89 be 16 16 90 3e 2c 7e 21 c0
       -0.5760947 -0.26773614 0.2814185 -2.523326
0001a0 01 36 9a be f8 6e 9f 3f b2 c1 1b c0 25 00 0a bf
       -0.30119327 1.245574 -2.4336972 -0.5390647
0001b0 9d 28 2d c0 4a e5 e4 bf 54 a5 5f be 92 3c 3a 3c
       -2.7056038 -1.7882473 -0.21840411 0.01136698
0001c0 ad df 2b 40 af 74 e8 3e ab 6d e0 bf 12 7b 4d bf
       2.685527 0.45401523 -1.7533468 -0.80265915
0001d0 73 b9 7e 3e 51 46 c4 bf f6 b4 cc 3f 48 b6 ec 3e
       0.24875431 -1.5333959 1.5992725 0.4623282
0001e0 12 6e 96 3f 84 98 49 40 60 61 11 3f d2 cb a3 bf
       1.1752341 3.1499338 0.5678921 -1.2796576
0001f0 50 94 27 40 db ea 11 3e 94 82 64 bf 7c 8b 45 bf
       2.6184273 0.14249747 -0.89261746 -0.7716596
000200 54 d9 a1 3d 4f 1e 2f 40 44 dd ec bf d0 6b 36 bf
       0.0790278 2.736225 -1.8505025 -0.7125826
000210 2a 50 bb 3f f5 bf cb be f1 df 1a bf ea 11 19 bf
       1.4633839 -0.3979489 -0.6049796 -0.5979296
000220 fe 44 97 3f 38 45 4d be 41 8e b7 bf 5f 23 46 3e
       1.181793 -0.20045936 -1.4340287 0.1934943
000230 5c 43 cb bd a6 c9 54 bf 3b c8 87 3f 79 ea 6f 3f
       -0.09924957 -0.8312019 1.060798 0.9371715
000240 de f0 67 bf 55 60 c5 3f a0 1e 53 be 15 e4 e1 be
       -0.9060191 1.5420023 -0.20617151 -0.44119325
000250 73 fe 31 40 8b d2 db 3e 14 de 2a 40 53 de 2f 40
       2.7811553 0.4293407 2.6698046 2.7479446
000260 44 94 52 3f e4 22 8a bf 0d c8 ea bf 5f ed fe 3d
       0.82257485 -1.0791898 -1.8342301 0.12447619
000270 75 a6 6e bf 11 31 82 bd a2 f7 46 be 69 40 95 bf
       -0.93222743 -0.06357015 -0.19430402 -1.1660281
000280 98 7e 16 bf 2e bc 83 be d5 ba 89 bf ea 2d 4b bb
       -0.58786917 -0.25729507 -1.0760142 -0.0031002709
000290 e2 43 89 be 71 32 83 bf 16 2d 93 3e 2b 95 38 be
       -0.26809603 -1.0249768 0.28745335 -0.18025653
0002a0 8c 4a f1 be af 92 7f bf 54 aa 5e bf 3b 68 c6 bf
       -0.47127187 -0.99833196 -0.8697865 -1.5500559
0002b0 0d 6d 41 bf e2 78 98 3d dd fa 8c bf ec fe cc 3f
       -0.75557023 0.074449316 -1.1014057 1.6015296
0002c0 62 5c bd 3e 8b e5 00 c0 de 0b 38 bf 21 ed 84 3e
       0.36984545 -2.0140102 -0.7189311 0.25962165
0002d0 aa 5d 30 3f fe ab 25 c0 d2 0d 00 bf cc e0 a8 3f
       0.6889292 -2.5886226 -0.5002109 1.3193603
0002e0 a3 19 4b 40 b3 14 2a 3f e9 28 ec be 5f ca d1 3f
       3.1734397 0.66437835 -0.46124962 1.6389884
0002f0 87 94 88 3e 7a 57 10 3f 83 7c 66 40 1a 6d 08 3f
       0.26675817 0.5638348 3.6013496 0.53291476

fc_1.bias f4 [64]
000000 24 b2 99 3f 20 ea 21 bf bd b4 fd be 75 e0 04 bf
       1.2007489 -0.6324787 -0.49551955 -0.51904994
000010 ab f4 8b bf 55 8f 59 3f 4b 17 65 3f a2 77 65 3f
       -1.0934042 0.8498433 0.8948867 0.8963567
000020 2e b7 0c 3f 3b 7a ad 3e d9 17 d5 bf 88 5c bc 3e
       0.5496701 0.33882317 -1.6647903 0.36789346
000030 14 9f e0 bf 7d 99 91 bf af ba be 3b fd 33 20 3f
       -1.7548547 -1.1374966 0.0058205943 0.6257933
000040 6b e3 6b 3f 6a bc 94 bf cc 88 1d c0 d2 26 fe be
       0.9214389 -1.162 -2.4614744 -0.49638993
000050 22 41 fc be b3 5f 38 bf f6 0c 02 bf e1 32 74 3f
       -0.49268442 -0.72021025 -0.50801027 0.95390135
000060 14 7c 25 3f 67 ae b0 3f 52 83 1e bf 09 46 c7 bf
       0.64642453 1.3803223 -0.6191913 -1.5568248
000070 02 20 34 bc 51 ab 25 bf 94 aa 6f bf d6 84 a8 bf
       -0.010993959 -0.64714533 -0.93619657 -1.3165538
000080 da 6a 18 bf 08 46 87 3f f3 ec 66 3e f4 28 75 bf
       -0.5953804 1.0568247 0.22551326 -0.95765615
000090 ea 8d 44 bf c5 e6 fd be 73 aa a9 3f a7 e7 a3 3f
       -0.76779044 -0.49590126 1.3255142 1.280507
0000a0 77 5c 76 bf 4a 99 5f be c1 d7 5f 3f 39 be fe bf
       -0.9623484 -0.21835819 0.8743859 -1.9901801
0000b0 58 2b 06 c0 93 66 3b 3f 42 e4 f7 3e 78 a4 66 bf
       -2.0963955 0.7320339 0.48416334 -0.9009471
0000c0 fc d9 1b 3f b2 4c fa bd 22 3a 8f bf 71 15 5f 3f
       0.6087949 -0.1222166 -1.1189616 0.8714209
0000d0 72 1f 93 3f 52 97 81 3f a4 bd c5 3f 93 2e 64 3f
       1.1493971 1.0124304 1.5448499 0.89133567
0000e0 ee 90 04 bf 0f 43 0b 3f 3f 95 b8 3f 6f 91 81 be
       -0.51783645 0.543992 1.4420546 -0.2530627
0000f0 07 c2 19 bf 4e 05 73 bf f2 41 2a 3f b4 c6 73 bf
       -0.6006169 -0.9492997 0.66506875 -0.9522507

fc_2.weight f4 [32, 64]
000000 19 e4 ca bd b8 25 09 be 99 0b 3b bf 79 45 ec bc
       -0.099067874 -0.13393295 -0.7306457 -0.02884172
000010 16 6b 0a 3f 5e 99 20 bf 98 d9 ea be 05 3e 39 3f
       0.5406965 -0.6273402 -0.45869136 0.7236026
000020 ed 90 70 bf dd c2 30 bd 31 2b 6d 3e 98 28 01 bf
       -0.9397114 -0.043154586 0.23161007 -0.50452566
000030 7f 77 94 bf 18 2d ba be d4 33 ee 3e 99 48 05 bf
       -1.1598967 -0.3636253 0.46523917 -0.520639
000040 9d 51 1b bf 71 7b e1 bf 0c 69 c7 be d7 10 5a 3f
       -0.60671407 -1.7615796 -0.38947332 0.85181946
000050 c3 e0 19 3f de 98 38 bf de 58 8e be 86 28 7a be
       0.60108584 -0.72108257 -0.27802175 -0.24429521
000060 c4 73 c6 be 09 2c f5 be db 4b 43 bd 39 b4 35 bf
       -0.38760197 -0.4788516 -0.047679763 -0.7097812
000070 01 93 a8 bd 0a 93 0b 3e c0 82 a4 bf b2 cb fe be
       -0.08231164 0.1363031 -1.2852402 -0.49764782
000080 fd 93 87 bf ea 67 26 bf 35 31 06 bf e9 7a 01 bf
       -1.0592037 -0.6500231 -0.52418834 -0.5057817
000090 bf 6a 4f bd de 82 bd 3e 9f 70 0f bf 36 87 08 bf
       -0.05063891 0.37013906 -0.5603122 -0.53331316
0000a0 bb 8a 72 be 05 c5 11 bf ce 47 03 be 08 69 a5 be
       -0.23685734 -0.5694125 -0.1282036 -0.32306695
0000b0 aa 47 94 3f 11 41 c8 be fe 17 90 be 0d 05 2c 3f
       1.158437 -0.39112142 -0.28143305 0.67195207
0000c0 b9 7a fb be 2a a5 6e be 78 f3 c9 be 6e 7e 61 bf
       -0.49117067 -0.23305193 -0.39443564 -0.8808354
0000d0 1a f6 db be 55 79 1d bf 44 f9 40 bf b6 21 1c bf
       -0.42961198 -0.61513263 -0.7538035 -0.6098894
0000e0 d9 95 9b bd 9a c3 2e be 14 80 b4 be a5 70 49 bf
       -0.075969405 -0.17066804 -0.35253966 -0.78687507
0000f0 30 07 2b bf e6 a5 cc be fe da 07 bf 6c 97 82 be
       -0.6680784 -0.3997032 -0.5306853 -0.2550615
000100 aa a6 85 3e fd ec a6 be 6f 82 74 3e 98 1d 23 bf
       0.26103717 -0.32602683 0.23877881 -0.6371703
000110 15 50 10 c0 27 03 3b 3f 42 93 06 3f 55 4a 3f bf
       -2.2548878 0.73051685 0.5256845 -0.74722797
000120 41 3f 0d bf dc c9 bd be b5 a8 43 be 7c 62 4b 3e
       -0.5517464 -0.3706807 -0.19107325 0.19861788
000130 e7 d5 1e 3f ef 30 26 3f b0 8e 74 bf e7 97 eb 3e
       0.6204514 0.64918417 -0.95530224 0.4601433
000140 b3 2a ff 3e ff e9 6c 3d f2 87 63 3f 36 34 81 bf
       0.49837264 0.057840344 0.8887931 -1.0094059
000150 53 39 52 bf fe 64 99 3e 6b 24 fa 3e 01 93 3a 3e
       -0.8211872 0.29959863 0.4885591 0.1822014
000160 3d 71 b1 3e 38 37 bf bb 7d 9d 98 be 80 3a 16 be
       0.34656706 -0.00583544 -0.29807654 -0.14670753
000170 41 05 2e 3e bb 4e 3f bf 32 97 6e 3f 67 49 fd 3e
       0.16994192 -0.7472951 0.93199456 0.49470064
000180 37 7b 77 3f 78 2d 15 3f b3 4f 70 bc 69 b7 94 bd
       0.96672386 0.58272505 -0.014667439 -0.07261545
000190 6d 74 08 bd 33 08 15 bf 91 67 37 3f 8a 2c b1 3e
       -0.033314157 -0.58215636 0.71642405 0.34604293
0001a0 35 d3 9a 3e 80 16 23 3e 5a 97 c5 3e c1 50 12 c0
       0.30239263 0.15926552 0.38592035 -2.2861788
0001b0 ef 3d b3 c0 3f 7d a9 3e 67 b6 c2 3e ec 86 ca be
       -5.6013103 0.33103368 0.38029787 -0.39556062
0001c0 3f d6 ac 3e d5 7a e7 3d 78 2b de bd cc f7 f9 3e
       0.33757207 0.11302725 -0.10848135 0.48821867
0001d0 e9 d6 c0 3e 05 8e 15 3f 79 52 10 3f 01 33 e2 3e
       0.37663963 0.5841983 0.56375843 0.44179538
0001e0 fb 14 06 bf b9 b1 a1 3e af 3d c4 3e 5f cf 1a 3f
       -0.52375764 0.31580904 0.3832831 0.60472673
0001f0 01 a3 2e 3f b0 44 6c 3e 06 06 62 3e 21 7f 50 3e
       0.68217474 0.23073077 0.2207261 0.20360996
000200 f4 c3 c4 3e 9c 33 69 bf 79 e7 94 3f 9b 1f 69 be
       0.3843075 -0.91094375 1.163314 -0.22765963
000210 21 c1 99 bf b6 13 05 3f bc 3a 13 3f bf 08 55 bf
       -1.2012063 0.519832 0.57511497 -0.8321647
000220 8f 27 cb 3e 0b 10 76 be 7e 0f ad bd 27 ec 1a 3e
       0.39678618 -0.24029557 -0.084502205 0.15129147
000230 ab 71 69 3f a5 77 92 3e c6 d4 24 bf 74 29 13 3f
       0.9118907 0.28606907 -0.64387167 0.5748513
000240 31 05 10 3f 0f 00 bd 3f 3c a8 00 3f 4b cf 76 bf
       0.5625792 1.4765643 0.50256705 -0.96410054
000250 60 8e 34 bf fa cf 81 3f 63 ef a6 3e 5f e1 3a 3e
       -0.70529747 1.0141594 0.32604513 0.18250035
000260 3e 8d 23 3e 01 9c 97 3d 8c 7a 97 3b 4e b1 f9 3e
       0.15971848 0.07402802 0.004622763 0.48768085
000270 60 6d 81 be 30 c2 02 be df 04 54 3f d2 1a e6 3e
       -0.2527876 -0.12769389 0.8281993 0.44942337
000280 d0 43 82 3f c4 41 13 3f 21 75 44 3f 2a 4a 0d 3f
       1.0176945 0.57522225 0.76741225 0.5519129
000290 8a d8 01 bf 23 84 07 bf e3 96 19 3f 5e 83 ff 3e
       -0.5072104 -0.52936 0.5999586 0.49904913
0002a0 b5 e6 7d 3e 5d 20 60 3e bc ca 92 3e 79 99 ff be
       0.24795039 0.21887346 0.286703 -0.49921778
0002b0 bf 01 25 c0 2a d4 8f bd de ce fd 3d 67 39 f6 be
       -2.5782316 -0.07022889 0.123929724 -0.4809067
0002c0 d0 19 97 bc 33 0c 79 3d 48 dc 80 3e 10 dd 3a 3f
       -0.018444926 0.06080265 0.2516806 0.72993565
0002d0 51 73 84 3e 33 80 30 3f 82 c8 f2 3e 6b 94 8c 3e
       0.2586923 0.68945616 0.474186 0.27456984
0002e0 1f 77 34 bf b5 d9 95 3e 05 87 b7 3e b1 95 6c 3f
       -0.70494264 0.2926766 0.358452 0.9241591
0002f0 21 5e 49 3f 07 68 7d 3e f9 f9 53 3e d3 4e ea 3d
       0.78659254 0.24746715 0.20700826 0.11440816
000300 b7 bb 51 3f b6 71 96 3e 0e e2 50 ba 5f 88 96 bf
       0.81927055 0.2938363 -0.0007968255 -1.1760367
000310 74 7c 13 40 9c 2e 80 bf b4 56 e6 bd 14 66 60 be
       2.304471 -1.0014224 -0.11247006 -0.2191394
000320 9f ac ea 3f cc 67 50 bf d7 95 83 c0 2e 94 a8 c0
       1.833393 -0.8140838 -4.112041 -5.2680883
000330 97 57 2d 40 48 80 b3 3d 92 92 6a bf e6 82 ad bf
       2.708471 0.08764702 -0.916299 -1.3555572
000340 9f c0 a8 3f cc eb 08 3f b6 b6 24 40 87 1c 9d 3f
       1.3183783 0.534848 2.5736518 1.2274331
000350 78 6f 6d 3d 39 4c 07 c0 60 61 3f 3d 1d 93 01 c0
       0.057967633 -2.1140273 0.046723723 -2.024604
000360 f5 ae 05 3f 93 58 6c 3f d3 a7 93 3f e4 01 09 c1
       0.5222009 0.92322654 1.1535591 -8.562962
000370 f1 1d 7e be 07 72 c5 3e 0b 18 8f bf 20 d2 dd c0
       -0.24816109 0.38563558 -1.1179212 -6.9319
000380 07 92 6a bf e8 c4 3a bf 6b f7 53 3f c8 d5 ac c0
       -0.9162907 -0.72956705 0.82799405 -5.4010963
000390 bc 0b 25 40 93 5c af bf 93 62 4c 3e 08 5f 5d c0
       2.5788412 -1.3700126 0.19959478 -3.4589252
0003a0 c2 44 92 c0 af e3 54 bf da e8 dd be 46 ff c0 c0
       -4.5708933 -0.8315992 -0.43341714 -6.0311613
0003b0 a2 70 47 3e ad 3a 0e 3f b9 47 df be 98 ce 9e 3f
       0.1947656 0.5555828 -0.43609408 1.2406797
0003c0 e3 38 fb 3e 70 0b a6 be 0d 0b 0e 40 f6 6a 50 3f
       0.4906684 -0.324306 2.2194245 0.8141321
0003d0 fb c8 1a bf b2 0b 6c 3e c1 31 85 bf ae 35 92 bd
       -0.6046292 0.23051336 -1.0405809 -0.07139145
0003e0 60 5a 40 3f 89 11 8a 3f 1a df 3d be 53 46 6d 3f
       0.751379 1.0786601 -0.18542138 0.9268543
0003f0 df cf 1f c0 16 9b ae c0 92 b8 b5 3e f2 f1 89 c0
       -2.4970624 -5.4564314 0.35492378 -4.3107843

fc_2.bias f4 [32]
000000 0b 53 4d bf 22 29 1d 3f ce 3f 61 3f 39 08 f2 3f
       -0.8020484 0.6139089 0.87987983 1.8908759
000010 3a 2d ec be fb a6 fe 3e 38 41 54 bf 12 54 ac be
       -0.46128255 0.4973677 -0.82912016 -0.3365789
000020 cc 6d 53 bf ff 63 3c 3f f1 47 70 bf e6 a5 eb 3e
       -0.8258941 0.7359008 -0.93859774 0.46025008
000030 9b 93 8a be 6d 81 02 3f 40 31 55 3f f9 bf 44 3f
       -0.2706574 0.5097874 0.83278275 0.7685543
000040 5d 31 84 3d e7 d8 53 bf 93 b1 df 3e 83 5a 4f bf
       0.06454728 -0.8275284 0.43690166 -0.80997485
000050 c4 88 87 3e 05 98 5a 3e db 62 b5 3f 5c 8f b8 3e
       0.2647153 0.21347053 1.4170793 0.36046875
000060 32 7d 11 3f df 13 05 bf 9e b8 ca be 54 b2 2c 3f
       0.5683166 -0.51983446 -0.39593977 0.6745961
000070 a8 66 47 3f 98 c1 8d 3f 7c 4a 4c 3f dc 5d 05 3f
       0.77891016 1.1074705 0.79801154 0.52096343

fc_out.weight f4 [9, 32]
000000 ba 30 78 3f f5 c7 6b bf a7 fe 6c bf a3 0f 06 41
       0.9694935 -0.92101985 -0.9257607 8.378818
000010 8e 00 8c 3f 5c ec 70 bf b9 d4 5a 3f 82 df d7 3f
       1.0937669 -0.94110656 0.8548084 1.6865084
000020 69 df 0d 3f b1 49 16 bf 44 29 dc be d1 a1 bd be
       0.5541902 -0.58706194 -0.43000233 -0.3703752
000030 90 fc ab 3f 79 dc 9a be 3b 09 24 bf 0c 55 0d bf
       1.3436451 -0.30246332 -0.64076585 -0.55207896
000040 ad 79 87 40 bf 6a aa be 7f 86 91 bf 14 30 ca 3d
       4.233603 -0.33284566 -1.136917 0.098724514
000050 b4 f9 1b c0 ab 99 48 bf 74 b4 cb 3f 9a 11 9d bf
       -2.4371157 -0.7835948 1.5914445 -1.2270997
000060 0a 4e 8b be cb 36 3e c0 db 58 30 be 10 a5 a8 be
       -0.27207977 -2.9720943 -0.17221396 -0.32938433
000070 ab 8a d0 be 1f 6d c7 be e1 b9 30 bf 3e 0d 6a be
       -0.40730795 -0.3895044 -0.6903363 -0.22856614
000080 9f 8a 63 3f d6 fd 70 bf 97 ea 6a bf 2f 24 01 41
       0.88883394 -0.9413732 -0.91764206 8.071334
000090 c9 2b 19 3f 03 3e 61 bf ef 9d 44 3f 5f 3c df 3f
       0.59832436 -0.8798525 0.7680349 1.7440299
0000a0 6d ad d9 3e ce 8d 13 bf 2c a8 8a be 15 bc ee be
       0.42515126 -0.5763825 -0.2708143 -0.4662787
0000b0 4c 88 a9 3f 72 c6 ce be 3d 2a 08 bf 27 c5 10 bf
       1.324472 -0.40385777 -0.5318945 -0.5655083
0000c0 0f d7 5b 40 9b 01 02 bd 5e 74 87 bf 07 cf 8f 3e
       3.4350011 -0.031739812 -1.0582387 0.28087637
0000d0 34 db 17 c0 f2 69 4f bf 1e 19 0d 40 85 86 a9 bf
       -2.372754 -0.81021035 2.204658 -1.3244177
0000e0 7a eb be be e9 a0 39 c0 2c 9c c6 3e 5d 9b 01 bf
       -0.3728903 -2.9004462 0.38791025 -0.5062769
0000f0 64 e9 91 be 63 e3 de 3d a5 77 ff be 96 ff c5 be
       -0.28498375 0.10883214 -0.4989597 -0.3867156
000100 18 46 3a 3f 5c 1a 4f bf d2 bb 4e bf ca b7 03 41
       0.72763205 -0.80899596 -0.8075534 8.23237
000110 b4 79 4d 3f e7 dc 61 bf 5d 78 f9 3e 0e f9 ec 3f
       0.8026383 -0.88227695 0.48724642 1.8513505
000120 3a a1 df 3e c5 cd f2 be 74 78 f6 bb f4 73 03 bf
       0.43677694 -0.47422615 -0.0075216834 -0.51348805
000130 ab c1 ab 3f 32 d6 04 bf fc bc 1b bf 20 04 08 bf
       1.3418478 -0.51889336 -0.6083524 -0.53131294
000140 db 44 39 40 31 8d b1 3e 16 dd 8f bf 10 6d b9 3e
       2.8948276 0.34678033 -1.1239345 0.3621602
000150 1f 66 13 c0 30 58 46 bf 4a f9 19 40 6e 27 b6 bf
       -2.303108 -0.77478313 2.4058404 -1.4230783
000160 b3 56 a6 be 36 87 41 c0 b9 c5 d8 3d c3 e9 ef be
       -0.3248802 -3.0238776 0.105845876 -0.46858034
000170 dc 76 e4 be 12 4d db 3e 23 d3 e8 be 8f af fc be
       -0.44621933 0.42832237 -0.45473585 -0.4935269
000180 a2 1e 1b 3f bc e1 27 bf 28 d6 2f bf 72 a7 e9 40
       0.60593617 -0.6557882 -0.6868615 7.30169
000190 3a 77 c0 3e 6a a6 3d bf d2 fe fc 3e 73 a8 07 40
       0.37590963 -0.7408205 0.49413162 2.1196563
0001a0 4b 30 cb 3e df 5c be be 87 87 cc 3e 8c 00 01 bf
       0.39685282 -0.3718023 0.3994715 -0.5039146
0001b0 2f 87 ae 3f 2c 85 20 bf 66 23 dd be 52 16 de be
       1.3635005 -0.62703204 -0.4319107 -0.43376404
0001c0 f3 06 f1 3f c2 a9 12 3f b5 f5 96 bf bb 12 f8 3e
       1.8830246 0.5729028 -1.1793734 0.4845179
0001d0 25 5a 13 c0 74 e8 23 bf 04 85 22 40 05 44 c2 bf
       -2.302377 -0.6402657 2.5393686 -1.5177008
0001e0 b3 fa 0b bf 4f e3 49 c0 58 35 86 3e 29 0f 00 bf
       -0.5467941 -3.1544988 0.26212573 -0.5002313
0001f0 09 d5 c5 be 6c 45 ea 3f f0 29 15 bf a1 ba 26 bf
       -0.38639095 1.8302436 -0.58267117 -0.65128523
000200 24 5e b4 3d c4 71 1c bf 2e ac 13 bf 74 4e c2 40
       0.088070184 -0.6111109 -0.576846 6.072077
000210 b0 a4 59 3d 13 39 36 bf 72 8c c0 3d 59 b0 24 40
       0.053135574 -0.7118084 0.09401788 2.5732634
000220 70 4a fb 3e 3a 03 ec be 17 7b 2e 3f ca ad 12 bf
       0.4908023 -0.46096212 0.6815657 -0.5729643
000230 c9 ab a3 3f d5 13 2d bf be a9 01 bf 80 46 dc be
       1.27868 -0.67608386 -0.5064963 -0.43022537
000240 2c 5d bf 3f 2b 01 41 3f c3 65 94 bf 13 09 56 3f
       1.4950309 0.7539241 -1.1593555 0.83607596
000250 3f 64 10 c0 5a 9d d3 be c4 a7 34 40 31 63 d4 bf
       -2.2561185 -0.41330987 2.8227396 -1.6592771
000260 f7 c3 e5 be ec b9 53 c0 74 d6 5c 3e e4 c9 11 bf
       -0.44876072 -3.3082228 0.21566182 -0.56948686
000270 46 5a e7 be 97 32 3c 40 d5 06 d5 be 20 a6 3a bf
       -0.4518606 2.9405878 -0.41606775 -0.72909737
000280 e4 51 7a bb 63 54 2f bf 0c dd d2 be b4 78 8c 40
       -0.0038195783 -0.6848814 -0.4118427 4.3897343
000290 76 90 06 bf 0d c0 1c bf f9 70 b6 3e 76 a8 40 40
       -0.5256418 -0.61230546 0.35633066 3.010282
0002a0 38 1d dc 3e 38 8d d9 be 1b fd 70 3f 9f 7f 3c bf
       0.42991042 -0.42490554 0.9413621 -0.73632234
0002b0 d3 68 ad 3f 17 b5 15 bf f3 16 0d bf 1d 86 eb be
       1.3547615 -0.58479446 -0.5511314 -0.46000758
0002c0 92 0a de 3e 7d 5b 2d 3f 74 e8 9a bf 5b 48 75 3f
       0.4336744 0.67717725 -1.2102189 0.9581353
0002d0 2e 18 0c c0 7c 8d 94 be 52 35 88 40 b0 7c ef bf
       -2.1889758 -0.29014194 4.256509 -1.8709927
0002e0 84 23 ee be 4b 70 64 c0 84 e8 dd 3e 3c 43 f7 be
       -0.4651147 -3.5693538 0.43341458 -0.48293483
0002f0 ef 13 f7 be 6f 53 95 40 ff 77 a7 be f7 1c 7e bf
       -0.48257396 4.666435 -0.32708737 -0.99262947
000300 8b 87 84 3e bf f6 ed be 49 25 ad be ee 7b 6a 40
       0.2588466 -0.46477315 -0.3381751 3.663814
000310 e5 19 b9 be 60 fe ea be ba d2 97 3e e9 bd 40 40
       -0.36152568 -0.45897198 0.2965296 3.0115912
000320 e4 4d 17 3f 34 a1 c3 be 64 30 d3 3e 3a 12 56 bf
       0.59103227 -0.38208926 0.41247857 -0.8362156
000330 37 81 b0 3f 23 d1 5c bf 84 08 87 be 32 e0 06 bf
       1.3789433 -0.8625662 -0.26373684 -0.52685845
000340 c3 1f 94 3d e3 bd 31 3f a8 b3 9c bf a9 9c 3f 3f
       0.072326206 0.6943037 -1.2242327 0.7484842
000350 2d fa 0d c0 70 6f 45 be ad cd 4f 40 27 52 fa bf
       -2.2183945 -0.19280791 3.2469285 -1.9556321
000360 77 69 f7 be 9e 5a 66 c0 36 a5 6c 3d 3c ee 0b bf
       -0.4832265 -3.5992808 0.057774745 -0.5466039
000370 9e 51 12 bf 64 61 af 40 b8 86 eb be 40 85 7e bf
       -0.5715579 5.4806385 -0.4600122 -0.99422073
000380 ce 78 d5 3e 4e 8b e6 be 4a 9b 91 be d4 03 06 40
       0.4169373 -0.45028156 -0.2843879 2.0939837
000390 5c 7e 88 bf ef 28 09 bf 85 a2 cf 3e 21 db 4a 40
       -1.0663562 -0.53578085 0.4055368 3.1696246
0003a0 99 c1 0f 3f 1c 92 0f bf bf d2 09 3e e2 81 5e bf
       0.5615478 -0.5608232 0.134593 -0.86916935
0003b0 18 aa ac 3f b8 bb 54 bf 3a d4 4c be 47 7e bf be
       1.3489408 -0.83098936 -0.20002833 -0.3740103
0003c0 1c ae a9 be 91 03 27 3f 45 c4 a2 bf 53 c0 17 bd
       -0.33140647 0.65239817 -1.2716147 -0.03704865
0003d0 48 a1 08 c0 4e 50 85 be 51 96 85 40 e2 fc fc bf
       -2.1348438 -0.2603783 4.174599 -1.9764674
0003e0 0f a9 13 bf b9 67 6a c0 08 51 7a be c9 07 09 bf
       -0.5767984 -3.6625807 -0.24444973 -0.53527504
0003f0 81 a6 20 bf 94 07 d6 40 7b 15 79 be c8 97 96 bf
       -0.62754065 6.688425 -0.243246 -1.176507

fc_out.bias f4 [9]
000000 9a 3a 99 bf 47 30 8a bf 70 69 61 bf 17 64 49 bf
       -1.1971009 -1.0795983 -0.8805151 -0.7866835
000010 74 aa 41 bf 94 c3 23 bf 2b 3a f0 be 6e 08 5a be
       -0.75650716 -0.63970304 -0.4691938 -0.21292278
000020 d6 cc 55 bf
       -0.8351568
