Pendulum_DQN/saved_model/0404/DQN_Q_EP190.pt (torch, 12311 bytes, 6 tensors)

fc_1.weight f4 [64, 3]
000000 78 1d 1d be 87 c3 64 40 c8 8c 3a 3f d8 96 56 bf
       -0.15343273 3.574434 0.72871065 -0.8382392
000010 32 d1 51 bf 5e 89 ff be e1 9d 18 3f 46 b5 58 bf
       -0.8195983 -0.4990949 0.59615904 -0.846516
000020 34 1a 4e 3f b9 6d 09 bf 41 ff 87 3e c2 41 49 3f
       0.8050873 -0.5368305 0.2656193 0.78615963
000030 85 75 e6 3f 57 37 0a c0 be 32 2f bf a5 35 9b bf
       1.8004614 -2.1596277 -0.684368 -1.2125746
000040 f2 1c 01 c0 06 e3 ea be 5e 0f b7 bf e8 23 2c bf
       -2.0173917 -0.4587633 -1.4301565 -0.6724229
000050 b9 a3 9b bc 3b d6 2e bf 48 67 49 c0 38 73 8d be
       -0.018998967 -0.6829564 -3.1469288 -0.27626967
000060 23 d8 6c 40 e9 fc 18 c0 a2 bc 54 bf ff d3 ae bf
       3.700692 -2.3904364 -0.8310033 -1.3658446
000070 22 69 1a 40 db d1 3f 3f 22 84 19 40 98 72 9d 40
       2.4126668 0.7492959 2.3986897 4.9202385
000080 5b 10 9f 3f bd 3c 9e bf 97 b4 6c 40 b9 98 29 3f
       1.2426866 -1.2362286 3.6985223 0.6624866
000090 32 97 55 40 2b db 17 40 2c 75 a6 3e d7 2d d6 3f
       3.3373532 2.372752 0.3251127 1.6732739
0000a0 d9 f2 35 40 b0 d0 45 3f c3 c9 fa bd bb 3b 4f c0
       2.8429472 0.77271557 -0.12245514 -3.2380207
0000b0 87 22 32 bf 35 f2 90 be 6f ec 35 c0 f7 0b 0f bf
       -0.69583935 -0.2830979 -2.8425558 -0.5587763
0000c0 2a 7e 4c bf 0b e8 26 bf 77 b5 80 be 19 30 59 40
       -0.7988001 -0.6519782 -0.25138447 3.3935606
0000d0 d5 24 5d 3f 64 2e 5b 3f 04 ea 2f 40 4c ad 87 3f
       0.86384326 0.8561766 2.7486582 1.0599761
0000e0 3e 61 89 3f 2a d1 b0 be e4 75 3d 40 20 e8 28 3f
       1.0732801 -0.3453458 2.9603205 0.65979195
0000f0 72 e4 e3 3e 77 71 4c 40 20 56 ed 3e 9f 6c 4c 3f
       0.44510227 3.1944253 0.4635477 0.7985324
000100 fd 92 3d c0 f9 ff b0 3d 4d e8 89 3f 2b 41 d2 3f
       -2.9620965 0.08642573 1.0774018 1.6426138
000110 f4 63 b5 3e 7b df 09 c0 0d 97 e5 3d b5 64 a3 3e
       0.3542782 -2.1542652 0.11210451 0.3191277
000120 07 27 10 be e2 fa fa 3f 91 0d b3 3e c2 64 ae 3f
       -0.14077388 1.9607813 0.34971288 1.3624499
000130 dd d9 60 be 6e 51 e2 be ea 2a 1b c0 e1 56 34 3f
       -0.21958108 -0.4420275 -2.4244943 0.70445067
000140 50 fa 22 3f 86 ee 0c 40 7a 73 31 c0 be 8e 36 bf
       0.63663197 2.2020583 -2.7726731 -0.7131156
000150 59 76 21 c0 bb 69 43 bd 15 71 be be e1 bb 8e 3f
       -2.5228484 -0.047708254 -0.3719565 1.1151086
000160 5e f6 8e c0 3a 5b 79 bf 64 44 fb bf 77 90 ac bf
       -4.467574 -0.97404826 -1.9630246 -1.3481587
000170 53 b2 1a be 6c 87 f5 3f 74 b8 15 40 20 a0 24 3f
       -0.15107088 1.9181952 2.3393831 0.6430683
000180 e4 2c 26 c0 82 5e 62 c0 dc 3c fb 3b 4b f6 b0 bf
       -2.59649 -3.5370183 0.007667167 -1.3825163
000190 c5 0a a9 3e db 79 a2 be a0 f1 2f 3d 9f 15 d7 bf
       0.3301603 -0.31733593 0.04295504 -1.6803473
0001a0 12 74 3e 3f 9d b7 ce 3f e5 47 43 c0 ef 7c 27 bf
       0.7439586 1.6149784 -3.051263 -0.6542501
0001b0 a9 e3 51 c0 49 c8 dc bf 03 ef 0d be e7 52 b1 be
       -3.2795203 -1.7248622 -0.13860707 -0.34633562
0001c0 03 f7 8a 40 58 bd 38 3f a9 91 0b c0 85 b1 8d be
       4.342653 0.72163916 -2.1807654 -0.276745
0001d0 2b 9f ae 3e 54 f9 03 c0 6a 64 e4 3f 21 56 0e 3f
       0.3410581 -2.0620928 1.7843144 0.5560017
0001e0 30 9a 95 3f 87 9c 74 40 a3 be 36 3f 83 61 46 c0
       1.1687679 3.8220537 0.7138464 -3.0997016
0001f0 97 33 1b 40 1e 3c 91 be 2a c1 8b bf a3 ba 68 bf
       2.4250238 -0.28366178 -1.0918324 -0.90909785
000200 f0 5d 89 bc 33 37 2f 40 2a dd 00 c0 08 1e 67 bf
       -0.016768426 2.737744 -2.0134988 -0.902802
000210 b9 36 30 40 c2 dc 88 bf 86 8a 67 bf 81 10 39 3f
       2.75334 -1.069237 -0.90445745 0.7229081
000220 dd 93 b1 3f 6b 53 d6 be fa 45 a9 bf 56 08 ec bf
       1.3873249 -0.41860518 -1.322448 -1.8440044
000230 04 1e a3 be 33 87 56 bf 1b f4 0c 40 b1 96 8c 3f
       -0.31858838 -0.8380005 2.202399 1.0983487
000240 9e 63 5e bf 1b 7a 16 3f 79 4a 37 bf ee d2 0e c0
       -0.86870754 0.5878007 -0.7159801 -2.2316241
000250 dc d6 7a 40 81 83 c3 3e a0 6d 23 40 b2 8e 81 40
       3.919364 0.38186267 2.553566 4.048669
000260 57 5e 92 3f 9d ba d2 bf d4 17 e5 bf bb 15 41 3e
       1.143504 -1.64632 -1.7897897 0.18855946
000270 c0 5a 3b bf ba 17 6f bb 5e 37 1f be 03 30 dc bf
       -0.7318535 -0.0036482648 -0.15548465 -1.7202152
000280 f5 fc 52 3d c5 07 be bd 8e d2 74 bf d3 30 77 3e
       0.05151077 -0.09278826 -0.9563378 0.24139719
000290 ff b5 81 be c4 87 a1 be 00 b7 c4 be 0f f3 b4 bd
       -0.25334165 -0.31548893 -0.38420868 -0.08835422
0002a0 83 ec 45 be 0d 3f c4 bf b7 be 3c bf 56 89 0b c0
       -0.19328503 -1.5331742 -0.7372851 -2.1802573
0002b0 6b 11 21 be 8c d9 2b 3e 76 25 71 bf 87 cb 0a 40
       -0.157293 0.16782206 -0.94197786 2.1686723
0002c0 20 c8 01 3f cb 8f 07 c0 9d 8e 6d bf 75 af 4f 3e
       0.5069599 -2.1181514 -0.92795736 0.20281775
0002d0 0f b5 a6 3f 4e 65 9b c0 2b ed 8b bf 60 30 d0 3f
       1.3024005 -4.8561163 -1.0931753 1.6264763
0002e0 b6 11 4a 40 dc 7d 44 3f c5 8b 5a 3e ed ab f4 3f
       3.157331 0.76754546 0.2134238 1.9114968
0002f0 ea cd 8c 3e 6d 0a 90 3f 06 4d 8b 40 b0 1f 13 3f
       0.2750085 1.1253182 4.3531523 0.57470226

fc_1.bias f4 [64]
000000 8c 65 7b 3f 3a 1a 41 3d f1 cd 8a bf 6f 42 06 bf
       0.98201823 0.047144152 -1.0844098 -0.5244512
000010 61 8c 8e bf 61 53 71 3f cd 15 34 3e 0c 15 dd bd
       -1.113659 0.9426785 0.17586441 -0.1079503
000020 3d b8 43 3f 27 00 9c bf c3 25 38 c0 95 99 21 3f
       0.76453 -1.2187546 -2.8773048 0.6312497
000030 df 70 04 c0 b5 f2 8c bf 2a 89 80 be b6 f8 31 be
       -2.069389 -1.1011568 -0.25104648 -0.17380032
000040 f0 a6 35 3f e0 cf 12 c0 d0 b4 7b c0 b7 c0 39 bf
       0.7095785 -2.2939377 -3.932911 -0.72559685
000050 a0 03 c5 bf f3 3a 4f bf 31 c9 55 bf ac 18 51 3f
       -1.5391731 -0.80949324 -0.8351012 0.8167827
000060 c2 94 6a 3f 97 6c 6b 3f 93 e1 81 3c b2 76 d7 bf
       0.91633236 0.9196257 0.015854632 -1.6833098
000070 d7 32 ba be fe 70 f2 bf 3a ef b9 bf f4 44 d0 bf
       -0.36366913 -1.8940732 -1.4526131 -1.6271043
000080 f5 80 3a c0 b9 6b a0 3f 03 1b 7b 3e fb fe 8a bf
       -2.914121 1.2532874 0.24522023 -1.0859064
000090 20 0e a4 bf f0 b1 a9 be 13 31 8f 3f 12 20 f3 3f
       -1.2816811 -0.33143568 1.1186851 1.8994162
0000a0 10 45 4f bf 6e f3 39 c0 f8 cd 82 3f 7f 31 17 c0
       -0.80964756 -2.9054828 1.0219107 -2.362396
0000b0 6a de 3d c0 33 91 80 3f 49 4d 45 be b7 57 83 bf
       -2.9667 1.0044311 -0.19267763 -1.0261143
0000c0 53 d3 c3 be 39 8f 97 bf c0 3d a6 bf d9 09 76 be
       -0.38247165 -1.1840583 -1.2987595 -0.24027194
0000d0 a6 f7 58 3f 19 6f b7 3e 97 7b ca 3f 5b 89 01 bf
       0.8475288 0.35826948 1.5818967 -0.5060021
0000e0 4c 4a b5 be 53 b8 51 3f 72 a9 b6 3f fe f4 04 bf
       -0.35408247 0.8192188 1.4270461 -0.5193633
0000f0 f0 01 e7 bf a5 6d 82 bf bf ea 88 be c2 a9 c7 bf
       -1.8047466 -1.0189711 -0.26741597 -1.5598681

fc_2.weight f4 [32, 64]
000000 3c 82 43 bf 57 c5 73 be 82 a6 db 3d 48 9f 2e bf
       -0.76370597 -0.23805748 0.10725118 -0.68211794
000010 9b bf dc 3e 15 76 19 bb 8b c3 a3 bf cf 93 43 3f
       0.43114933 -0.002341633 -1.279405 0.76397413
000020 e5 67 8b bf f3 46 8d 3f 21 85 58 3f 79 4a d9 be
       -1.0891081 1.1037277 0.8457814 -0.4243963
000030 dc 13 83 c0 a5 8c b4 be ed 39 86 3f 6f e1 b5 3e
       -4.0961742 -0.35263553 1.0486428 0.35523555
000040 c9 18 4d 3d 94 48 02 c0 29 c9 2d 40 fe df b8 3f
       0.050072465 -2.0356798 2.7154028 1.4443357
000050 d7 91 73 3f 58 cc c8 bf e4 d7 ac bd d2 ed 85 3e
       0.9514441 -1.5687361 -0.08439615 0.26158005
000060 2d 5f 55 bf a1 a9 7d bf 7b 4a 02 bd 5d 8a bb bf
       -0.8334835 -0.9908696 -0.03180931 -1.46516
000070 2f a8 c7 3e e7 5d 03 3f a3 a1 a8 3f 4b b5 a4 be
       0.389955 0.5131516 1.3174328 -0.32169566
000080 f5 1d 8c c0 0c d5 fd 3d 91 e7 8e bf ae e2 d0 be
       -4.378657 0.12394151 -1.1164418 -0.40797943
000090 81 a9 f0 3d e0 86 e0 3e 16 a5 d9 bd 60 3b 70 bf
       0.1175108 0.438529 -0.10627191 -0.938406
0000a0 1a cd 61 bf 92 ac 07 3e 9e 50 8c bc 79 26 13 bf
       -0.88203585 0.13249424 -0.017128285 -0.5748058
0000b0 1e 35 d5 3e e5 33 dd bf 0a 19 e7 3b db 63 5a 3f
       0.41642088 -1.7281462 0.0070525454 0.8530862
0000c0 35 99 a8 3e 3b 25 9c 3f 2f 6b d0 bf c2 8c e9 bf
       0.32929388 1.2198862 -1.628271 -1.8246081
0000d0 04 52 f9 3e 99 49 6b bf 16 d2 f0 be a6 6b 44 3e
       0.48695385 -0.91909176 -0.47035283 0.1918169
0000e0 c8 db f0 3e 76 17 11 3f 44 0f 83 bf 09 10 a6 bf
       0.4704268 0.56676424 -1.0239034 -1.2973644
0000f0 82 f6 ca be 8d 33 39 bf da de 64 be 94 29 a5 be
       -0.39641196 -0.72344285 -0.22350636 -0.32258284
000100 bd 50 4a 3f 84 33 88 be e8 74 3a bf 7a b6 be bd
       0.79029447 -0.26601803 -0.72834635 -0.093121484
000110 90 6a 6c c0 94 8f 35 3f 8c 7c 39 3e 59 4d 20 3f
       -3.694004 0.7092221 0.18113917 0.62618023
000120 37 97 cf bf 7b d6 6b bf e1 b6 16 c0 88 e7 f2 3e
       -1.6218022 -0.92124146 -2.354912 0.4744227
000130 f6 40 8f 3f 69 21 90 bf 34 41 90 bf 5f 5d a5 bd
       1.11917 -1.1260196 -1.1269898 -0.0807445
000140 8f c8 06 3f 38 52 0a bf 52 de ab c0 79 0f 9b bf
       0.5264978 -0.54031706 -5.3708887 -1.2114097
000150 ec d0 0d 3f 99 e1 ed bf d2 67 ad 3d 52 4e 7e bd
       0.55396914 -1.8584472 0.08467068 -0.06208641
000160 f6 5b 9c 3f 43 82 2b 3f 3f db 09 bf 41 3d 89 40
       1.2215564 0.6699564 -0.5385017 4.2887273
000170 3e 02 7b bf 71 36 7a 3e 7f bf a5 be 61 c2 dd bf
       -0.98050296 0.2443483 -0.32372662 -1.7324945
000180 f5 d9 05 40 af a2 79 3f 8d 8b 99 be 49 01 5b be
       2.091428 0.9751386 -0.2998928 -0.21387209
000190 8f 34 15 3f 47 db a8 be 84 d5 14 3f 43 d1 82 3f
       0.58283323 -0.32979795 0.581383 1.0220112
0001a0 be ab cb 3e 13 78 f5 bf 2f 3e 08 3f d3 95 07 c0
       0.39779466 -1.9177269 0.53219885 -2.1185195
0001b0 40 14 50 c1 bf f8 84 3e c6 46 a2 3d c5 11 f0 bf
       -13.004944 0.25971028 0.07923655 -1.8755423
0001c0 f6 86 5d 3e 5c c4 1c 3f c0 88 ce be 9a 44 12 40
       0.21633515 0.6123712 -0.40338707 2.285437
0001d0 6a 0b 0b 3f da 49 3c 3e 6a 5b 76 3f 0e 44 85 3e
       0.5431429 0.18387547 0.96233237 0.26028484
0001e0 f9 ea 1c bf a7 4e c5 3e 53 96 7b 3f d2 e9 c3 3f
       -0.6129604 0.3853657 0.9827625 1.5305731
0001f0 33 73 d9 3e 0b f6 03 bf 26 18 f1 3d c5 3a a0 3f
       0.42470703 -0.51547307 0.11772184 1.2517935
000200 d2 cd 5d 3f b4 bd 41 bf 76 d2 d0 3d 9f 9b 82 be
       0.8664218 -0.7568009 0.10196392 -0.25509354
000210 f9 44 a0 bf e0 dc 9b 3e 3a 18 28 be b6 f9 c2 bd
       -1.2521049 0.30441952 -0.16415492 -0.09520285
000220 b2 77 8c 3f 0f 07 57 bf 9e c3 bc 3e 73 a7 9a 3e
       1.0974028 -0.83995146 0.36867994 0.3020588
000230 14 17 bb bd 19 a9 b7 bd 22 a2 d7 be c9 2e d1 3e
       -0.09135261 -0.089678 -0.42115885 0.40856007
000240 71 50 20 3f 7a 14 86 3f c6 bf 26 3f cf fb 89 bf
       0.62622744 1.0474999 0.65136373 -1.0779971
000250 4c 64 00 bf 99 48 e6 3f 26 bd a1 bd cb a7 ba be
       -0.5015304 1.7990905 -0.07897405 -0.3645614
000260 22 84 22 3f d7 41 23 3f a6 8d 5d bd e9 9b 48 3f
       0.6348287 0.6377234 -0.054090165 0.783629
000270 fe 27 74 bf 97 54 7f 3e 63 fb 8f bf 78 d9 4f be
       -0.95373523 0.24934612 -1.1248592 -0.20297801
000280 25 47 b2 3f 9b 67 67 3f e4 87 99 3f 67 36 e4 3e
       1.3927962 0.90392464 1.1994596 0.44572756
000290 d2 6b 9a bf 5c f1 a3 be 7a 2f c7 3d 71 ba 57 3f
       -1.2064154 -0.3202008 0.09725852 0.8426886
0002a0 91 30 07 3f dc 68 dc 3d a9 34 dd 3d bc d1 c5 bf
       0.5280848 0.10762188 0.1080106 -1.5454631
0002b0 e6 10 78 c0 af fd 5e 3b b9 b5 5e bf 69 26 97 bf
       -3.8760314 0.003402572 -0.86996037 -1.1808597
0002c0 57 7c 11 bf 28 6a 62 be 90 05 4a 3f 8d 0d 39 3f
       -0.5683035 -0.22110808 0.7891474 0.722863
0002d0 8e e2 bf 3e c2 ea 05 3f c9 a3 82 3f ce f0 da bd
       0.37477535 0.52311337 1.0206233 -0.10690461
0002e0 8d 27 91 bf ab e6 b2 be 10 85 78 3f da e0 dc 3e
       -1.1340195 -0.3494161 0.9707804 0.43140298
0002f0 51 06 2e 3f e0 d4 b4 bb 0b 9c 4d 3e 07 29 76 3e
       0.6797839 -0.0055185407 0.20079057 0.24039088
000300 17 a6 8a 3f 42 d1 93 3e 7b 01 a0 3e cc 28 cd be
       1.0831937 0.2887059 0.3125113 -0.40070188
000310 a1 6d f8 3f 21 5c 9c bf ac 90 07 3f 27 72 59 bf
       1.9408456 -1.2215616 0.52955127 -0.8493981
000320 5a e8 eb 3f df 93 ec bf 60 18 1c c1 34 d1 a3 c0
       1.8430283 -1.8482627 -9.755951 -5.1192875
000330 07 d5 51 40 9f 86 00 bf 7a 55 dd bf 15 4f f2 bf
       3.2786272 -0.50205415 -1.729171 -1.8930384
000340 49 5e 05 3f a6 85 7e 3f c1 25 75 40 86 00 01 c0
       0.5209699 0.9942268 3.8304293 -2.015657
000350 3b 8a 37 c0 62 28 dd bf ba bf 2c be 7c b7 a7 bf
       -2.867812 -1.7277949 -0.16870013 -1.310287
000360 18 e3 48 3e d6 b8 85 3f 00 70 cb 3f 14 72 10 c1
       0.1961788 1.0447032 1.5893555 -9.027851
000370 4f 0a 4a 3e 34 a2 9f 3f 91 f0 bc 3f 13 ce df c0
       0.19730495 1.2471375 1.4760915 -6.9939055
000380 ae a6 0a c0 25 bf 78 3d 5e 47 a4 3e 17 e6 ac c0
       -2.1664233 0.060729165 0.320857 -5.403087
000390 95 a9 b5 3f 6f e3 5c c0 56 77 73 bd d2 84 2b c0
       1.4192377 -3.4513814 -0.05943998 -2.6799817
0003a0 0f 35 9e c0 72 2d 62 bf c1 0a 51 bf a7 03 8a c0
       -4.943977 -0.88350594 -0.81657034 -4.312946
0003b0 5c d8 b6 bf b6 9b 50 3f 2a 37 99 bd 91 22 18 40
       -1.4284778 0.81487596 -0.07481225 2.3771098
0003c0 34 2a 6d 3f 82 c3 99 c0 ad e3 29 40 b1 66 38 3f
       0.9264252 -4.8051157 2.6545212 0.72031695
0003d0 fa cf cf 3e fc 65 67 be 56 14 3d be 1f d3 b5 3c
       0.4058836 -0.22597498 -0.18464789 0.022195397
0003e0 e0 c3 99 3d 58 ba f5 3e 00 04 5f bf f3 ef 9e 3f
       0.07508063 0.47993731 -0.8711548 1.2416977
0003f0 a6 0d cf c0 ee 4a b4 c0 d1 f1 f1 3e 5c c6 06 c0
       -6.470416 -5.6341467 0.47254804 -2.105857

fc_2.bias f4 [32]
000000 58 ae fb bf 2d d4 b5 3f b8 c4 fe 3f be 9e 0e 40
       -1.966258 1.4205376 1.9903784 2.2284389
000010 46 15 98 be 75 2f 7b 3f e3 aa 30 bf 98 76 47 be
       -0.2970373 0.9811929 -0.6901075 -0.19478834
000020 25 ff f9 bf 3c a4 48 3f 35 25 07 c0 43 ec d6 3d
       -1.9530989 0.783756 -2.111646 0.10494282
000030 1f 68 05 bf 1e d3 99 3f 1c 8d 51 3b 85 a2 cd 3c
       -0.52112 1.2017553 0.0031974977 0.02510191
000040 ad 2c 9a 3e 61 25 15 c0 9e 9b c3 3e 9c f7 fb bf
       0.3011221 -2.3304064 0.38204664 -1.9684939
000050 4a e4 7e 3f ee 1a f3 3f 9a ef f3 3e 20 ed d7 3f
       0.9956709 1.8992593 0.4764374 1.686924
000060 9b 36 4e bd 00 17 15 3b eb 01 02 c0 53 c6 0e bf
       -0.050345045 0.0022749305 -2.031367 -0.5577137
000070 f8 37 01 3f 34 32 d8 3f d2 f0 0d 3f c6 a5 27 3f
       0.50476027 1.6890321 0.5544559 0.65487325

fc_out.weight f4 [9, 32]
000000 23 68 82 3d 87 4f e4 bf 8b 8b 56 bf 7c fb f1 40
       0.06367519 -1.783677 -0.83806676 7.561949
000010 96 55 53 40 fc 25 ba bf af 28 e3 3d 85 bc c6 3f
       3.3020988 -1.4542842 0.11091744 1.5526282
000020 ab 13 96 3e 66 f2 40 bf 94 5d 1d bf a6 36 b4 bf
       0.2931188 -0.7536987 -0.61470914 -1.4079177
000030 7d ed ff bc 28 2f 9f bc 62 56 ce be 2e 50 06 bf
       -0.031241173 -0.019431666 -0.4030028 -0.52466094
000040 ec d2 91 40 33 7b 76 be b6 24 04 bf 8b ee 92 bd
       4.5569973 -0.24070434 -0.51618516 -0.07174405
000050 ec 59 e0 bf a8 f1 af bf a0 b0 fa bd 0d 1d b1 bf
       -1.7527442 -1.3745623 -0.1224072 -1.383699
000060 a3 5a 0f bf 92 7e 18 c0 43 f0 25 3e f4 7d dc 3e
       -0.55997676 -2.3827252 0.16204934 0.43064845
000070 43 b5 49 bf e4 78 74 c0 5d 50 ba bf 51 d8 97 bf
       -0.7879221 -3.8198786 -1.4555775 -1.186289
000080 28 86 e4 bc 74 64 ca bf fc 1a 63 bf 89 f6 cc 40
       -0.027896002 -1.5811906 -0.8871305 6.4050946
000090 b2 78 88 3f e5 28 c3 bf ea 84 4f be 87 50 b9 3f
       1.0661833 -1.5246855 -0.20265546 1.44777
0000a0 1f a5 53 3e 46 9d 38 bf 16 d3 95 be 90 5b b5 bf
       0.20668457 -0.7211498 -0.29262608 -1.4168568
0000b0 e4 62 a4 3b ed a4 25 be bf d2 d3 be f9 d7 21 bf
       0.0050166715 -0.16176195 -0.41371724 -0.63220173
0000c0 b0 e4 6b 40 e3 61 25 be fe d4 1b bf 11 1d 16 bd
       3.685833 -0.16150622 -0.60871875 -0.036648814
0000d0 d6 96 da bf 90 60 9c bf 13 8e cc 3e 44 9e b3 bf
       -1.7077281 -1.2216969 0.39952144 -1.4032674
0000e0 3c 34 e7 be df 54 13 c0 d5 62 4d be 0c 46 bc 3e
       -0.4515704 -2.3020551 -0.20057233 0.36772192
0000f0 e1 4a 41 bf 5d e6 12 c0 18 68 b5 bf 1a b1 a4 bf
       -0.7550488 -2.2953103 -1.4172392 -1.2866547
000100 9f 21 0e 3e 74 25 be bf 70 59 72 bf 86 96 c9 40
       0.13880013 -1.485518 -0.9466772 6.2996244
000110 4d 6b 35 3f 9a ef b7 bf c2 a5 ec bc f1 78 c0 3f
       0.70866853 -1.4369996 -0.028887633 1.5036908
000120 ac 4d a2 bd a6 af 3c bf 70 bc c0 be 03 01 bf bf
       -0.07924971 -0.7370552 -0.37643766 -1.4922184
000130 da 3b 87 3c 88 2c 83 be ce 64 b6 be 27 75 54 bf
       0.016508032 -0.25619912 -0.35623783 -0.8299126
000140 af f1 6c 40 34 e6 6f be ea 5c 23 bf 16 63 70 bc
       3.7022512 -0.2342766 -0.6381365 -0.014672061
000150 59 62 d8 bf 86 42 80 bf 38 84 8e 3e 99 03 ca bf
       -1.6905013 -1.0020301 0.2783525 -1.5782348
000160 c7 88 f4 be b0 5b 14 c0 cf 18 41 bf 0c b1 82 3e
       -0.47760603 -2.3180962 -0.7542848 0.255257
000170 0a 80 47 bf 04 93 0a c0 7b c6 b2 bf 86 58 ab bf
       -0.7792975 -2.1652231 -1.3966821 -1.338639
000180 15 52 26 3f 46 85 a0 bf fc 52 5c bf 97 3b 95 40
       0.64969 -1.2540672 -0.86064124 4.663524
000190 92 df 86 3e be b7 b1 bf 91 d5 ee 3e 02 8a e1 3f
       0.26342446 -1.3884199 0.46647313 1.7620242
0001a0 09 45 3b be 99 59 44 bf 63 27 13 3f 1e e9 dc bf
       -0.18288054 -0.76699215 0.57481974 -1.7258642
0001b0 01 fb 09 3d d4 05 04 bf 5e 5a dc be df 5e 25 bf
       0.03368664 -0.51571393 -0.43037695 -0.64597887
0001c0 1f 5b 22 40 9a 22 c6 3e 67 ee 35 bf 43 e0 80 be
       2.5368116 0.38698274 -0.710669 -0.25171098
0001d0 99 d2 d0 bf 67 be 66 bf 7a c9 5c 3f 38 0d d8 bf
       -1.6314269 -0.9013428 0.8624493 -1.6879034
0001e0 12 4c b8 be f7 d8 1b c0 79 0b 2a 3e 83 af 5f 3d
       -0.35995537 -2.4351175 0.16605939 0.05461074
0001f0 f9 29 39 bf 9f fb a2 be 3f 76 b4 bf e3 ba a0 bf
       -0.7232967 -0.31832597 -1.4098586 -1.2557033
000200 0f 07 44 3f 8b 85 66 bf 60 f2 5d bf cc c5 3d 40
       0.7657327 -0.9004752 -0.8669796 2.9651976
000210 ea c0 66 3c 26 88 a4 bf 3a a9 1b 3f 03 d9 04 40
       0.01408408 -1.2854049 0.60805094 2.0757453
000220 0b f1 11 3f a9 c6 3f bf 60 4a 17 3f f6 aa ef bf
       0.5700843 -0.74912506 0.5909786 -1.8724048
000230 81 50 86 3d ee 68 51 bf 0f f4 fa be b7 02 f1 be
       0.06558324 -0.81800735 -0.49014327 -0.47072384
000240 9f c3 b7 3f cb fe 3e 3f 19 36 48 bf e4 1b 70 3f
       1.4356574 0.74607533 -0.78207546 0.9379256
000250 cf 61 c7 bf 0d bb 2b bf 98 ab ba 3f d3 59 f2 bf
       -1.5576724 -0.6708229 1.4583616 -1.8933662
000260 13 ae df be a0 c9 25 c0 db be b1 3e 3d 58 38 be
       -0.43687496 -2.5904312 0.34715924 -0.1800241
000270 bb 4b 3b bf c3 1a c8 3f 03 b4 b1 bf e8 3a b1 bf
       -0.7316243 1.5633167 -1.388306 -1.3846102
000280 da ae e4 3e 63 47 11 bf 9a 13 54 bf 87 ca 9d 3e
       0.4466465 -0.5674955 -0.8284241 0.3081858
000290 dd f7 4b bf f7 5a 92 bf bd 28 8b 3d 79 26 18 40
       -0.79675084 -1.143401 0.067948796 2.3773482
0002a0 96 36 2d 3f e8 9d 3f bf 87 36 a2 3f 83 70 15 c0
       0.67661417 -0.7485032 1.267289 -2.3349922
0002b0 a3 66 14 3e 99 d5 8b bf 58 01 ef be ac 70 c5 be
       0.14492278 -1.092456 -0.46680713 -0.38562524
0002c0 25 ae be bd c7 28 a8 3f 2c e6 66 bf cf 24 f4 3f
       -0.09310559 1.3137444 -0.90194964 1.9073733
0002d0 70 f9 c3 bf 71 42 9e be ea 0d f2 3f 63 61 0b c0
       -1.5310497 -0.30910066 1.8910496 -2.177819
0002e0 07 60 db be 78 1c 30 c0 f7 89 d5 3e ec 76 cb be
       -0.428467 -2.7517376 0.4170682 -0.39739168
0002f0 50 d4 45 bf e8 00 8f 40 1b f9 ac bf 4a e8 b6 bf
       -0.7727709 4.4688606 -1.3513521 -1.4289639
000300 c4 ee da 3e cc 82 a5 be 96 6d 3f bf 89 58 e2 bf
       0.4276029 -0.32326353 -0.7477659 -1.7683269
000310 e9 f2 7e bf f2 6f 8a bf 63 d0 06 bf 6c 4c 2e 40
       -0.995894 -1.0815413 -0.5266172 2.7234144
000320 53 5d a0 3f 53 05 3c bf 1d 67 01 40 84 6a 29 c0
       1.252848 -0.73445624 2.0219185 -2.6471262
000330 2a 9d 10 3e 9e 21 ac bf cb 2b 11 bf 9c 87 8e 3d
       0.14122453 -1.3447759 -0.5670745 0.06959459
000340 cd bf a9 bf f9 20 21 40 33 4d 84 bf f9 a7 11 40
       -1.3261658 2.5176375 -1.0336059 2.2758772
000350 b7 37 b8 bf 15 8e c8 bd 1e 9f 17 40 f8 91 17 c0
       -1.4392003 -0.09792725 2.3690867 -2.3682842
000360 5a cb 0c bf c6 9d 3b c0 ca a6 b2 3d 50 cb 02 bf
       -0.5499779 -2.9315047 0.08723219 -0.5109148
000370 74 cd 3f bf 89 02 d5 40 f7 85 ac bf b5 58 c0 bf
       -0.7492287 6.6565595 -1.3478383 -1.5027071
000380 95 80 99 3f c9 1c 48 be 35 7b 39 bf 19 71 36 c0
       1.1992365 -0.1954223 -0.72453624 -2.850653
000390 de 1c 83 bf 4c 79 83 bf 10 33 5c 3d f0 f2 36 40
       -1.0243185 -1.0271392 0.053759634 2.8585777
0003a0 60 24 02 40 72 a6 3d bf d9 46 ba 3f 96 ac 34 c0
       2.0334702 -0.740821 1.4552871 -2.8230338
0003b0 52 63 59 3e 8a 7e b8 bf b8 87 f4 be 66 20 f0 3d
       0.21229294 -1.4413617 -0.47759795 0.117249295
0003c0 38 82 de bf 4a b2 14 40 74 e8 8c bf ff 25 01 40
       -1.738349 2.323382 -1.1008439 2.017944
0003d0 a6 e1 b4 bf 03 03 13 3d 3b 6c 1e 40 e5 57 1c c0
       -1.4131362 0.035891544 2.4753559 -2.4428647
0003e0 28 ce f5 be 1d ea 3e c0 84 f5 bd 3f 93 5e f6 be
       -0.48008847 -2.9830391 1.484055 -0.4811903
0003f0 50 05 3f bf e0 b2 f3 40 72 e1 a4 bf 2c 74 d1 bf
       -0.7461748 7.6155853 -1.28813 -1.6363578

fc_out.bias f4 [9]
000000 4a c1 ea bf 63 81 17 c0 4b be b4 bf e5 5a ca bf
       -1.8340237 -2.3672721 -1.4120573 -1.5808989
000010 11 65 ba bf 98 32 b4 bf e0 8f 05 c0 ca 57 2f c0
       -1.4562093 -1.407794 -2.0869064 -2.7397332
000020 6f 6e 66 c0
       -3.6004903
