Pendulum_DQN/saved_model/0404/DQN_Q_EP150.pt (torch, 12311 bytes, 6 tensors)

fc_1.weight f4 [64, 3]
00000000: 4508 3ebe 4c0f 6240 130f 393f d486 51bf
00000010: f764 57bf 3643 fdbe f806 843f 02db 3dbf
00000020: 1c7b 4a3f a8eb 06bf 9d30 153e 967f 6c3f
00000030: 3053 df3f 9644 04c0 9e60 27bf 7ba2 a4bf
00000040: 29bd 04c0 7c11 eabe 5c85 bcbf 3da1 14bf
00000050: 3059 223c 3be5 49bf fa7e 2ec0 0209 50be
00000060: 0227 6a40 a8ab 13c0 74d7 50bf 35b9 97bf
00000070: a553 3140 82b8 3b3f dbfe 0c40 ad8d 8440
00000080: 622a 8f3f a5be 6dbf 8d05 6b40 3f14 2a3f
00000090: 4363 5640 223b 0540 f080 953e eab9 d73f
000000a0: 8c05 3040 0508 3f3f ec93 e2bd 24fc 45c0
000000b0: f012 29bf 7a7e a8be dcf3 22c0 c202 0cbf
000000c0: b4fb 77bf 11ad e3be ff92 8fbe 7d3f 5440
000000d0: be2d 263f 499a 563f 59af 2040 e8ac 633f
000000e0: 591a 723f 7133 acbe e628 3c40 ed17 223f
000000f0: b546 9e3e f4cf 4440 a02b d63e 4060 533f
00000100: 95a1 47c0 15b3 183e f045 903f e2a5 f63f
00000110: f6d4 d53e df3b 06c0 4fee bd3d d3c6 b33e
00000120: 2061 ecbd 0fd3 e83f b611 973e 24b4 933f
00000130: 3f20 9bbe c46c 0cbf 6f8d 1cc0 ef93 393f
00000140: 6a61 383f 2791 0a40 4f44 2bc0 d4af 2ebf
00000150: 9424 01c0 62f8 813d 43bd bebe 6dc3 643f
00000160: 923f 84c0 4d30 4abf 0c7d e9bf 597b bbbf
00000170: 3fc1 3abe 2503 f03f aadc 0d40 69ee 193f
00000180: ba58 0fc0 c13b 53c0 c074 2fbc c754 abbf
00000190: fce4 b93e bec3 a5be 4992 893d f953 f1bf
000001a0: c8b5 4a3f aeeb ca3f f168 34c0 88bb 1ebf
000001b0: 0f41 43c0 39f8 0bc0 7496 83be 6885 a3be
000001c0: cb09 7440 3afc 263f 9677 07c0 1d79 98be
000001d0: 9c82 c13e 71cf f9bf 40c5 f13f 2c28 0a3f
000001e0: bdba 903f d691 7840 9aff 363f 831d 39c0
000001f0: ab08 3740 e14a 2abe 4262 92bf 1b0b 63bf
00000200: 0688 6e3d 9dab 2b40 cfb2 07c0 98e0 62bf
00000210: e381 3340 4875 95bf 5ebd 55bf 4bbb 0a3f
00000220: 63df a93f fa72 c6be 3512 bcbf f650 c9bf
00000230: 39d6 91be 8d1a 3dbf a923 0a40 5fb4 8c3f
00000240: dcaf 5cbf 3338 853f 582d 34bf 21ca 08c0
00000250: f09e 7040 1ed6 e23e de85 1e40 fe30 8240
00000260: 1e68 8e3f 1a6e d1bf c4c4 e3bf 059c 763e
00000270: dec8 41bf d0bb c8bd cd11 63be 559e d1bf
00000280: 8432 ca3c 7c27 e7bd 1b12 7fbf 585c 6ebd
00000290: 89eb 86be cf23 06bf bc13 9fbe 22d7 1bbe
000002a0: 13e4 82be e422 cebf 1691 4cbf 09af 02c0
000002b0: 8960 86bd 2030 613e 8623 81bf 3c33 0240
000002c0: 9e08 f23e 9bf6 06c0 c3f6 edbe def7 873e
000002d0: 783b 873f e4b3 8cc0 1105 75bf f2f0 cd3f
000002e0: a15b 4e40 e88b 473f 2584 513d 373f f73f
000002f0: 4733 6a3e 82f2 8c3f 4584 7d40 44ff 0a3f
-0.18557842 3.5321836 0.72288626 -0.81846356 -0.84138435 -0.4946534 1.0314627 -0.74162304
0.790941 -0.5270333 0.14569326 0.9238218 1.7447262 -2.0666862 -0.653818 -1.2862085
-2.0740454 -0.45716465 -1.4728198 -0.5805853 0.009908959 -0.788654 -2.7265 -0.20315936
3.6586308 -2.307352 -0.81578755 -1.1853396 2.7707303 0.7332841 2.2030551 4.1422944
1.1184809 -0.92869025 3.6722138 0.66437143 3.3498085 2.0817342 0.29199934 1.6853611
2.7503386 0.7462161 -0.1106337 -3.0935144 -0.6604452 -0.32908994 -2.546134 -0.5469171
-0.96868443 -0.44467977 -0.28041837 3.316375 0.6491355 0.8382917 2.5107024 0.8893571
0.94571453 -0.33632997 2.9399962 0.6331776 0.3091332 3.0751925 0.41830158 0.8256874
-3.1192372 0.14912064 1.1271343 1.9269373 0.4176404 -2.0974042 0.092739694 0.35112628
-0.115419626 1.818941 0.295057 1.153935 -0.3029804 -0.54853463 -2.4461324 0.72491354
0.7202364 2.1651094 -2.6760442 -0.6823704 -2.0178576 0.063462034 -0.3725377 0.89360696
-4.13276 -0.7897995 -1.8241286 -1.4647018 -0.1823778 1.875096 2.2165933 0.6012941
-2.2397904 -3.300522 -0.010708988 -1.3385247 0.36307514 -0.32375902 0.06717355 -1.8853751
0.79183626 1.5853174 -2.818905 -0.620049 -3.0508459 -2.1870253 -0.25700724 -0.31937718
3.8130977 0.6522862 -2.116674 -0.29779902 0.3779496 -1.9516431 1.8888321 0.5396755
1.1306988 3.8839011 0.7148377 -2.8924263 2.859904 -0.16630127 -1.1436236 -0.8868882
0.05823519 2.6823494 -2.1202886 -0.8862395 2.8048027 -1.1676416 -0.83492076 0.54192036
1.3271297 -0.38759595 -1.4693056 -1.5727832 -0.2848375 -0.7386864 2.1584265 1.0992545
-0.8620584 1.0407776 -0.7038169 -2.137337 3.7597008 0.44303983 2.4769206 4.0684805
1.1125524 -1.6361725 -1.7794423 0.24082954 -0.75697124 -0.098014474 -0.22174759 -1.6376444
0.02468229 -0.11286828 -0.99637 -0.058193535 -0.26351574 -0.5239839 -0.31069744 -0.15218785
-0.25564632 -1.6104398 -0.79908884 -2.0419333 -0.06561381 0.21991014 -1.0088966 2.034377
0.472722 -2.1088016 -0.46477327 0.26556295 1.0565023 -4.3969593 -0.95710856 1.6089156
3.2243426 0.77947855 0.051151413 1.9316167 0.22871123 1.1011508 3.961198 0.54295754

fc_1.bias f4 [64]
00000000: 2969 7b3f 44db a73d 84d6 abbf 16d7 1bbf
00000010: 2815 8abf a2f6 663f 1068 443e 9c49 5abd
00000020: a5fe 183f 0eb7 45bf 4ae2 37c0 0c74 193f
00000030: 0290 07c0 3f45 93bf f861 4bbe 4f79 7f3d
00000040: 7f7c 683f 731c 12c0 749b 5bc0 8ea7 34bf
00000050: 895d adbf 2247 38bf 3c2a 4abf 4452 5e3f
00000060: 9bb0 533f 11cf 893f 2a96 ba3d 94f7 d2bf
00000070: 4698 13bf f1da cabf a097 b5bf 52c7 d0bf
00000080: c5eb 20c0 2fa8 9c3f 64b6 7a3e e10e 8abf
00000090: f79c 92bf 09de 9dbe 6656 8f3f 4740 df3f
000000a0: d596 4bbf ef66 25c0 7557 863f c716 0cc0
000000b0: b4a3 2dc0 3a3a 793f 1656 40be 685d 7fbf
000000c0: 2004 703e 89d1 55bf 5a7d 99bf 3be8 d5be
000000d0: 912d 743f 0728 eb3e 9f45 c33f ade7 a93e
000000e0: 81bc 9bbe 3f64 4f3f df5b bb3f 2140 e0be
000000f0: e40a b5bf bd42 80bf b053 86bd 6aba b7bf
0.98207337 0.081961185 -1.342484 -0.6087507 -1.0787706 0.9022008 0.19180322 -0.053292856
0.59763557 -0.77232444 -2.8731866 0.599427 -2.1181645 -1.1505507 -0.19861591 0.06237155
0.90814966 -2.2829864 -3.431363 -0.7056817 -1.354417 -0.7198354 -0.78970695 0.8684428
0.82691354 1.0766317 0.09110673 -1.6481805 -0.57654226 -1.5848066 -1.4186897 -1.6310828
-2.5143902 1.2238826 0.24483639 -1.0785791 -1.1454152 -0.30833462 1.1198242 1.7441491
-0.79527026 -2.5844076 1.049544 -2.1888902 -2.7131166 0.9735447 -0.18782839 -0.997519
0.23439074 -0.8352285 -1.1991379 -0.4177874 0.9538203 0.45928976 1.5255622 0.33184567
-0.30417255 0.8101234 1.4637412 -0.43798926 -1.4143949 -1.0020367 -0.06558931 -1.4353764

fc_2.weight f4 [32, 64]
00000000: a0b5 e8be 6796 93be f1e3 f53d 98e6 ccbe
00000010: 52a6 053f 39be 80be 93b5 88bf 01eb 573f
00000020: f4c3 5fbf 56ef 703f 3851 6f3f e414 f4be
00000030: 0c3a 37c0 99fa a93c 794f 843f 341f 443e
00000040: 4d79 99be 9665 98bf d1a8 0140 053d b83f
00000050: fbbe 623f cdf5 c3bf a844 133e 7d02 833e
00000060: 3c39 19bf 9891 1cbf 8ac8 c23c 7a37 8abf
00000070: 9b44 b93d faab f43e b5ac 653f 1bdb 973d
00000080: 8a11 0bc0 47f2 abbe c344 77bf 5055 b5be
00000090: 33a2 9d3e 5ddc b63e 342f fbbd 3148 4ebf
000000a0: 7113 12bf 6b92 9ebf a411 d03c 8772 96be
000000b0: dddf 0e3f 88fd a5bf 4ec9 40be 7f27 763f
000000c0: 2e3c 643d acc2 303f 2f7e 76bf 888c cabf
000000d0: f4a1 5a3d b25e 4cbf 4d34 0abf 120e 7dbd
000000e0: d2bd 983e 4502 0d3f 3940 44bf 16f8 9abf
000000f0: f7ab 8bbe 49bd a3be 2de7 8dbe 4ea7 d1be
00000100: 16de 313f 4be8 9fbe b1ac 8abe 7098 04be
00000110: 3c93 62c0 5547 243f cf7a 403e 5a56 033f
00000120: 54b8 afbf ae44 49bf 6379 27c0 0b1b ad3e
00000130: 906a 8c3f 9ebd 4cbf 7c11 acbf 431f 5fbd
00000140: 39b8 f63e 2d8b b8bf 0ee0 9dc0 f6d1 b0bf
00000150: 213c 033e 6334 aabf cee7 513c 45a9 1b3d
00000160: 4fcd 8d3f af55 fa3e 0e78 debe 687d 9840
00000170: 7561 6abf 4b73 be3d cf5c 9b3d 925d 84bf
00000180: e434 fb3f 7134 583f cc98 a0be 6509 9fbe
00000190: 37fe ef3e 967b c7be 45ca 2a3f 1a42 403f
000001a0: 25ae 333f 2684 f4bf 5f6a 023f 5111 12c0
000001b0: 0f56 22c1 9237 843d 97b7 fa3d 89d4 e3bf
000001c0: 916b 863c a23a 393f 6c7a 50be d2aa f93f
000001d0: 7664 ee3e 2e9d b13e 522f 503f 7c40 f43e
000001e0: 38fc 4cbf c48c 013f a36b 603f ad28 af3f
000001f0: 7a16 f23e 6070 43be 3715 333e 4581 8f3f
00000200: e38f 233f 840d 31bf 50f4 d53e 8a63 74be
00000210: ab3d 88bf ae11 c13e 80e2 1c3b 315c d9bc
00000220: a1a2 843f 4b52 36bf b256 ec3e edbd 493e
00000230: 77ee e4bc e823 a3bb 4746 01bf d130 eb3e
00000240: 3a2c 213f c381 893f 5fe1 a33f 5d79 8ebf
00000250: b156 bbbe 5fc9 0040 a0a9 3fb9 463f 8ebe
00000260: ddd3 ec3e 2698 043f ae46 da3c 40ff 853f
00000270: f885 4fbf 13c4 643e b606 2bbf a90e 683d
00000280: 4d8d 383f 693a 473f 00e1 833f ceda 0b3f
00000290: 1aaf 9cbf 00fd c5be c351 2f3e 2f7a 3f3f
000002a0: 6b1c 163f ed0a 1a3f 380a aa3d 0b90 8ebf
000002b0: 7fba 58c0 3549 3bbe a744 1dbf b209 87bf
000002c0: 30bd 41bf ddd3 06be 2b17 393f cb06 003f
000002d0: 2a42 bf3e 9d9d b93e c4a9 523f 94f7 af3d
000002e0: 40e4 80bf 8904 08be e5f4 3c3f 96f0 ea3e
000002f0: 4ff7 3f3f 79c4 c43d 9a68 1d3e 206c d53e
00000300: a8b1 8b3f 4f0c d83d 5393 32bb 403b bebe
00000310: 8c46 0840 13fd 8bbf 1796 ba3e d6b2 41bf
00000320: aff0 ea3f 0dc3 13c0 c258 24c1 3024 92c0
00000330: b1d8 5140 cd5f a8be 9eaa a0bf 5432 b3bf
00000340: 2716 263f a50f 553f 72f4 7f40 dbb1 c5bf
00000350: fa92 2bc0 aa2d cebf 20bd 943d ded8 cfbf
00000360: 3cf5 243e f311 803f 053a d53f 094d 0dc1
00000370: 76c2 2c3b de6c ec3f d22b c23f ee66 e5c0
00000380: f6d3 03c0 297b 73be 7bf3 d23e 56f0 a8c0
00000390: 9b04 a13f 7174 3ac0 bb99 46bc 8aaa 0cc0
000003a0: 66ea a3c0 f3bd 11bf 1dc4 5fbf 7b00 91c0
000003b0: 7665 64bf 9446 343f 6996 f73d 1b4e 1840
000003c0: 95c2 263f 0ff4 96c0 a0a6 2940 16d7 463f
000003d0: 8a37 f13d fda4 35be 29d4 cebe 0ea9 2bbd
000003e0: 505d 6f3e adac 023f 182c 57bf 354a 843f
000003f0: 23ef 93c0 57b4 b6c0 2253 f33e b6c9 a9bf
-0.4545107 -0.28825685 0.12006367 -0.4001968 0.5220691 -0.25145128 -1.0680412 0.8434296
-0.87408376 0.941152 0.93483305 -0.47672188 -2.862918 0.020749377 1.0336753 0.19152528
-0.29975358 -1.1906002 2.0259287 1.4393622 0.88572663 -1.5309387 0.14381659 0.25587836
-0.5985296 -0.6115966 0.023777265 -1.079818 0.090462886 0.47787458 0.89716655 0.07414838
-2.1729455 -0.3358328 -0.965893 -0.3541665 0.3078781 0.35715 -0.12264863 -0.80578905
-0.57060915 -1.2388433 0.025399037 -0.29384252 0.5581034 -1.2967997 -0.18826792 0.96154016
0.055721454 0.69047046 -0.9628629 -1.5824137 0.053377107 -0.79831994 -0.53986055 -0.061780997
0.2983232 0.5508159 -0.76660496 -1.210696 -0.27279636 -0.3198035 -0.27715436 -0.40947956
0.694795 -0.31231913 -0.27084878 -0.12948775 -3.5402365 0.64171344 0.18796848 0.5130364
-1.3728127 -0.7862042 -2.6167839 0.33809695 1.097002 -0.7997683 -1.3442836 -0.054473173
0.48187426 -1.4417473 -4.9336004 -1.3814075 0.12815906 -1.3297237 0.012811614 0.038003225
1.107828 0.48893496 -0.4345097 4.7653084 -0.9155496 0.09299334 0.07586061 -1.0341055
1.9625516 0.8445502 -0.31366575 -0.31061855 0.46873638 -0.38961476 0.6671489 0.7510086
0.701876 -1.9102829 0.5094356 -2.282307 -10.14601 0.06455912 0.12242048 -1.7799236
0.016408714 0.7235509 -0.203592 1.9505255 0.4656102 0.3469023 0.81322205 0.47705448
-0.80072355 0.50605416 0.8766424 1.3684288 0.47282773 -0.19085836 0.17488562 1.1211325
0.6389143 -0.6916125 0.41787958 -0.23866096 -1.064382 0.377088 0.0023938715 -0.026533218
1.036213 -0.7121932 0.46159893 0.19701357 -0.02794574 -0.0049786456 -0.5049786 0.4593568
0.6295811 1.0742725 1.2803153 -1.1130787 -0.36589578 2.0122907 -0.0001827837 -0.2778265
0.4625539 0.5179466 0.02664503 1.0468521 -0.81063795 0.22340421 -0.66807115 0.056654606
0.7209061 0.778235 1.030304 0.54630744 -1.2240937 -0.38669586 0.17121033 0.7479581
0.5863711 0.6017292 0.0830273 -1.1137708 -3.3863828 -0.18289645 -0.6143288 -1.0549834
-0.756793 -0.13166757 0.72300977 0.50010365 0.37355167 0.36253062 0.8229029 0.08592144
-1.0069656 -0.1328298 0.7381118 0.45886678 0.7498674 0.09607787 0.15371934 0.41684055
1.0913591 0.10549223 -0.0027248457 -0.3715458 2.1293058 -1.0936607 0.36442634 -0.75663507
1.8354701 -2.30878 -10.271669 -4.5669174 3.2788508 -0.3288559 -1.2552068 -1.3999734
0.6487755 0.83226997 3.9992948 -1.5444902 -2.6808457 -1.6107686 0.07262635 -1.6238058
0.16109174 1.0005478 1.6658331 -8.831307 0.0026361025 1.8470724 1.5169623 -7.1688147
-2.059812 -0.2377745 0.41201386 -5.279338 1.257953 -2.913357 -0.012121613 -2.1979089
-5.122363 -0.56930465 -0.8740862 -4.5313087 -0.8921732 0.70420194 0.12089235 2.3797672
0.6514066 -4.7172923 2.650795 0.77671945 0.11778171 -0.1773872 -0.4039624 -0.04190927
0.2337544 0.5104473 -0.84051657 1.0335146 -4.6229415 -5.709514 0.47524363 -1.3264682

fc_2.bias f4 [32]
00000000: d491 bcbf 6814 973f b5d5 d63f 29eb 0c40
00000010: a56c 583b 9079 593f 67df fdbe bd92 cdbd
00000020: cbbe b9bf c400 373f f95a e3bf 2916 f13d
00000030: bf3f 07bf 0683 803f 0537 a93d 8f9c 943c
00000040: 9f44 713e 4852 e8bf f1c2 803e 5a84 bebf
00000050: e642 493f 82f8 c73f 10e7 503f 7aa9 a83f
00000060: e0db c63c cfaa 0abe 6576 c2bf d660 1bbf
00000070: 6214 fd3e 36a9 cc3f ef40 d13e 56f1 fb3e
-1.4732003 1.1803102 1.6783968 2.201853 0.0033023742 0.84951115 -0.49584505 -0.10037754
-1.451135 0.71485543 -1.7762138 0.11771805 -0.52831644 1.0039985 0.08262447 0.01814106
0.23561333 -1.815011 0.25148728 -1.488414 0.78617704 1.5622714 0.81602573 1.317672
0.024274766 -0.13541721 -1.5192381 -0.60694635 0.49429613 1.5989139 0.40869853 0.49207562

fc_out.weight f4 [9, 32]
00000000: 7245 d33d 7437 debf 5971 47bf 227f f140
00000010: 0582 3840 d065 c5bf b840 30bd 937e e03f
00000020: 754a 8e3e 2511 3abf 332e 22bf f82c 9ebf
00000030: 69ef e03e d8de d53b 67e3 07bf 252f 78be
00000040: 68e9 9040 3aad 71be 0d26 18bf c1ef 21bd
00000050: f60d e6bf f3ed 9bbf 7ddc c33e 7075 adbf
00000060: 5342 c5be 905c 1cc0 3f54 af3d 9aba ed3e
00000070: 40f4 48bf de19 56c0 6459 acbf e3b6 b9bf
00000080: a5ed d4bc 7308 c4bf 1bd8 5cbf b442 d640
00000090: aeb3 1c3f 409e c7bf a636 0fbe 2d79 d03f
000000a0: a75c 5ebe b262 39bf eee8 fdbe 2bf8 a9bf
000000b0: 7b67 d13e d2b9 34be ec9b 07bf 87d7 e6be
000000c0: 268e 6e40 4be1 04bf 43f7 2fbf 78c3 07bf
000000d0: 5282 dcbf 2f49 93bf 8914 833f 744d adbf
000000e0: c52f 85be 2be6 16c0 a3db 50be 691c a43e
000000f0: 0436 3abf f26c fbbf b7a0 aabf e04f c2bf
00000100: 2cb0 523d 036a b7bf 2216 60bf 34cd d040
00000110: 01ad d43e fed4 b6bf 8bca 8abd b412 dd3f
00000120: 04a8 a3be 24de 42bf cfc6 0cbf ef4f abbf
00000130: bc31 df3e 26c5 8abe e22c 03bf 6c64 27bf
00000140: d56e 6840 8ad9 c0be 06e5 2cbf 26f6 80be
00000150: 96af e0bf e755 72bf 42b0 553f 75e3 bfbf
00000160: 6cc5 9bbe 1df8 17c0 6fb3 89bf 8eb8 273e
00000170: 1364 44bf 96f6 e1bf 9586 a5bf 272f c6bf
00000180: 918e c73e 24b9 9fbf 4c43 4abf f813 a340
00000190: e05e cf3e 4dff aabf d799 b23d c591 0340
000001a0: f7e6 cbbe 303e 3ebf 4767 243e 62e1 c3bf
000001b0: de18 c03e b0d6 0cbf ad26 08bf 110d f3be
000001c0: 47ce 1e40 e64b 0a3d dac4 2ebf 75ef e9be
000001d0: 57a4 d7bf b81f 60bf 5e9d 933f 41b3 cfbf
000001e0: ab69 98be 1dc6 24c0 053e 9ebd bb9d 20bd
000001f0: a320 44bf 61e3 6abd f837 aebf a174 c3bf
00000200: fd99 bc3e 5fa8 5fbf 1d86 40bf 4524 6640
00000210: b3fa c23e 7516 92bf 51a8 9c3e 79d8 1740
00000220: 0a95 9e3e 9736 24bf b3b6 8d3e cc87 d0bf
00000230: 159a da3e 9476 58bf 6c8a e5be 1c65 a1be
00000240: 3b4a b03f 4159 dd3e 972e 4ebf 5adf 283f
00000250: e79d d5bf bac6 10bf cc46 fb3f edd3 f0bf
00000260: d23d e3be 2459 30c0 d17b dc3d 36b6 92be
00000270: e095 45bf 0a8d da3f 4371 b6bf 7a5f c8bf
00000280: c06a b13e 9416 08bf 1696 43bf 5c17 903f
00000290: a08b 03bf 4ed4 82bf 9785 303e 8c6b 2940
000002a0: 19da 0b3f 5ec8 28bf cc6d 7c3f 4707 03c0
000002b0: 6599 e73e e4b2 89bf dab5 0dbf 4531 75be
000002c0: 102f 32be 69fa 783f 15bb 73bf 0aaa cc3f
000002d0: b934 cbbf 876f 3ebe bbfc 1840 6363 07c0
000002e0: 360a d7be c6f2 38c0 2bdb c93e 8520 c1be
000002f0: b056 47bf 4801 9340 6599 afbf 826c cdbf
00000300: 086c e83e d5b6 c6be 33be 1cbf e675 5cbf
00000310: 8c34 89bf 07a6 66bf 492e aabe 9d9e 4340
00000320: c452 753f 7a9b 31bf 649e d73f adda 14c0
00000330: 685b dd3e f5f6 a3bf 7f86 11bf 4529 533e
00000340: 9094 b6bf 8e5a 0340 d567 7ebf 6ed6 e13f
00000350: 6939 cabf 52b3 6ebd 6c2c 3840 baf0 11c0
00000360: a207 f8be bc27 48c0 6198 843e 98f8 f7be
00000370: a1d2 4fbf 8315 d740 72b7 b1bf 1696 d0bf
00000380: 88df 603f 00ae 35be a5fb 17bf 9149 01c0
00000390: d3d5 56bf 0fb4 47bf df80 563d ada0 4c40
000003a0: 61cf e13f be1f 36bf afb1 933f bce3 1cc0
000003b0: 1b1a fa3e b815 bbbf 0741 01bf 8ee7 503e
000003c0: 67f6 f1bf 166f fe3f 2b1a 98bf 1fce eb3f
000003d0: 51f0 c3bf ee38 cb3d e65b 4040 5859 18c0
000003e0: c727 b9be c115 4cc0 66d8 9c3f 57a9 debe
000003f0: fdae 49bf ffc5 fa40 7d0b aabf 7ccc e8bf
0.1031598 -1.7360673 -0.7790733 7.546769 2.8829358 -1.5421696 -0.04303047 1.7538627
0.2779118 -0.7268241 -0.63351744 -1.2357473 0.43932655 0.006526809 -0.53081363 -0.24236734
4.528492 -0.23601237 -0.5943306 -0.039535288 -1.797301 -1.2181991 0.38254157 -1.3551464
-0.38527164 -2.4431496 0.085609905 0.46431428 -0.78497696 -3.3453288 -1.346478 -1.4508938
-0.025992224 -1.5315078 -0.8626725 6.6956425 0.6121167 -1.5595169 -0.1398569 1.628698
-0.21715032 -0.7241622 -0.49591774 -1.327886 0.40899262 -0.1764901 -0.5297229 -0.4508631
3.727426 -0.5190627 -0.68736666 -0.53032637 -1.7227271 -1.1506709 1.0240642 -1.3539262
-0.26013008 -2.3577983 -0.20396285 0.32052925 -0.7273867 -1.9642622 -1.3330296 -1.5180626
0.05143754 -1.4329227 -0.8753377 6.525049 0.41538242 -1.428375 -0.06776913 1.7271333
-0.31964123 -0.7612021 -0.5499086 -1.3383769 0.43592632 -0.27103537 -0.5124036 -0.65387607
3.6317647 -0.3766597 -0.6753696 -0.25187796 -1.7553585 -0.94662327 0.83472073 -1.4991289
-0.30424058 -2.3745186 -1.0757884 0.16378996 -0.767152 -1.7653377 -1.2931696 -1.548314
0.38975957 -1.2478375 -0.79008937 5.0961876 0.4050207 -1.3359162 0.08720749 2.055772
-0.3982465 -0.7431364 0.16055022 -1.5303156 0.37518972 -0.5501509 -0.53184015 -0.47470906
2.4813402 0.03376379 -0.6826912 -0.45690504 -1.6847028 -0.875484 1.15324 -1.6226579
-0.29768118 -2.5745919 -0.07726673 -0.039212923 -0.766123 -0.05734575 -1.361083 -1.5269967
0.36836234 -0.8736629 -0.7520464 3.5959637 0.38081893 -1.1413103 0.30597165 2.3725874
0.30973083 -0.641458 0.2767845 -1.6291442 0.4269568 -0.84555936 -0.4483217 -0.31522453
1.3772653 0.43232158 -0.8053984 0.6596581 -1.6688813 -0.5655323 1.963098 -1.8814675
-0.44383103 -2.7554407 0.107658036 -0.2865464 -0.77181816 1.7074292 -1.4253315 -1.5654137
0.34651756 -0.5315945 -0.7640089 1.1257129 -0.51384926 -1.022104 0.1723846 2.6471891
0.54629666 -0.65930736 0.98605037 -2.0473192 0.45234218 -1.0757718 -0.5535561 -0.23944576
-0.17400765 0.97257096 -0.9520734 1.5989392 -1.5875465 -0.18597232 2.3904254 -2.115441
-0.41999978 -2.8898177 0.39425024 -0.37720123 -0.7786665 4.5939064 -1.3718687 -1.6048739
0.4539492 -0.38811365 -0.6122772 -0.861174 -1.0719161 -0.9009709 -0.33238438 3.056556
0.95829415 -0.69377863 1.6845212 -2.325847 0.432338 -1.280974 -0.5684585 0.20621212
-1.4264088 2.052402 -0.99377185 1.7643564 -1.579877 -0.058276482 2.8777113 -2.2803178
-0.48443323 -3.1274252 0.25897506 -0.4843185 -0.8118077 6.721376 -1.3884108 -1.6295803
0.8784108 -0.17742157 -0.59368354 -2.0201151 -0.8392002 -0.7800912 0.052368995 3.1973069
1.7641412 -0.71142185 1.15386 -2.4513998 0.48848042 -1.4616003 -0.5048985 0.20400831
-1.8903321 1.9877651 -1.1882986 1.8422278 -1.5307714 0.09922968 3.005609 -2.380453
-0.3616316 -3.1888278 1.225354 -0.4348857 -0.78782636 7.8366694 -1.3284756 -1.8187404

fc_out.bias f4 [9]
00000000: 87df bdbf c16f f0bf 9ae5 8ebf 25c6 82bf
00000010: 0f7d 80bf 78d7 89bf 576a cabf 56bc 10c0
00000020: 2010 4ac0
-1.483384 -1.8784105 -1.1163819 -1.0216719 -1.0038165 -1.0768881 -1.5813702 -2.261495
-3.1572342
