Pendulum_DQN/saved_model/0404/DQN_Q_EP290.pt (torch, 12311 bytes, 6 tensors)

fc_1.weight f4 [64, 3]
000000 54 7d dd bd 1f 14 67 40 ee cb 3d 3f 28 fe 18 bf
       -0.1081492 3.610603 0.74139297 -0.5976281
000010 8a 5c 68 bf c6 83 b7 be aa 06 2f 3e fe e8 15 bf
       -0.90766203 -0.35842723 0.17092386 -0.5855864
000020 da c7 4f 3f 52 8d d0 be 3a 0c 1c 3f 9e 98 34 3f
       0.81164324 -0.4073282 0.60956156 0.70545375
000030 40 ed f0 3f 7b 9b 13 c0 e5 c3 32 bf f6 b8 a5 bf
       1.8822403 -2.3063648 -0.6983016 -1.2947071
000040 4c 2a d7 bf ae 27 c7 be 54 a0 e7 bf 2e cc 81 bf
       -1.6809783 -0.3889746 -1.8095803 -1.0140436
000050 50 8a b4 bd f1 88 01 bf a9 2d 51 c0 e2 64 86 be
       -0.088154435 -0.5059958 -3.2684119 -0.26248842
000060 bf 9e 74 40 9a 3e 27 c0 bc 0d 68 bf d9 8e ae bf
       3.822189 -2.613196 -0.90645957 -1.3637344
000070 0f 46 29 40 7d bd 42 3f cf 82 2e 40 64 9f c2 40
       2.644901 0.76070386 2.726734 6.081957
000080 18 9d be 3f 9b 05 a7 bf d5 61 8c 40 5f d6 45 3f
       1.4891691 -1.3048586 4.3869424 0.7728023
000090 1f 6f 64 40 f8 ed 07 40 e7 0e 4a 3e 57 69 d9 3f
       3.5692823 2.1238995 0.19732247 1.6985272
0000a0 13 61 28 40 08 13 38 3f 26 ae ee bd 99 ef 67 c0
       2.630925 0.7190404 -0.1165431 -3.6239989
0000b0 a4 b3 47 bf ae 65 bd be 90 aa 56 c0 c6 4e 13 bf
       -0.78008485 -0.36991638 -3.3541603 -0.57542074
0000c0 df b4 80 be 21 b0 a2 be c7 7e 14 bd fc fa 66 40
       -0.25137994 -0.31775 -0.036253717 3.6090689
0000d0 79 6f c9 3f 0a 97 54 3f 07 f3 5c 40 6e 28 aa 3f
       1.5737144 0.8304297 3.4523332 1.3293588
0000e0 33 8b a3 3f 06 f8 e2 be 25 2e 40 40 63 6c 37 3f
       1.2776855 -0.44329852 3.0028164 0.7164976
0000f0 89 5c b3 3f de ea 66 40 21 b4 10 3f 87 e1 5c 3f
       1.4012614 3.6080852 0.56524855 0.8628163
000100 6e bf 3b c0 1d 10 89 3d 8b 9c 8f 3f b9 40 db 3f
       -2.933559 0.066925265 1.1219648 1.7129127
000110 0b 47 e1 3d 1a 93 f0 bf 33 51 da 3d ba 5f a6 3e
       0.109998785 -1.8794892 0.10660019 0.3249491
000120 ba 80 e2 3b 3c 6c 0b 40 cc 41 9e 3e 87 e7 b2 3f
       0.006912318 2.178481 0.30909574 1.3976907
000130 f6 89 d5 be 67 fe bc be de 0d 29 c0 7b b9 45 3f
       -0.41706818 -0.36912844 -2.6414714 0.77236146
000140 5d b1 2a 3f ad ff 12 40 ff 2d 35 c0 f9 9b 39 bf
       0.66676885 2.2968552 -2.8309324 -0.7250362
000150 5c e2 1d c0 4d 66 88 be 4b 79 b9 be 3d 4b b5 3f
       -2.4669409 -0.2664055 -0.36225352 1.4163586
000160 04 61 af c0 6b cb 8e bf 2c f8 10 c0 d6 90 a0 bf
       -5.4805927 -1.1155828 -2.2651472 -1.25442
000170 c5 c5 d7 bd 8d 3e fb 3f 9e 08 24 40 7d 17 30 3f
       -0.105357684 1.9628464 2.563026 0.6878584
000180 7e 04 44 c0 b7 fa 6e c0 d7 8c bf 3d 52 08 cb bf
       -3.0627742 -3.7340524 0.09353035 -1.5861914
000190 44 18 4d 3e dc c9 ae be ee 6e 18 bd bc bb 88 bf
       0.20028788 -0.3413838 -0.037215166 -1.0682292
0001a0 1f 1e 2b 3f 36 0f dc 3f 47 db 35 c0 48 19 23 bf
       0.66842836 1.7192142 -2.8415086 -0.6371045
0001b0 aa 97 57 c0 fa f0 bc bf 27 fc 1e bd cc 9e b5 be
       -3.3686318 -1.476104 -0.03881469 -0.35472715
0001c0 fa 7a ba 40 db 16 7c 3f e6 ad 16 c0 ef 24 c9 bd
       5.827512 0.98472375 -2.354364 -0.09821498
0001d0 83 73 a5 3e 2f 80 16 c0 69 51 f0 3f f0 01 11 3f
       0.3231469 -2.3515737 1.8774844 0.5664358
0001e0 d1 89 99 3f 92 c4 67 40 84 91 29 3f d5 fe 4f c0
       1.1995183 3.6213727 0.66237664 -3.2499287
0001f0 26 d3 1e 40 e8 42 94 be f0 35 8a bf 41 6f 58 bf
       2.4816375 -0.28957295 -1.079771 -0.8454476
000200 2b 44 8d bc 46 97 36 40 6b c9 fc bf 10 ce 6b bf
       -0.01724442 2.852983 -1.9748968 -0.921113
000210 2c 7f 5c 40 8a 0a a0 bf 0b 9a 94 bf a9 f2 25 3f
       3.445262 -1.2503216 -1.160951 0.64823395
000220 e9 fb c2 3f 33 cd 06 bf 1d 13 9a bf 52 80 06 c0
       1.5233127 -0.5265686 -1.2037083 -2.101582
000230 7e 97 ac be 6c 27 66 bf 55 9d 12 40 d8 3b 87 3f
       -0.3370933 -0.89903903 2.2908528 1.0565138
000240 ae e4 28 bf 5c 8d a0 3e 47 99 2a bf c9 50 30 c0
       -0.6597394 0.3135785 -0.6664013 -2.7549307
000250 a1 75 88 40 02 c6 9d 3e 1f 51 2d 40 57 3c 82 40
       4.264359 0.3081513 2.7080762 4.0698657
000260 09 1e 98 3f 5f b4 d2 bf 08 49 cd bf 83 5e 77 3e
       1.1884166 -1.6461295 -1.6037912 0.24157147
000270 b4 03 a9 bd 9c 70 10 3e ac 9b 24 3b 98 e6 f0 bf
       -0.082526594 0.14105457 0.0025117202 -1.8820372
000280 31 4d 37 3e e4 82 8d bd 46 d1 80 bf 61 e3 a0 3e
       0.1790054 -0.06909731 -1.0063865 0.31423476
000290 56 84 76 be 6d f8 30 3e 86 f3 e4 bc 66 67 b9 3b
       -0.2407392 0.17282267 -0.027948152 0.005658078
0002a0 64 c3 8a bc 24 6c ce bf f8 07 14 bf fa 4a 20 c0
       -0.016938873 -1.6126752 -0.5782466 -2.5045762
0002b0 67 22 d3 bd c0 21 4c 3e 8b cf 62 bf 54 54 13 40
       -0.10309296 0.1993475 -0.88597935 2.302022
0002c0 c4 29 01 3f 97 35 06 c0 c8 40 36 bf ad bf a2 3e
       0.50454354 -2.0970209 -0.711926 0.31786862
0002d0 9d 9b cf 3f da 63 bf c0 4e f8 ac bf 58 11 d1 3f
       1.6219364 -5.980939 -1.3513277 1.6333418
0002e0 d8 85 47 40 ad d4 4c 3f 32 d0 1f 3f 6b 92 8a 3f
       3.1175442 0.8001202 0.62427056 1.0825933
0002f0 7c a7 0b 3e b0 bb 9a 3f ee 31 b6 40 8a 0e 6a 3f
       0.13638109 1.2088528 5.693595 0.91428435

fc_1.bias f4 [64]
000000 17 03 76 3f 91 d7 c5 be 09 88 80 bf d1 de d0 be
       0.96098465 -0.38641027 -1.0041515 -0.40794995
000010 6c 56 99 bf a9 25 83 3f aa d3 21 be 69 9b 15 bf
       -1.1979499 1.0245868 -0.158034 -0.5844026
000020 58 c5 68 3f 82 c8 b7 bf 4d f0 5c c0 0e 8e 10 3f
       0.9092612 -1.4358065 -3.4521668 0.5646676
000030 b5 20 fa bf 7f b6 95 bf e9 8f 9b be 71 92 e8 be
       -1.9541231 -1.1696318 -0.30383232 -0.45424226
000040 f1 e4 80 be de cb 31 c0 03 78 97 c0 d8 8f 67 bf
       -0.25174668 -2.778068 -4.7334 -0.90453863
000050 9d aa 19 c0 f8 ba 72 bf 37 fc e8 bf 6a 6d 4b 3f
       -2.4010384 -0.9481654 -1.820197 0.7946383
000060 3e 2b f6 3e a6 3d aa 3e 30 d8 9d 3d 9a 22 dd bf
       0.48079866 0.3325016 0.0770725 -1.7276185
000070 23 6a db be 55 bb 17 c0 44 ca e9 bf a9 b1 d3 bf
       -0.42854413 -2.3708088 -1.8264852 -1.6538593
000080 24 cf 4b c0 b9 92 86 3f e9 1c 80 3e b5 fe 9b bf
       -3.1845179 1.0513526 0.25022057 -1.2187105
000090 1f 67 c4 bf 42 ba 22 bf 08 af 72 3f 8e f3 f9 3f
       -1.534397 -0.63565457 0.94798326 1.9527452
0000a0 d8 fc 53 bf 1f 32 48 c0 1a 4c 7c 3f 16 ad 19 c0
       -0.82807684 -3.1280591 0.9855362 -2.4011893
0000b0 39 51 7a c0 4c 39 6b 3f 48 49 0d be 14 63 89 bf
       -3.9112074 0.91884303 -0.13797486 -1.0733361
0000c0 c0 5c fe be 26 f7 00 c0 cb f3 c1 bf fb 3a d2 bc
       -0.49680138 -2.0150847 -1.5152525 -0.02566289
0000d0 73 23 4b be 3e df a5 3e 32 d6 d9 3f 44 40 ef be
       -0.19837742 0.32396883 1.7018492 -0.46728718
0000e0 7d 52 cb be 8e 6b 55 3f a4 58 ae 3f c3 c1 d5 be
       -0.3971137 0.8336724 1.3620801 -0.4174939
0000f0 9b a7 10 c0 07 dd 84 bf 21 da 2f bf d0 9d 0a c0
       -2.2602298 -1.0379952 -0.68692213 -2.165882

fc_2.weight f4 [32, 64]
000000 63 15 98 bf 55 26 b0 be f5 85 fd 3e 0f a2 32 bf
       -1.1881527 -0.34404245 0.49516264 -0.6977853
000010 0a e8 d2 3e ae b7 b0 bd b4 9e a4 bf 9d 17 9f 3e
       0.41192657 -0.08628784 -1.2860932 0.31072703
000020 e8 bd bd bf ab aa ea 3f 92 16 8a 3f dd b7 82 be
       -1.482358 1.8333334 1.0788138 -0.25530902
000030 07 fe ab c0 2f 9e 35 bf c3 b2 52 3f 82 e5 b5 3e
       -5.374759 -0.70944494 0.8230402 0.35526663
000040 1f 18 95 3e 7b b8 3c c0 0d 7f a0 40 fe d1 eb 3f
       0.29119965 -2.9487598 5.015509 1.842346
000050 c3 6f 6f 3f a2 69 18 c0 2c 6a 5c 3f 27 a4 1a 3f
       0.9352991 -2.3814473 0.86099505 0.60406727
000060 27 f8 80 bf 76 59 b8 bf 41 d4 9a 3e 15 85 03 c0
       -1.007573 -1.4402301 0.30240062 -2.0549977
000070 54 3a 55 3f 2e 88 25 3f fb dd 0b 40 41 8c 6f bf
       0.83292127 0.6466092 2.1854236 -0.93573385
000080 3d c1 b0 c0 f5 2f 95 3d 8d cd 91 bf 94 20 15 bf
       -5.5235887 0.07284538 -1.1390854 -0.58252835
000090 ed fe 9a 3e 31 f4 26 3f e1 ba 39 3e f3 c3 89 bf
       0.30272618 0.65216357 0.18137695 -1.0762924
0000a0 38 a8 77 bf 28 a3 13 3f a2 07 d2 be 16 00 98 bf
       -0.96741056 0.5767083 -0.41021448 -1.1875026
0000b0 33 26 19 3e 60 9d 1d c0 a8 b3 0e bd ab 81 93 3f
       0.14955978 -2.4627304 -0.034839302 1.1523947
0000c0 0c 26 6e 3f b1 87 16 40 a6 36 23 c0 60 4e e6 bf
       0.93026805 2.352032 -2.5502105 -1.7992668
0000d0 2c a9 45 3f 12 43 96 bf 05 58 59 bf 71 36 92 3e
       0.7721126 -1.1739218 -0.8489993 0.2855716
0000e0 55 87 bb 3e 95 a3 43 3f 1d d7 9c bf 26 b9 90 bf
       0.36626688 0.7642148 -1.2253147 -1.1306503
0000f0 e8 f4 10 bf cb 18 94 bf 9e b9 84 bb c9 61 f6 be
       -0.566237 -1.1570066 -0.0040504476 -0.4812148
000100 b4 81 83 3f 4d 59 01 be d7 f4 a4 bf 5f e9 44 be
       1.0273957 -0.12631722 -1.2887219 -0.19229649
000110 07 8a 47 c0 8d 35 1d 3f ed 9f 92 3e 99 8c 20 3f
       -3.1177995 0.61409837 0.2863764 0.62714535
000120 a5 bd ae bf 86 e9 b1 bf 3c 8a 15 c0 66 33 15 3f
       -1.3651625 -1.3899391 -2.3365622 0.5828155
000130 f6 8a 9c 3e 85 2d af bf 80 35 65 bf ae d1 41 be
       0.3057477 -1.3685766 -0.8953476 -0.18927643
000140 08 79 0d 3e f1 3a ec 3e d5 4f 93 c0 9e c5 ad bf
       0.13815701 0.4613872 -4.603495 -1.3575933
000150 31 19 b5 3e b3 75 22 c0 7e 2f 90 3e 97 94 22 be
       0.35370782 -2.5384338 0.28161234 -0.15876995
000160 e6 6c af 3f 36 31 90 3f 4a 38 67 bf d6 77 6d 40
       1.3705108 1.1265018 -0.90320265 3.7104392
000170 d5 bc b4 bf 9b fa 13 3f 6e 76 2e bf ae f2 2a c0
       -1.4120127 0.5780427 -0.6814946 -2.671062
000180 b1 82 c1 3f 74 0c 84 3f 37 49 8d be 7e 10 18 ba
       1.5118009 1.03163 -0.2759492 -0.00058007974
000190 9f bb 08 3f 4a ae 65 3d 6c 06 15 3f df 6d 9a 3f
       0.5341129 0.056074418 0.58212924 1.206478
0001a0 a8 2e 99 3e 5c 15 09 c0 20 85 aa 3e b9 0b 27 c0
       0.29918408 -2.1419287 0.3330469 -2.6100905
0001b0 ab d2 ac c1 8d 04 5e 3f 5a 5d d9 bc d1 7d d7 bf
       -21.602865 0.86725694 -0.026533771 -1.6835271
0001c0 a6 b8 52 3f b4 23 f0 3e eb 24 08 bf 8e 1a f2 3f
       0.82313 0.4690224 -0.5318133 1.8914354
0001d0 ae 24 90 3e 35 d4 49 be a3 62 97 3f f7 8b e5 3d
       0.28152984 -0.19709857 1.1826977 0.11208337
0001e0 52 9a cc be b8 4f c1 3e e0 9b 94 3f 7a a3 85 3f
       -0.39961487 0.37756133 1.1610069 1.0440514
0001f0 64 5e d3 3e 2f 6b 43 bf 01 2c b4 3e 83 0e 8e 3f
       0.41282952 -0.76335424 0.35189822 1.1098179
000200 4d 11 a4 3f b5 93 0f bf 77 ba d7 bd 7a 14 6a be
       1.281778 -0.5608476 -0.10533612 -0.22859374
000210 14 25 b3 bf fe a2 27 3e 38 7b d3 be e1 7c d3 be
       -1.399569 0.1637077 -0.41304946 -0.41306213
000220 54 e6 85 3f b3 bd 96 bf 14 62 12 3f a6 49 ed 3e
       1.0460916 -1.1776642 0.57180905 0.46345252
000230 fe 6f 86 be 73 70 43 3d a5 00 85 be 3c 20 47 3e
       -0.26257318 0.04771466 -0.25977054 0.1944589
000240 c3 ca 57 3e 1a 6b 89 3f 1b d4 59 3f d0 c2 89 bf
       0.21073441 1.073581 0.8508927 -1.0762577
000250 e8 2c 49 bf d0 b6 3a 3f 91 b4 05 bf 53 17 2f bf
       -0.78584146 0.729352 -0.5222865 -0.68394965
000260 4a 5b 3d 3f 22 9f e6 3e fe 90 8d be a5 68 dd 3e
       0.7396742 0.45043284 -0.27649683 0.432439
000270 c7 3d 60 bf 58 d1 ce 3e 65 94 45 bf d0 e2 aa bd
       -0.87594265 0.40394092 -0.7717956 -0.08344042
000280 24 f3 f9 3f ca 5b 7d 3f 5d 5c b6 3f 4b 97 8f 3e
       1.9527326 0.98968184 1.4246937 0.28045115
000290 63 49 39 bf ba 3b 91 bd 2e 1d 1b be 53 97 7a 3f
       -0.72377604 -0.0709147 -0.1514785 0.9788715
0002a0 d1 02 0c 3f 2e 9f 3b bf 00 27 af 3d 82 8c db bf
       0.546918 -0.73289764 0.085523605 -1.7152255
0002b0 77 4e 41 c0 93 67 29 bd d9 c5 93 bf bb f5 a1 bf
       -3.020414 -0.04135854 -1.1544753 -1.2653116
0002c0 4a 1e 1e bf 7f 76 61 bf 2c a0 9c 3f fa 7b 01 3f
       -0.6176497 -0.88071436 1.223638 0.505798
0002d0 42 f0 71 3e 75 44 85 3f 7c 05 84 3f e5 e3 03 be
       0.23626807 1.0411516 1.0314174 -0.12879904
0002e0 d1 e5 9c bf 3f 2c 59 bf d8 c0 9f 3f 98 d9 ca 3e
       -1.2257634 -0.8483314 1.2480726 0.39619136
0002f0 d2 8f 1b 3f 55 10 ae 3d b1 9d 20 bd 63 ed 87 3e
       0.6076633 0.08499209 -0.039212886 0.265483
000300 68 5d 86 3f 26 cd 8c 3f 27 b0 a3 3e f4 f1 d5 bd
       1.0497255 1.1000106 0.3197033 -0.104465395
000310 54 9b b3 3f 18 c4 b6 bf 34 8a a4 3e 85 82 8d bf
       1.4031777 -1.4278593 0.3213669 -1.1055456
000320 65 ac f0 3f 4c ee de bf 49 e0 48 c1 d1 9f d3 c0
       1.8802611 -1.7416472 -12.554757 -6.613259
000330 98 ec 55 40 09 bf 52 bf 30 ec 3a c0 61 cf 3c c0
       3.3425655 -0.82322747 -2.9206657 -2.9501574
000340 f8 c0 6b 3d 3b ad b1 3f 32 5b 74 40 90 22 e0 bf
       0.057557076 1.3880991 3.8180661 -1.7510548
000350 c6 bf 3f c0 3f 81 f1 bf d0 22 48 bf f3 39 b8 be
       -2.99608 -1.8867568 -0.7817812 -0.35981712
000360 0f 3d 91 3e 25 14 94 3f b1 5f b9 3f bc e2 0e c1
       0.28366897 1.1568648 1.4482328 -8.930355
000370 17 f9 cb 3e 57 68 1c be eb b2 b0 3f db 26 cc c0
       0.39838478 -0.15274177 1.3804601 -6.379743
000380 8f 30 1e c0 55 d7 58 3f 63 bf a3 3d 63 4c a7 c0
       -2.4717138 0.8470357 0.079954885 -5.2280746
000390 2c 59 90 3f 47 f2 c9 c0 3a 0a fb 3e d3 1d 6a c0
       1.1277213 -6.310825 0.4903124 -3.6580703
0003a0 25 49 93 c0 2a 4b b1 bf 34 5f 34 bf 09 08 86 c0
       -4.602679 -1.3851063 -0.7045777 -4.188481
0003b0 29 4f e3 bf 03 9d 83 3f a5 66 43 bf 44 e4 09 40
       -1.7758533 1.0282291 -0.763285 2.1545572
0003c0 38 8f bc 3f a6 1b 9c c0 6f 9f 2b 40 97 fd 58 3f
       1.4731207 -4.878375 2.681606 0.8476195
0003d0 36 c3 92 3e c3 4a b9 be 43 b6 67 3e 1e ca c7 3c
       0.2866456 -0.3618985 0.22628121 0.02438837
0003e0 d9 91 9a be 63 76 52 3f 3c 1a 4f bf 51 7c a2 3f
       -0.30189398 0.82211894 -0.80899405 1.2694188
0003f0 47 27 17 c1 ba 54 ad c0 b1 de 6d 3e be 30 70 c0
       -9.447089 -5.4165926 0.23229481 -3.752975

fc_2.bias f4 [32]
000000 5c 7a 4d c0 c7 97 f4 3f 3a f6 18 40 3d a3 13 40
       -3.2105932 1.9108819 2.3900285 2.3068383
000010 2c 2f d4 be 7a 0e 9f 3f e1 13 db bf e1 28 eb be
       -0.4144224 1.2426293 -1.7115442 -0.45929626
000020 51 ea 4b c0 cb aa 77 3f 96 09 52 c0 f5 8e 32 3e
       -3.1861765 0.96744984 -3.281835 0.17437346
000030 0e a5 86 bf 02 94 dd 3f 21 a4 96 bd 7b af 48 3d
       -1.0519121 1.7310793 -0.07355524 0.048995476
000040 2b 70 9a 3e da 39 62 c0 13 a5 04 3f a0 3b 48 c0
       0.30163702 -3.534781 0.51814383 -3.1286392
000050 e6 e8 d4 3f 68 b9 35 40 9a 6c 29 be 67 80 26 40
       1.6633575 2.8394413 -0.16545334 2.601587
000060 e5 7a 22 bd 14 a4 ad 3e b8 7f 4e c0 ac ab 1d bf
       -0.039667983 0.33914244 -3.2265453 -0.61590075
000070 2d 7d e9 3e 04 93 ea 3f b6 d7 5e 3f b6 14 a0 3f
       0.45603314 1.8326116 0.870479 1.250632

fc_out.weight f4 [9, 32]
000000 44 2d 37 3e d0 32 eb bf 94 b9 42 bf be 40 e9 40
       0.17888361 -1.8374882 -0.7606442 7.289153
000010 8b d7 83 40 1e 7a c6 bf 18 4c e8 3d b2 f2 a4 3f
       4.1200614 -1.5506017 0.11342639 1.2886565
000020 8e e4 d0 3e fc 3b 4d bf f4 4b f3 be 22 0f f1 bf
       0.40799373 -0.80169654 -0.47518885 -1.8832743
000030 f3 ba 00 3e 0d b8 2d 3e a6 e5 aa be fe 9c 5b bf
       0.12571315 0.16964741 -0.33378333 -0.85786426
000040 f8 c8 83 40 83 8b 22 be d6 b8 99 be c5 49 98 3d
       4.1182823 -0.15873532 -0.3002383 0.074359454
000050 95 9b e2 bf 51 c7 d0 bf df e7 2d bf 9b 7f ad bf
       -1.770373 -1.6310827 -0.6793193 -1.3554567
000060 65 1a 08 bf 47 73 0c c0 ac f8 c0 3e 86 86 ef 3e
       -0.53165275 -2.194536 0.37689722 0.4678232
000070 86 04 38 bf 02 af 85 c0 d8 39 cc bf 6f 45 83 bf
       -0.718819 -4.1776133 -1.5955153 -1.0255564
000080 c9 7c 9f bd 18 c0 cf bf 77 21 4d bf 84 6c c4 40
       -0.07787473 -1.6230497 -0.8012919 6.1382465
000090 f1 9d 1a 40 0c 73 c6 bf 81 2a 9c be 1b 89 a4 3f
       2.41589 -1.550386 -0.30501178 1.2854341
0000a0 3b b0 ab 3e 9c 82 45 bf db c5 1c be a8 44 f0 bf
       0.3353289 -0.7715242 -0.15309851 -1.8770952
0000b0 e8 48 d5 ba 68 9d 04 3c 8a 7a bf be c2 98 64 bf
       -0.0016272338 0.008094169 -0.37398177 -0.8929559
0000c0 75 4a 5c 40 9a 1a be bb 11 83 b8 be 80 ef b1 3d
       3.4420445 -0.005801511 -0.36037496 0.08688259
0000d0 bb ce dd bf 36 ee c2 bf d6 b1 8f be 1c e1 b6 bf
       -1.7328714 -1.5228946 -0.28065366 -1.4287448
0000e0 4a 12 f1 be b3 e2 08 c0 55 06 da be 94 1a ba 3e
       -0.47084266 -2.1388366 -0.42582956 0.36348403
0000f0 94 42 34 bf 8e 82 33 c0 3d 5b ca bf 8e 91 8d bf
       -0.7041409 -2.8048434 -1.5809094 -1.1060045
000100 d1 33 27 3f 4f 1b c6 bf c8 f6 5c bf 09 12 c3 40
       0.6531344 -1.5477084 -0.8631406 6.0959516
000110 3c b6 19 40 f1 92 c5 bf 25 80 97 3f 58 12 b0 3f
       2.4017477 -1.5435468 1.1835982 1.3755598
000120 21 78 68 3e 1c 79 4e bf d7 16 4e be 4d f4 ff bf
       0.22702076 -0.8065355 -0.201259 -1.999643
000130 cf 69 6b bc c8 35 d0 bd bd 06 8b be ab 71 87 bf
       -0.014368488 -0.10166508 -0.27153578 -1.0581564
000140 9d 62 61 40 fd ea 77 be ca 8f c6 be 93 0a d5 3e
       3.5216439 -0.24210735 -0.38781577 0.4160963
000150 2a 4f d9 bf 37 87 ac bf f0 4d c0 be 2a 2d cd bf
       -1.6977284 -1.3478764 -0.37559462 -1.6029408
000160 cd 59 b4 be 5b 60 09 c0 48 57 61 be 05 82 93 3e
       -0.35224763 -2.146506 -0.22005951 0.28810135
000170 bb d5 3b bf 54 d5 33 c0 bf 35 c3 bf 75 47 8f bf
       -0.73373 -2.8098955 -1.5250777 -1.1193682
000180 11 58 36 3f 1a 52 9f bf bd ef 57 bf 04 55 87 40
       0.7122813 -1.244693 -0.84350187 4.229128
000190 64 85 cc 3f c9 b3 bf bf 14 29 28 3f a9 20 c8 3f
       1.5978208 -1.4976741 0.6568768 1.5634967
0001a0 42 74 e5 3c 6c 2a 3e bf c0 4e 8b 3f c2 12 10 c0
       0.028009538 -0.7428348 1.0883408 -2.251145
0001b0 ad 3a b5 3d 1b ff c1 be c3 82 cd be 2b f0 4c bf
       0.08849082 -0.37889943 -0.40138826 -0.8005397
0001c0 21 63 19 40 5e b4 6c 3f 4e 55 c7 be 62 84 13 3e
       2.3966753 0.9246272 -0.3893227 0.14405969
0001d0 72 bd ce bf bd e7 90 bf 31 52 ea 3c 8f 36 e2 bf
       -1.6151564 -1.1320721 0.028603645 -1.76729
0001e0 24 36 e7 be 7c 41 11 c0 6a f1 54 3d f5 d2 ed 3a
       -0.45158494 -2.2696218 0.051988043 0.0018144535
0001f0 e3 b6 4a bf 19 95 1e bf 25 af bb bf 3b e6 94 bf
       -0.79185313 -0.61946255 -1.4662825 -1.1632761
000200 62 fa 97 3f 52 e1 5d bf 7d 95 64 bf ad 69 16 40
       1.1873286 -0.86671937 -0.892906 2.3502
000210 aa 9f bd 3e 05 5a b1 bf 37 61 25 3f fc 12 e6 3f
       0.37035877 -1.3855597 0.64601463 1.7974544
000220 47 7c 81 3f 12 05 3f bf e3 db 76 3f 8c 7d 1e c0
       1.0116051 -0.7461711 0.9642927 -2.4764128
000230 57 60 4d bc 19 76 49 bf e4 58 d8 be fc 28 34 bf
       -0.012535176 -0.7869583 -0.42255318 -0.7037504
000240 f8 b4 ba 3f 79 f8 a3 3f 86 3c 10 bf be 26 76 3f
       1.4586477 1.2810203 -0.5634235 0.96152866
000250 fa 05 bc bf df 9c 52 bf 3e bc eb 3e 30 fd 01 c0
       -1.4689324 -0.82270616 0.46042055 -2.0310783
000260 bc 24 11 bf d7 ec 13 c0 08 fa 29 3f 9f ff 48 be
       -0.5669668 -2.3113306 0.6639714 -0.19628762
000270 44 6f 3d bf 0a 45 be 3f c5 ca b0 bf 66 3e 97 bf
       -0.739979 1.4864819 -1.381188 -1.1815917
000280 42 76 52 3f 21 75 db be f9 26 5c bf 5f f0 11 bf
       0.822117 -0.428628 -0.8599697 -0.570074
000290 46 c5 14 bf aa 26 ad bf 8f b1 1a 3d 37 81 ff 3f
       -0.58113515 -1.3527424 0.03776699 1.9961308
0002a0 43 2f 78 3f 63 e1 43 bf 3b 38 00 40 32 48 31 c0
       0.96947116 -0.7651579 2.003432 -2.7700315
0002b0 2c 02 5b 3d eb db 8d bf f5 b1 f1 be 6a 16 d2 be
       0.053468868 -1.1082739 -0.47206083 -0.41032726
0002c0 7e 06 21 bd f7 e1 ff 3f d7 d3 3c bf 7e db 24 40
       -0.039312832 1.9990834 -0.7376074 2.5758967
0002d0 60 25 b3 bf 55 b7 f4 be 79 54 92 3f c5 68 13 c0
       -1.3995781 -0.4779612 1.1432029 -2.3032696
0002e0 c5 2e 02 bf 84 99 18 c0 03 2a 2a 3f 65 97 e2 be
       -0.50852615 -2.3843699 0.66470355 -0.4425613
0002f0 63 fa 4d bf 4d d3 94 40 ee ee a1 bf b6 cd a2 bf
       -0.80460185 4.6507936 -1.265104 -1.2719028
000300 0c c3 18 3f 18 40 2b be d4 bb 51 bf 73 f4 27 c0
       0.5967262 -0.16723669 -0.8192723 -2.624295
000310 c5 af d3 bf 8b 38 a4 bf 3c 3c 36 bf f2 19 0a 40
       -1.6538016 -1.2829756 -0.7118566 2.1578336
000320 1b 87 eb 3f 7c 6d 4c bf fb 68 22 40 1a cf 40 c0
       1.8400606 -0.7985456 2.5376575 -3.0126405
000330 09 ba 43 bc 58 9b a9 bf db e0 e8 be b1 36 4d be
       -0.01194621 -1.3250532 -0.4548405 -0.20040394
000340 f9 13 94 bf cd cb 4a 40 e1 5d 51 bf cc 08 53 40
       -1.1568595 3.168689 -0.8178387 3.297412
000350 2c c7 a6 bf d4 ac 85 be a3 76 ce 3f 1b 0c 20 c0
       -1.3029532 -0.2610842 1.6129955 -2.5007389
000360 82 7d 1f bf 56 95 1c c0 40 84 bf 3e 57 4d 26 bf
       -0.62300885 -2.4466147 0.37405586 -0.6496176
000370 34 cc 43 bf 16 a8 df 40 8e e8 9c bf 2d b0 a5 bf
       -0.76483464 6.9892683 -1.225847 -1.294439
000380 2f 51 f4 3f e1 4d 0b bd 0d ab 3c bf f9 b2 5d c0
       1.9087275 -0.034009818 -0.736985 -3.4640486
000390 68 47 c8 bf ad a9 98 bf 22 f0 db 3e cb 31 16 40
       -1.5646791 -1.1926781 0.42956644 2.3467891
0003a0 8d 38 1b 40 e0 92 49 bf 44 0c 06 40 05 bf 48 c0
       2.4253266 -0.7873974 2.0944986 -3.136659
0003b0 f4 3a 9a 3d 34 a0 c6 bf 99 09 f5 be 6a 21 a4 3c
       0.07530776 -1.551764 -0.47858885 0.020035464
0003c0 6f cd b0 bf df 08 39 40 34 a7 57 bf 71 b6 15 40
       -1.3812693 2.8911664 -0.84239507 2.3392603
0003d0 41 fc a1 bf a2 2f 43 be 81 9a e4 3f 86 cb 21 c0
       -1.2655107 -0.19061139 1.7859651 -2.528047
0003e0 24 da 0c bf f7 eb 1f c0 74 86 05 40 7f 47 21 bf
       -0.55020356 -2.4987772 2.0863314 -0.6299972
0003f0 af da 55 bf 35 12 f6 40 34 b0 92 bf ce 49 b4 bf
       -0.8353681 7.6897225 -1.1460023 -1.4085023

fc_out.bias f4 [9]
000000 62 19 1f c0 7b 86 58 c0 e1 79 f4 bf 72 10 1d c0
       -2.4859242 -3.383208 -1.9099694 -2.4541287
000010 14 59 23 c0 fd d9 1c c0 be 9e 39 c0 c7 54 7f c0
       -2.552312 -2.450805 -2.9003139 -3.9895494
000020 fa e3 90 c0
       -4.527829
