Pendulum_DQN/saved_model/0404/DQN_Q_EP210.pt (torch, 12311 bytes, 6 tensors)

fc_1.weight f4 [64, 3]
-0.1583785 3.5587847 0.73574996 -0.8473954 -0.7236699 -0.46683994 0.5109172 -0.77545935
0.8579075 -0.55483896 0.3000658 0.74989855 1.8180634 -2.2030232 -0.68011004 -1.2075584
-1.9532585 -0.45600626 -1.3788823 -0.7251142 -0.081469074 -0.5370557 -3.1544497 -0.26031342
3.7471287 -2.3332415 -0.8294418 -1.4148836 2.3014188 0.72240084 2.4554555 5.231624
1.2876441 -1.2772887 3.7918923 0.69569266 3.3931363 2.2292747 0.30645132 1.67001
2.8833852 0.7654155 -0.15641646 -3.3361602 -0.7407938 -0.39461473 -2.8916564 -0.516726
-0.7569838 -0.62465644 -0.23279983 3.444722 1.2745281 0.79252166 2.9221838 1.1633881
1.1285572 -0.38711256 2.8787732 0.6512907 0.6418992 3.1997297 0.4970252 0.8121535
-2.9341643 0.05580274 1.0386742 1.5259365 0.32627597 -2.107666 0.06526121 0.3439618
-0.14304754 2.047089 0.3360844 1.3036076 -0.23810765 -0.44094 -2.4759898 0.66310453
0.6359269 2.229942 -2.7833 -0.7041119 -2.5008883 -0.027149301 -0.36994296 1.2015787
-4.6515975 -0.9768012 -2.0195658 -1.1773691 -0.14291756 1.9264945 2.3826265 0.6525539
-2.6523747 -3.6517262 0.052876983 -1.4045475 0.34388208 -0.3276417 0.06868422 -1.5353706
0.7232867 1.649639 -3.0715177 -0.6684573 -3.263959 -1.6808006 -0.08313311 -0.39034677
4.5695596 0.767724 -2.2041173 -0.2712475 0.34271222 -2.1277976 1.8091403 0.5381587
1.1734576 3.77502 0.68822175 -3.1561928 2.3868961 -0.26920646 -1.10977 -0.87750214
-0.013712003 2.7717547 -1.9418945 -0.9170883 2.9217825 -1.153788 -0.9617232 0.72678363
1.4937247 -0.46394742 -1.2596781 -1.9892992 -0.3519544 -0.8680965 2.2616765 1.089454
-0.81869537 0.47035456 -0.68485534 -2.457114 3.9138303 0.3223638 2.5803053 4.0595055
1.1628416 -1.6303006 -1.7153311 0.21009687 -0.74071383 0.10464664 -0.124609634 -1.7633224
0.03357394 -0.09791756 -0.93845713 0.22756737 -0.25871316 -0.09205775 -0.38789758 -0.028821208
-0.15006088 -1.543544 -0.7157123 -2.2265894 -0.14751245 0.16563933 -0.94975466 2.1554768
0.49046966 -2.132152 -0.9287715 0.20938566 1.4204948 -5.1081605 -1.199537 1.6294786
3.1384687 0.77373505 0.31162146 1.6694845 0.2626236 1.1194396 4.578244 0.6202845
00000000: f92d 22be 21c3 6340 1c5a 3c3f e8ee 58bf
00000010: 6e42 39bf a505 efbe 78cb 023f 8184 46bf
00000020: d39f 5b3f ed09 0ebf 39a2 993e 5af9 3f3f
00000030: 4db6 e83f 55fe 0cc0 b11b 2ebf 4691 9abf
00000040: 6004 fabf a779 e9be 377f b0bf 16a1 39bf
00000050: 42d9 a6bd 7b7c 09bf 81e2 49c0 cd47 85be
00000060: f5d0 6f40 d453 15c0 4c56 54bf e81a b5bf
00000070: 724a 1340 43ef 383f 2f26 1d40 7769 a740
00000080: 86d1 a43f 327e a3bf 5dae 7240 ea18 323f
00000090: 2529 5940 70ac 0e40 30e7 9c3e e3c2 d53f
000000a0: 6289 3840 45f2 433f a32b 20be a683 55c0
000000b0: aaa4 3dbf f10a cabe e610 39c0 2848 04bf
000000c0: b1c9 41bf 7ce9 1fbf 1463 6ebe 5376 5c40
000000d0: bd23 a33f b3e2 4a3f 0f05 3b40 e7e9 943f
000000e0: 9074 903f 9e33 c6be d23d 3840 fdba 263f
000000f0: 8253 243f 5fc8 4c40 167a fe3e 4be9 4f3f
00000100: 59c9 3bc0 6a91 643d 47f3 843f e351 c33f
00000110: a50d a73e 00e4 06c0 aba7 853d c31b b03e
00000120: 0e7b 12be 8203 0340 4113 ac3e 9ddc a63f
00000130: 7ed2 73be e3c2 e1be 9e76 1ec0 38c1 293f
00000140: 1bcc 223f 5fb7 0e40 9621 32c0 ad40 34bf
00000150: 8e0e 20c0 3668 debc 2a69 bdbe 55cd 993f
00000160: e3d9 94c0 a50f 7abf 9140 01c0 08b4 96bf
00000170: fb58 12be 5f97 f63f f47c 1840 c60d 273f
00000180: 82c0 29c0 e2b5 69c0 8995 583d 36c8 b3bf
00000190: 5011 b03e a7c0 a7be 50aa 8c3d 0687 c4bf
000001a0: 5129 393f 5f27 d33f bf93 44c0 0520 2bbf
000001b0: b4e4 50c0 7924 d7bf b141 aabd 88db c7be
000001c0: d539 9240 8f89 443f 4210 0dc0 f4e0 8abe
000001d0: fa77 af3e d62d 08c0 e991 e73f c5c4 093f
000001e0: dc33 963f ed99 7140 4d2f 303f 10ff 49c0
000001f0: e8c2 1840 6ed5 89be f20c 8ebf fba3 60bf
00000200: 4fa8 60bc 6e64 3140 0090 f8bf 4dc6 6abf
00000210: 7cfe 3a40 53af 93bf 7e33 76bf 7e0e 3a3f
00000220: 5f32 bf3f 848a edbe 223d a1bf 5ba1 febf
00000230: 5e33 b4be 923b 5ebf 4fbf 1040 3b73 8b3f
00000240: 0596 51bf 50d2 f03e ae52 2fbf 5b41 1dc0
00000250: 327c 7a40 de0c a53e b923 2540 78e7 8140
00000260: fed7 943f b1ad d0bf f88f dbbf a223 573e
00000270: 6c9f 3dbf fa50 d63d 5633 ffbd 8cb4 e1bf
00000280: d484 093d 0089 c8bd ba3e 70bf 6c07 693e
00000290: 0d76 84be c688 bcbd 839a c6be 741a ecbc
000002a0: 8fa9 19be da92 c5bf ec38 37bf 7180 0ec0
000002b0: 810d 17be 5b9d 293e 1f23 73bf 55f3 0940
000002c0: d71e fb3e 2e75 08c0 f8c3 6dbf 3269 563e
000002d0: c6d2 b53f 0d76 a3c0 6e8a 99bf c192 d03f
000002e0: acdc 4840 8013 463f d98c 9f3e abb1 d53f
000002f0: 9a76 863e cc49 8f3f fa80 9240 f7ca 1e3f

fc_1.bias f4 [64]
0.9832054 -0.015019266 -1.0982847 -0.44408736 -1.1454985 1.0050197 -0.054450933 -0.33147117
0.86801803 -1.324342 -3.0108912 0.6395582 -2.0524733 -1.0888263 -0.20272507 -0.42882603
0.63377124 -2.3678043 -4.0951595 -0.74073094 -1.5898167 -0.80814517 -0.9150799 0.8230217
0.8366827 0.7659819 0.06328652 -1.6879201 -0.33614886 -2.0277314 -1.4862782 -1.638186
-2.9692166 1.2079376 0.25735274 -1.090441 -1.3854114 -0.32635832 1.0858378 1.9316361
-0.83656263 -2.9478767 1.0378437 -2.3850818 -3.1069162 1.0473707 -0.13494717 -0.9934439
-0.49191922 -1.4842113 -1.3459089 -0.13722719 0.68646014 0.3448972 1.6029259 -0.6848724
-0.39074993 0.8747999 1.4250702 -0.47227883 -1.9326442 -1.0222168 -0.34759033 -1.631338
00000000: 59b3 7b3f 5e13 76bc 9894 8cbf 6b5f e3be
00000010: b29f 92bf 7ca4 803f f107 5fbd 97b6 a9be
00000020: 6e36 5e3f 0a84 a9bf 71b2 40c0 16ba 233f
00000030: b95b 03c0 a95e 8bbf 2997 4fbe 168f dbbe
00000040: d53e 223f 1b8a 17c0 8c0b 83c0 8ba0 3dbf
00000050: 1d7f cbbf 9ae2 4ebf ad42 6abf 8db1 523f
00000060: d630 563f 6417 443f 5d9c 813d c40d d8bf
00000070: b41b acbe 5ac6 01c0 5d3e bebf 14b0 d1bf
00000080: a507 3ec0 b39d 9a3f bdc3 833e 9293 8bbf
00000090: 2955 b1bf 7018 a7be bcfc 8a3f da3f f73f
000000a0: f828 56bf 03aa 3cc0 10d8 843f 2ea5 18c0
000000b0: b7d7 46c0 3e10 863f 972f 0abe 5752 7ebf
000000c0: d6dc fbbe a3fa bdbf be46 acbf 4985 0cbe
000000d0: dabb 2f3f 5e96 b03e ad2c cd3f cc53 2fbf
000000e0: 6010 c8be e3f2 5f3f b368 b63f 88ce f1be
000000f0: e360 f7bf 00d8 82bf 5cf7 b1be afcf d0bf

fc_2.weight f4 [32, 64]
-0.8269017 -0.3362668 0.2353122 -0.64672893 0.42088935 -0.04572705 -1.3638127 0.57278204
-1.1810035 1.3349755 0.82214457 -0.32147518 -4.6001477 -0.47919327 0.8949821 0.23236182
0.04445219 -2.41125 3.120687 1.5567857 0.9095902 -1.5744646 -0.15652478 0.38640136
-0.85441685 -1.0843278 0.13357535 -1.6167039 0.50238967 0.4227472 1.2071528 -0.53673714
-4.845139 0.21036 -1.0400518 -0.49985924 -0.3450938 0.5261786 -0.0012062859 -0.8730669
-0.915771 0.4207538 -0.06111022 -0.7508615 0.42740706 -1.9351761 -0.063279375 0.97235954
0.43800473 1.6591707 -1.8799083 -1.8061644 0.64700997 -0.8766835 -0.4963894 0.33552834
0.41002277 0.65948814 -1.0097674 -1.1942009 -0.5689021 -0.8402514 -0.14617707 -0.42341533
0.8511738 -0.20436224 -1.0065125 -0.15944816 -3.6256652 0.6956698 0.18726131 0.597257
-1.6050307 -1.1158499 -2.3621502 0.5662232 0.73262566 -1.1915845 -1.0223699 -0.099764004
0.5487553 0.39626315 -5.0766544 -1.0893867 0.5120332 -2.0437245 0.023572039 -0.12954316
1.235651 0.72169954 -0.59552544 3.9997077 -0.992384 0.3370206 -0.47585285 -2.0699146
1.7797287 1.0208174 -0.3206692 -0.011068674 0.54765326 -0.19381674 0.5219261 1.0868833
0.3122093 -1.837876 0.4904395 -2.3808205 -14.86096 0.35026106 0.05875333 -2.018138
0.35755277 0.61678153 -0.40864637 2.1692357 0.55624634 0.15652405 1.0135947 0.26167005
-0.52673453 0.32657078 1.0275178 1.5131292 0.43623492 -0.51363945 0.19200616 1.1722295
0.9946766 -0.77040935 0.05064325 -0.20688412 -1.3015127 0.25669262 -0.3257571 -0.13980073
1.1167301 -0.9243555 0.39570493 0.38724568 -0.13441056 -0.06714089 -0.35013217 0.38309407
0.60779476 1.0515457 0.5829337 -1.0277199 -0.54165864 1.653161 -0.14057465 -0.41096315
0.6847327 0.603894 -0.06439895 0.72376364 -0.9676356 0.3037009 -1.240758 -0.24290901
1.5952306 0.899076 1.2713586 0.49599898 -1.0152884 -0.24056251 0.05294635 0.8994916
0.5121146 0.03711441 0.11390345 -1.6549817 -3.85146 0.013444742 -1.0022308 -1.1979059
-0.6447608 -0.30195752 0.8715795 0.7131297 0.30346304 0.58930534 1.0284199 -0.1936475
-1.2035575 -0.47587276 1.0685569 0.39142683 0.71237236 0.005416813 0.16837266 0.24567696
1.0790637 0.4463522 0.34642288 -0.37603498 1.8458489 -1.3442415 0.108543165 -0.8655945
1.8505821 -1.9197619 -10.39891 -5.591079 3.2922027 -0.5688223 -2.1464133 -2.0472965
0.41218305 1.0649618 3.785608 -2.1713762 -2.8312502 -1.7669138 -0.32160717 -1.0993763
0.22945371 1.0680591 1.5337268 -9.029304 0.21869782 0.8549674 1.474084 -6.8782306
-2.353261 0.24145103 0.31121996 -5.4174094 1.4038602 -3.97077 0.016014101 -2.8751512
-4.8671794 -1.0956092 -0.8564293 -4.240147 -1.5109965 0.87654966 -0.31487438 2.3314502
1.0456707 -4.842809 2.6682384 0.7729239 0.5094487 -0.29216298 -0.07470865 -0.04259957
-0.035097346 0.3971696 -0.86720335 1.3080239 -7.276205 -5.5867243 0.4282724 -2.5398223
00000000: d4af 53bf 292b acbe aef5 703e 0790 25bf
00000010: cf7e d73e 4a4c 3bbd 6a91 aebf d8a1 123f
00000020: 1f2b 97bf 7ae0 aa3f 1178 523f 6598 a4be
00000030: 6934 93c0 d258 f5be 8c1d 653f 42f0 6d3e
00000040: 8013 363d ec51 1ac0 56b9 4740 c144 c73f
00000050: e7da 683f 0e88 c9bf 0848 20be 66d6 c53e
00000060: 10bb 5abf 41cb 8abf fac7 083e 27f0 cebf
00000070: 9c9c 003f 5272 d83e fc83 9a3f 9b67 09bf
00000080: 610b 9bc0 9d68 573e 6b20 85bf 8ded ffbe
00000090: 22b0 b0be a4b3 063f 3d1c 9eba 5081 5fbf
000000a0: f86f 6abf 0b6d d73e b64e 7abd 7638 40bf
000000b0: 19d5 da3e dab3 f7bf 9e98 81bd 8eec 783f
000000c0: 2842 e03e b55f d43f d6a0 f0bf 6530 e7bf
000000d0: 72a2 253f 546e 60bf c026 febe 5fca ab3e
000000e0: 81ee d13e 37d4 283f 0f40 81bf 93db 98bf
000000f0: 91a3 11bf b71a 57bf 71af 15be e5c9 d8be
00000100: 87e6 593f 5644 51be 67d5 80bf 6146 23be
00000110: e60a 68c0 6a17 323f 6ec1 3f3e d6e5 183f
00000120: a571 cdbf 2bd4 8ebf 782d 17c0 01f4 103f
00000130: 5b8d 3b3f d785 98bf 04dd 82bf 1251 ccbd
00000140: 3a7b 0c3f 01e3 ca3e f473 a2c0 0671 8bbf
00000150: 9c14 033f 62cc 02c0 261a c13c f6a6 04be
00000160: d029 9e3f 4dc1 383f 5b74 18bf 36fb 7f40
00000170: e10c 7ebf f78d ac3e fca2 f3be 7b79 04c0
00000180: 26ce e33f 25aa 823f c12e a4be 6259 35bc
00000190: 0133 0c3f e577 46be f39c 053f fe1e 8b3f
000001a0: e6d9 9f3e 853f ebbf e31a fb3e 5d5f 18c0
000001b0: 7ec6 6dc1 6b55 b33e 55a7 703d 2c29 01c0
000001c0: 2811 b73e 65e5 1d3f 193a d1be c2d4 0a40
000001d0: 2966 0e3f d747 203e 79bd 813f 9ef9 853e
000001e0: 13d8 06bf 4934 a73e b485 833f 38ae c13f
000001f0: 2f5a df3e e07d 03bf 439d 443e 9e0b 963f
00000200: 20a3 7e3f 8c39 45bf 4c6f 4f3d 6ed9 53be
00000210: f897 a6bf 376d 833e a2c9 a6be ec27 0fbe
00000220: 03f1 8e3f 90a2 6cbf d699 ca3e 1145 c63e
00000230: eca2 09be 2a81 89bd 8644 b3be e824 c43e
00000240: 7098 1b3f 0d99 863f 253b 153f 538c 83bf
00000250: 24aa 0abf c89a d33f cdf2 0fbe c369 d2be
00000260: a44a 2f3f cc98 1a3f 99e3 83bd 9348 393f
00000270: f7b6 77bf af7e 9b3e 28d1 9ebf 24bd 78be
00000280: 8430 cc3f d829 663f e1bb a23f 94f3 fd3e
00000290: f8f4 81bf 0556 76be 46de 583d 1545 663f
000002a0: f119 033f 4805 183d 3646 e93d 71d6 d3bf
000002b0: 527e 76c0 5647 5c3c 1949 80bf fb54 99bf
000002c0: 0b0f 25bf 2d9a 9abe d61f 5f3f ab8f 363f
000002d0: 825f 9b3e b7dc 163f 43a3 833f 884b 46be
000002e0: 2c0e 9abf 98a5 f3be 79c6 883f 1969 c83e
000002f0: 095e 363f 857f b13b e269 2c3e be92 7b3e
00000300: c21e 8a3f 4788 e43e 575e b13e a887 c0be
00000310: c744 ec3f 1b10 acbf e14b de3d 9a97 5dbf
00000320: e0df ec3f c2ba f5bf ef61 26c1 1fea b2c0
00000330: 73b3 5240 579e 11bf d65e 09c0 e806 03c0
00000340: a809 d33e ab50 883f 6747 7240 d4f7 0ac0
00000350: 3433 35c0 3b2a e2bf b2a9 a4be 5db8 8cbf
00000360: eaf5 6a3e 29b6 883f 2951 c43f 0778 10c1
00000370: 52f2 5f3e 25df 5a3f c9ae bc3f 771a dcc0
00000380: d49b 16c0 f03e 773e 3958 9f3e 6b5b adc0
00000390: b1b1 b33f 1821 7ec0 0130 833c 7a02 38c0
000003a0: efbf 9bc0 ec3c 8cbf f33e 5bbf 49af 87c0
000003b0: 5568 c1bf 8f65 603f 3737 a1be 7b36 1540
000003c0: 8ad8 853f 4bf8 9ac0 6bc4 2a40 57de 453f
000003d0: 3b6b 023f 6396 95be d900 99bd e37c 2ebd
000003e0: 3cc2 0fbd d059 cb3e 0a01 5ebf 546d a73f
000003f0: acd6 e8c0 72c6 b2c0 8546 db3e 738c 22c0

fc_2.bias f4 [32]
-2.221535 1.4896883 2.105903 2.2483478 -0.33901 0.9520168 -0.92831993 -0.25871393
-2.2462533 0.8335954 -2.390774 0.13788414 -0.5299944 1.3314053 -0.032962877 0.022187244
0.309877 -2.5863469 0.41960296 -2.2350216 1.1558025 2.069559 0.3524707 1.9077584
-0.01772871 0.07779966 -2.2376854 -0.52776587 0.49295875 1.7126845 0.613129 0.727539
00000000: a12d 0ec0 1bae be3f 1dc7 0640 eee4 0f40
00000010: b892 adbe 5fb7 733f 60a6 6dbf 2776 84be
00000020: 9dc2 0fc0 8266 553f 7102 19c0 8031 0d3e
00000030: b7ad 07bf 7d6b aa3f 1504 07bd 06c2 b53c
00000040: 33a8 9e3e b586 25c0 33d6 d63e 980a 0fc0
00000050: 56f1 933f a873 0440 0a77 b43e 6d31 f43f
00000060: cd3b 91bc 6e55 9f3d 3d36 0fc0 aa1b 07bf
00000070: 1765 fc3e 3f39 db3f 06f6 1c3f ff3f 3a3f

fc_out.weight f4 [9, 32]
0.07457286 -1.761168 -0.84219074 7.5019197 3.4844415 -1.4476162 0.11828407 1.4420564
0.3553343 -0.7547517 -0.53003556 -1.553177 -0.13977215 0.010724146 -0.43650794 -0.58539283
4.4663243 -0.15714972 -0.4780261 0.012412596 -1.7316111 -1.4117653 -0.51761556 -1.3677096
-0.6057019 -2.336333 0.27681696 0.43589032 -0.7591033 -3.8523347 -1.4750825 -1.1256052
-0.09766101 -1.5616372 -0.8702195 6.3917165 1.3495041 -1.4689237 -0.34258112 1.3522255
0.2831608 -0.7263414 -0.2718756 -1.6228238 -0.044118892 -0.1392404 -0.43977344 -0.7144382
3.6717155 -0.09435847 -0.56408525 0.030378707 -1.6584677 -1.2963198 0.19489214 -1.414207
-0.44618428 -2.235662 -0.3463422 0.35982338 -0.7325183 -2.4634907 -1.4208975 -1.2021092
0.2724453 -1.4601424 -0.9489378 6.2567697 1.1092196 -1.4798634 0.1314115 1.4299456
0.08526055 -0.75718254 -0.26799655 -1.6281565 -0.06471832 -0.2027118 -0.28425905 -0.96724546
3.6837769 -0.12495894 -0.62001914 0.19805613 -1.6809797 -1.0631866 0.23717277 -1.5902799
-0.4239586 -2.2430131 -0.6117381 0.2637983 -0.7488718 -2.3111396 -1.3953544 -1.2077068
0.64630646 -1.2337228 -0.90324324 4.606906 1.036007 -1.3655456 0.5130365 1.7189589
-0.09806956 -0.71190315 0.65877324 -1.946681 -0.0035537453 -0.49890077 -0.50356984 -0.6890164
2.5256903 0.48011994 -0.66556644 -0.11118072 -1.5825047 -0.94894767 0.37601492 -1.7290529
-0.38953608 -2.401934 0.21957833 0.00030329905 -0.76725554 -0.392716 -1.4262003 -1.229836
0.9483974 -0.890511 -0.9099843 2.808423 0.07954566 -1.3342214 0.7177955 1.9550557
0.6971227 -0.747311 0.64610684 -2.0957615 -0.06298483 -0.82953537 -0.42258498 -0.55290043
1.4865662 0.8357964 -0.7591597 0.9418874 -1.5348514 -0.7078514 1.0051333 -1.9041995
-0.4271652 -2.5246985 0.5114061 -0.12465318 -0.7050311 1.5575399 -1.405425 -1.3225654
0.6262942 -0.5317901 -0.84804773 0.040604584 -0.83673096 -1.2787597 0.23566823 2.320852
0.75266725 -0.7443633 1.488205 -2.4215386 0.01911753 -1.0754629 -0.49172035 -0.37507835
-0.08469419 1.4908007 -0.88636404 2.0413365 -1.4868323 -0.3291393 1.6977628 -2.2285624
-0.4439669 -2.6852407 0.5092669 -0.4101729 -0.73656535 4.502533 -1.31187 -1.4335761
0.357681 -0.2883356 -0.76560766 -1.9924283 -1.1150653 -1.1621312 -0.7536748 2.6182015
1.3520304 -0.7251171 2.1074677 -2.6505547 0.10678986 -1.3304783 -0.48053825 0.059376564
-1.303493 2.6337678 -1.0057982 2.474269 -1.4065193 -0.08567369 2.154877 -2.4294994
-0.58639646 -2.8662043 0.098913886 -0.53649145 -0.7546306 6.6929483 -1.3559533 -1.4801934
1.3385322 -0.11428691 -0.7435255 -3.0324929 -1.325717 -1.1510383 0.02144914 2.775651
2.0945897 -0.7363135 1.5918273 -2.85583 0.19067459 -1.4412035 -0.5066908 0.08029692
-1.6802139 2.4432712 -1.0618162 2.0793467 -1.3816162 -0.02926596 2.339637 -2.4368343
-0.50541854 -2.8762476 1.5715647 -0.55974895 -0.78596985 7.631674 -1.2299746 -1.5555922
00000000: a8b9 983d f46d e1bf d099 57bf ba0f f040
00000010: 1701 5f40 7d4b b9bf eb3e f23d 4e95 b83f
00000020: 61ee b53e 6837 41bf 69b0 07bf 81ce c6bf
00000030: 6e20 0fbe 54b4 2f3c f87d dfbe 4edc 15bf
00000040: 21ec 8e40 dbeb 20be d6bf f4be 335e 4b3c
00000050: 6fa5 ddbf bab4 b4bf 7482 04bf 1c11 afbf
00000060: 480f 1bbf 7b86 15c0 f4ba 8d3e 042d df3e
00000070: 9854 42bf a78c 76c0 81cf bcbf d513 90bf
00000080: 7f02 c8bd bae3 c7bf b5c6 5ebf f188 cc40
00000090: 8dbc ac3f b105 bcbf cb66 afbe ba15 ad3f
000000a0: 74fa 903e 83f1 39bf 4733 8bbe b1b8 cfbf
000000b0: 03b6 34bd 0995 0ebe fc29 e1be 6ce5 36bf
000000c0: 63fd 6a40 033f c1bd e467 10bf c4dc f83c
000000d0: ab48 d4bf cfed a5bf ce91 473e bc04 b5bf
000000e0: 4472 e4be 1615 0fc0 c453 b1be c53a b83e
000000f0: 5286 3bbf d5a9 1dc0 f8df b5bf b7de 99bf
00000100: f37d 8b3e f2e5 babf 96ed 72bf 7537 c840
00000110: e8fa 8d3f 2a6c bdbf bc90 063e 7508 b73f
00000120: 159d ae3d b7d6 41bf d836 89be 6f67 d0bf
00000130: 0a8b 84bd af93 4fbe 678a 91be 669d 77bf
00000140: 00c3 6b40 79ea ffbd 93b9 1ebf 3acf 4a3e
00000150: 582a d7bf 8016 88bf 6bdd 723e 4b8e cbbf
00000160: 1a11 d9be 878d 0fc0 de9a 1cbf 9210 873e
00000170: 10b6 3fbf b6e9 13c0 f99a b2bf 2396 9abf
00000180: 5774 253f a1ea 9dbf f33a 67bf c66b 9340
00000190: e19b 843f 33ca aebf 5c56 033f d806 dc3f
000001a0: b2d8 c8bd 493f 36bf 5da5 283f d82c f9bf
000001b0: f4e5 68bb ec6f ffbe f4e9 00bf 6163 30bf
000001c0: e9a4 2140 48d2 f53e 9062 2abf b8b2 e3bd
000001d0: 848f cabf 3cee 72bf 0785 c03e 9b51 ddbf
000001e0: 4671 c7be 49b9 19c0 24d9 603e 1c04 9f39
000001f0: dc6a 44bf 1212 c9be bb8d b6bf 446b 9dbf
00000200: 2cca 723f 87f8 63bf bbf4 68bf 34bd 3340
00000210: d6e8 a23d c4c7 aabf 72c1 373f 443f fa3f
00000220: a276 323f c64f 3fbf 4267 253f f520 06c0
00000230: 31fe 80bd 6e5c 54bf 0f5d d8be e28a 0dbf
00000240: cd47 be3f c1f6 553f 4a58 42bf 881f 713f
00000250: 0376 c4bf c035 35bf 35a8 803f cfbc f3bf
00000260: 66b5 dabe a994 21c0 83eb 023f 2b4a ffbd
00000270: eb7c 34bf 785d c73f f7e4 b3bf d349 a9bf
00000280: d154 203f 6523 08bf a819 59bf fe50 263d
00000290: 0034 56bf 66ae a3bf 0353 713e d788 1440
000002a0: cdae 403f 988e 3ebf 807d be3f 7dfa 1ac0
000002b0: 5e9c 9c3c c5a8 89bf c5c2 fbbe 450a c0be
000002c0: 2674 adbd 8fd2 be3f c1e8 62bf 42a5 0240
000002d0: 8550 bebf f284 a8be 4b50 d93f c4a0 0ec0
000002e0: a14f e3be fcda 2bc0 515f 023f 2f02 d2be
000002f0: 8c8f 3cbf c014 9040 5beb a7bf 6c7f b7bf
00000300: f721 b73e b9a0 93be ddfe 43bf e407 ffbf
00000310: 76ba 8ebf b7c0 94bf d5f0 40bf 9d90 2740
00000320: 550f ad3f 46a1 39bf c0e0 0640 b0a2 29c0
00000330: a4b4 da3d 1d4d aabf 1c09 f6be d734 733d
00000340: dcd8 a6bf a78f 2840 ffbd 80bf 6c5a 1e40
00000350: d308 b4bf b075 afbd 81e9 0940 eb7c 1bc0
00000360: 141e 16bf e46f 37c0 5d93 ca3d 8157 09bf
00000370: 792f 41bf a22c d640 e18f adbf fa76 bdbf
00000380: 0655 ab3f 410f eabd b057 3ebf 5d14 42c0
00000390: 18b1 a9bf 3955 93bf 1bb6 af3c 44a4 3140
000003a0: c20d 0640 0b7f 3cbf ffc0 cb3f ebc5 36c0
000003b0: 3340 433e 5b79 b8bf 7db6 01bf b672 a43d
000003c0: 4011 d7bf 8e5e 1c40 98e9 87bf 0414 0540
000003d0: cdd8 b0bf 2bbf efbc 9dbc 1540 18f5 1bc0
000003e0: 1c63 01bf 7114 38c0 0829 c93f b54b 0fbf
000003f0: 5235 49bf ac36 f440 cf6f 9dbf a51d c7bf

fc_out.bias f4 [9]
-1.9838389 -2.6627598 -1.59417 -1.8343419 -1.6970512 -1.6438773 -2.2511518 -2.9807537
-3.7954204
00000000: 6fee fdbf a86a 2ac0 c30d ccbf b7cb eabf
00000010: f938 d9bf 926a d2bf df12 10c0 abc4 3ec0
00000020: 2be8 72c0
