Pendulum_DQN/saved_model/0404/DQN_Q_EP220.pt (torch, 12311 bytes, 6 tensors)

fc_1.weight f4 [64, 3]
-0.15664041 3.5622165 0.74807817 -0.86608297 -0.71123064 -0.44500306 0.42902792 -0.7013797
0.85085195 -0.56916755 0.320551 0.71893084 1.836421 -2.1849177 -0.68065584 -1.2714479
-1.930677 -0.43327764 -1.4298327 -0.80229944 -0.055105105 -0.45239902 -3.1678164 -0.26663622
3.7612977 -2.3273401 -0.8492545 -1.4133254 2.3079197 0.7211679 2.489784 5.341513
1.347594 -1.3024546 3.853028 0.6967968 3.4653306 2.0163372 0.2777722 1.6611099
2.8725777 0.7595007 -0.11238975 -3.4548316 -0.72537285 -0.400998 -2.9533303 -0.48026308
-0.73196834 -0.6089811 -0.19447945 3.4333372 1.4622418 0.80159307 2.95972 1.2082195
1.1406126 -0.39488554 2.9076393 0.6637415 0.78063846 3.2231398 0.4694376 0.8130697
-2.930832 0.06961913 0.9604167 1.3673704 0.36996058 -2.1119916 0.1019094 0.3189027
-0.13766041 2.1205573 0.3291818 1.2838682 -0.30986398 -0.4634604 -2.5070927 0.67999834
0.6396158 2.2402837 -2.819257 -0.7031968 -2.5172853 -0.120247446 -0.4096325 1.2594783
-4.7734494 -1.0059893 -2.046993 -1.1159637 -0.11953434 1.923831 2.4226096 0.64847326
-2.6934521 -3.6140182 0.046359174 -1.4301988 0.3046954 -0.35606468 0.048247643 -1.4418559
0.72064596 1.6634654 -3.0421906 -0.6559153 -3.2981195 -1.6892594 -0.08068136 -0.35530588
4.7376046 0.77584535 -2.2355592 -0.19848953 0.34049624 -2.1417358 1.8181671 0.55121094
1.1826978 3.764649 0.68677336 -3.1923099 2.3462114 -0.28699893 -1.1015074 -0.8550129
-0.010052846 2.8023713 -1.9602008 -0.92090195 3.0079563 -1.1208376 -0.9724168 0.671944
1.4831635 -0.500774 -1.3078413 -1.996009 -0.33046862 -0.87924796 2.3053136 1.0806392
-0.6841756 0.2915596 -0.6919028 -2.4251857 3.9217656 0.2995526 2.5922766 4.081243
1.1596942 -1.6115398 -1.7321624 0.24697116 -0.644811 0.25386792 -0.122848436 -1.7520243
0.07225239 -0.076332614 -0.95328695 0.26901275 -0.2579232 -0.041110277 -0.3627154 -0.023053575
-0.12693837 -1.6042984 -0.69682777 -2.294836 -0.13609909 0.18348373 -0.93124485 2.1937706
0.4973933 -2.1283553 -0.8905872 0.20937738 1.4446973 -5.306281 -1.2139702 1.6219203
3.1376963 0.79158163 0.3353713 1.615931 0.2344911 1.1764681 4.6613927 0.665557
00000000: 5866 20be 5bfb 6340 0d82 3f3f 9db7 5dbf
00000010: 3613 36bf 71d7 e3be 8ca9 db3e 9f8d 33bf
00000020: 6fd1 593f f7b4 11bf 431f a43e da0b 383f
00000030: d80f eb3f b1d5 0bc0 763f 2ebf cebe a2bf
00000040: 6d20 f7bf 91d6 ddbe c204 b7bf 7f63 4dbf
00000050: e4b5 61bd d8a0 e7be 81bd 4ac0 8b84 88be
00000060: 1ab9 7040 24f3 14c0 be68 59bf d9e7 b4bf
00000070: f5b4 1340 769e 383f 9f58 1f40 aded aa40
00000080: f67d ac3f d5b6 a6bf 0398 7640 4661 323f
00000090: fac7 5d40 ab0b 0140 2838 8e3e 409f d43f
000000a0: 50d8 3740 a36e 423f 992c e6bd f61b 5dc0
000000b0: 09b2 39bf 9c4f cdbe 5d03 3dc0 0be5 f5be
000000c0: 4762 3bbf 2fe6 1bbf 9f25 47be ccbb 5b40
000000d0: bd2a bb3f 3435 4d3f 0d6c 3d40 f0a6 9a3f
000000e0: 98ff 913f 702e cabe c316 3a40 f7ea 293f
000000f0: ecd7 473f ec47 4e40 205a f03e 5625 503f
00000100: c092 3bc0 7994 8e3d dedd 753f fe05 af3f
00000110: 796b bd3e df2a 07c0 e0b5 d03d 3747 a33e
00000120: daf6 0cbe 36b7 0740 848a a83e cb55 a43f
00000130: 7ea6 9ebe ae4a edbe 3574 20c0 5f14 2e3f
00000140: dcbd 233f cf60 0f40 b56e 34c0 b504 34bf
00000150: 341b 21c0 4b44 f6bd 5abb d1be 9636 a13f
00000160: 19c0 98c0 42c4 80bf ef01 03c0 e6d7 8ebf
00000170: 6cce f4bd 1840 f63f 090c 1b40 5802 263f
00000180: 8561 2cc0 134c 67c0 1ee3 3d3d c110 b7bf
00000190: 0901 9c3e 1c4e b6be 529f 453d bc8e b8bf
000001a0: 417c 383f 6fec d43f 40b3 42c0 11ea 27bf
000001b0: 6414 53c0 a739 d8bf 453c a5bd a7ea b5be
000001c0: 759a 9740 cd9d 463f 6713 0fc0 d740 4bbe
000001d0: 8655 ae3e 3312 09c0 b3b9 e83f 291c 0d3f
000001e0: a462 973f 02f0 7040 61d0 2f3f ce4e 4cc0
000001f0: 5428 1640 86f1 92be 32fe 8cbf 20e2 5abf
00000200: b1b4 24bc 0d5a 3340 dce7 fabf 3bc0 6bbf
00000210: 5b82 4040 9b77 8fbf 4ff0 78bf 8604 2c3f
00000220: 4dd8 bd3f ba32 00bf 5867 a7bf 397d ffbf
00000230: 2f33 a9be 6516 61bf 428a 1340 6352 8a3f
00000240: 2226 2fbf 4d47 953e 8b20 31bf 3e36 1bc0
00000250: 35fe 7a40 f55e 993e dce7 2540 8b99 8240
00000260: dc70 943f f046 cebf 7fb7 ddbf 02e6 7c3e
00000270: 5512 25bf fafa 813e f697 fbbd 5542 e0bf
00000280: 10f9 933d 4654 9cbd 9d0a 74bf 0abc 893e
00000290: 820e 84be 4063 28bd d5b5 b9be dada bcbc
000002a0: 22fc 01be a659 cdbf 4e63 32bf 98de 12c0
000002b0: 8f5d 0bbe 29e3 3b3e 1066 6ebf bd66 0c40
000002c0: 56aa fe3e f936 08c0 86fd 63bf 0667 563e
000002d0: d7eb b83f 0ecd a9c0 6063 9bbf 169b cf3f
000002e0: 04d0 4840 18a5 4a3f c9b5 ab3e d4d6 ce3f
000002f0: 6f1e 703e 8296 963f 212a 9540 f261 2a3f

fc_1.bias f4 [64]
0.9892049 0.0048663705 -1.0879499 -0.46704867 -1.1424829 1.0062804 -0.11013817 -0.39955348
0.89419216 -1.3212979 -3.0728939 0.64651567 -2.0143485 -1.0995631 -0.19914359 -0.44722942
0.62258595 -2.410845 -4.19155 -0.79608303 -1.7230052 -0.80388993 -1.0438428 0.8382255
0.7800488 0.7319469 0.053349394 -1.6902578 -0.33571303 -2.0808527 -1.5140048 -1.6449603
-3.0602915 1.1913527 0.26366305 -1.1022425 -1.3899047 -0.40775564 1.0680189 1.9297585
-0.83984447 -2.975242 1.0365204 -2.3925793 -3.2238317 0.98974377 -0.18520775 -0.98510647
-0.51968366 -1.6636611 -1.3778747 -0.12039727 0.6032625 0.34868842 1.6090617 -0.6379454
-0.41258714 0.86244416 1.4192059 -0.41821456 -1.9522278 -1.023915 -0.39691767 -1.6975827
00000000: 883c 7d3f 1376 9f3b f141 8bbf 0121 efbe
00000010: e13c 92bf cccd 803f 1f90 e1bd 4692 ccbe
00000020: c7e9 643f 4a20 a9bf 4baa 44c0 0d82 253f
00000030: 16eb 00c0 7cbe 8cbf 4cec 4bbe 41fb e4be
00000040: cb61 1f3f 494b 1ac0 2d21 86c0 19cc 4bbf
00000050: 6f8b dcbf bbcb 4dbf a49c 85bf f295 563f
00000060: 47b1 473f df60 3b3f e584 5a3d 5e5a d8bf
00000070: 94e2 abbe b12c 05c0 e9ca c1bf 0f8e d2bf
00000080: d1db 43c0 3f7e 983f d8fe 863e 4816 8dbf
00000090: 66e8 b1bf 59c5 d0be d8b4 883f 5402 f73f
000000a0: 0c00 57bf 5d6a 3ec0 b3ac 843f 0520 19c0
000000b0: 4253 4ec0 d95f 7d3f 1aa7 3dbe f02f 7cbf
000000c0: fd09 05bf d9f2 d4bf 335e b0bf d892 f6bd
000000d0: 696f 1a3f 4a87 b23e bcf5 cd3f 6450 23bf
000000e0: 9f3e d3be 24c9 5c3f 8aa8 b53f 3820 d6be
000000f0: 9ae2 f9bf a60f 83bf cb38 cbbe 644a d9bf

fc_2.weight f4 [32, 64]
-0.8437626 -0.33466852 0.25580826 -0.6531672 0.46343744 -0.08524252 -1.4971583 0.56494987
-1.2115849 1.4105709 0.837054 -0.27780542 -4.7391896 -0.5338128 0.8588214 0.24207433
0.030811597 -2.6669226 3.1846151 1.5995021 0.8981104 -1.737642 -0.17875113 0.4277479
-0.8446261 -1.1184372 0.1812689 -1.6853982 0.59476364 0.52907676 1.4897212 -0.6355956
-5.023561 0.20201896 -1.0527301 -0.47389385 -0.48438445 0.5734246 0.037544288 -0.88901323
-0.8972097 0.3200112 -0.107813776 -0.80225194 0.40081745 -2.0150125 -0.090477385 1.013394
0.50408995 1.8647023 -2.001995 -1.7780826 0.6864327 -0.87066084 -0.534281 0.40659407
0.40482548 0.6889339 -1.017712 -1.1272742 -0.53307045 -0.8919754 -0.067070976 -0.4303503
0.8875111 -0.21057442 -0.969698 -0.12773609 -3.5618703 0.6742662 0.20774208 0.5954774
-1.6003021 -1.1607733 -2.5081635 0.60976154 0.7468719 -1.224911 -1.0059072 -0.13829607
0.5265618 0.4474041 -5.031389 -1.0997415 0.39376903 -2.1086767 -0.15406433 -0.10122268
1.2712004 0.7633948 -0.59470105 3.8915744 -1.0361388 0.3886463 -0.52564394 -2.2691867
1.6676064 1.0131693 -0.28487018 0.047943484 0.5619844 -0.17043725 0.5492857 1.1236836
0.33009443 -1.9172096 0.4835214 -2.4966185 -15.951363 0.3998237 0.048097465 -2.0080025
0.3746375 0.5912394 -0.41875026 2.1597414 0.52868366 0.12919407 1.0221236 0.23952587
-0.5269992 0.34742376 1.0642581 1.5078305 0.43770462 -0.52864987 0.24703394 1.1475651
1.0404248 -0.7806774 0.04122076 -0.2133201 -1.2943771 0.25381768 -0.30213156 -0.15679207
1.1325325 -0.9811896 0.40798312 0.40523204 -0.13616487 -0.047898993 -0.32248488 0.34156227
0.5961556 1.0695852 0.669436 -1.034825 -0.56254405 1.595437 -0.16682532 -0.45342535
0.7075519 0.6090184 -0.109335266 0.7105406 -1.0047514 0.32146147 -1.3790295 -0.23810834
1.5764884 0.93773293 1.2799046 0.5098739 -0.912929 -0.22236139 0.0042960555 0.9075891
0.52879035 -0.040838346 0.095120445 -1.6279773 -3.677745 0.0545183 -1.0335971 -1.2239819
-0.6224923 -0.3783604 0.91830415 0.64404863 0.30119592 0.58149457 1.0618387 -0.22649834
-1.2105106 -0.56430376 1.1003968 0.32260156 0.71845037 0.01963542 0.14875557 0.26158303
1.0737 0.5365539 0.3236361 -0.3881537 1.7800298 -1.3549098 0.0033267955 -0.85628426
1.8567142 -1.8724705 -10.759894 -5.741794 3.2912645 -0.5928585 -2.3367176 -2.0085754
0.3764693 1.1248416 3.6870177 -2.2655632 -2.808603 -1.8011082 -0.36117974 -1.0065165
0.24091473 1.0764879 1.5139629 -9.022742 0.23504591 0.69598573 1.4521343 -6.797368
-2.3308914 0.3144252 0.2970182 -5.3915195 1.3571463 -4.273959 0.070449635 -2.955526
-4.847197 -1.1210728 -0.83408815 -4.3240557 -1.6720961 0.8898318 -0.43803358 2.317703
1.1225051 -4.764148 2.6751149 0.80126864 0.4816422 -0.3191781 -0.03334917 -0.04658664
-0.08573826 0.38643163 -0.8567078 1.402625 -7.7275057 -5.5573087 0.37419385 -2.6892874
00000000: d300 58bf ac59 abbe 4df9 823e f735 27bf
00000010: ac47 ed3e a193 aebd e2a2 bfbf 8ea0 103f
00000020: 3715 9bbf 968d b43f 2c49 563f 833c 8ebe
00000030: 71a7 97c0 f5a7 08bf b8db 5b3f 55e2 773e
00000040: 9a68 fc3c dcae 2ac0 bcd0 4b40 7cbc cc3f
00000050: 90ea 653f 0e6b debf 890a 37be c601 db3e
00000060: 6b39 58bf f328 8fbf 8e9e 393e 21bb d7bf
00000070: 6e42 183f 9371 073f 2faf be3f 65b6 22bf
00000080: 03c1 a0c0 0fde 4e3e dcbf 86bf 37a2 f2be
00000090: 3d01 f8be f4cb 123f 0ac8 193d 5f96 63bf
000000a0: 89af 65bf 82d8 a33e 78cd dcbd 6260 4dbf
000000b0: f237 cd3e f7f5 00c0 354c b9bd e5b6 813f
000000c0: 0a0c 013f 91ae ee3f b020 00c0 3698 e3bf
000000d0: 0eba 2f3f a1e3 5ebf a4c6 08bf 192d d03e
000000e0: 4945 cf3e f95d 303f 6344 82bf 854a 90bf
000000f0: 4e77 08bf 8058 64bf 825c 89bd e056 dcbe
00000100: ed33 633f d2a0 57be 213e 78bf 40cd 02be
00000110: aff5 63c0 b69c 2c3f 57ba 543e 3571 183f
00000120: b3d6 ccbf 3894 94bf c085 20c0 5519 1c3f
00000130: ff32 3f3f e2c9 9cbf 91c1 80bf 7c9d 0dbe
00000140: c1cc 063f 2612 e53e 2401 a1c0 54c4 8cbf
00000150: 189c c93e 8ff4 06c0 0ac3 1dbe d64d cfbd
00000160: b2b6 a23f d76d 433f 543e 18bf 8e0f 7940
00000170: 32a0 84bf a6fc c63e 9a90 06bf 5b3a 11c0
00000180: 2074 d53f 88af 813f 81da 91be 6360 443d
00000190: 36de 0f3f 1a87 2ebe fd9d 0c3f ddd4 8f3f
000001a0: 2302 a93e 2067 f5bf 1e90 f73e 99c8 1fc0
000001b0: c838 7fc1 b1b5 cc3e d901 453d 1d83 00c0
000001c0: 7dd0 bf3e 775b 173f 6f66 d6be 3439 0a40
000001d0: d057 073f 734b 043e f2d4 823f 4546 753e
000001e0: 6be9 06bf 87e1 b13e 9c39 883f 9700 c13f
000001f0: d21a e03e 9955 07bf 77f6 7c3e 6ae3 923f
00000200: a42c 853f 79da 47bf 1ad7 283d 9670 5abe
00000210: 26ae a5bf 64f4 813e fdb0 9abe 1a8e 20be
00000220: d3f6 903f 3e2f 7bbf 2ae3 d03e 937a cf3e
00000230: ce6e 0bbe bc31 44bd bd1c a5be 40e1 ae3e
00000240: a79d 183f 2be8 883f 2860 2b3f 2575 84bf
00000250: e302 10bf 4837 cc3f 42d4 2abe 5e27 e8be
00000260: 1f22 353f a1e8 1b3f 2beb dfbd fde5 353f
00000270: b29b 80bf 9996 a43e 0a84 b0bf acd2 73be
00000280: 5fca c93f 440f 703f ead3 a33f 1987 023f
00000290: b7b5 69bf b4b2 63be edc5 8c3b c257 683f
000002a0: ce5e 073f 1c46 27bd 82ce c23d 8f61 d0bf
000002b0: 2d60 6bc0 954e 5f3d e94c 84bf 70ab 9cbf
000002c0: a85b 1fbf 74b8 c1be fb15 6b3f 5fe0 243f
000002d0: 5a36 9a3e d4dc 143f 55ea 873f 2eef 67be
000002e0: 03f2 9abf 3676 10bf cdd9 8c3f 082c a53e
000002f0: 5dec 373f 76da a03c 6153 183e 36ee 853e
00000300: 006f 893f 995b 093f a2b3 a53e 15bc c6be
00000310: 04d8 e33f af6d adbf 5e06 5a3b 7235 5bbf
00000320: d0a8 ed3f 1dad efbf 8728 2cc1 c7bc b7c0
00000330: 14a4 5240 93c5 17bf c88c 15c0 808c 00c0
00000340: 96c0 c03e cffa 8f3f 19f8 6b40 fdfe 10c0
00000350: 27c0 33c0 b78a e6bf 8dec b8be 88d5 80bf
00000360: 5ab2 763e 5bca 893f 89c9 c13f 275d 10c1
00000370: e0af 703e 1f2c 323f 89df b93f 0a84 d9c0
00000380: 532d 15c0 57fc a03e c512 983e 5487 acc0
00000390: f8b6 ad3f 46c4 88c0 e647 903d 5727 3dc0
000003a0: 3d1c 9bc0 507f 8fbf cd86 55bf aa5e 8ac0
000003b0: 3f07 d6bf 04cc 633f f045 e0be 3f55 1440
000003c0: 3fae 8f3f e773 98c0 1535 2b40 f11f 4d3f
000003d0: ce99 f63e 506b a3be 2499 08bd a2d1 3ebd
000003e0: 8a97 afbd 5eda c53e 3451 5bbf 3789 b33f
000003f0: ba47 f7c0 79d5 b1c0 5696 bf3e 491d 2cc0

fc_2.bias f4 [32]
-2.3682208 1.544618 2.1703885 2.2612538 -0.35666668 0.9697856 -1.0078429 -0.28811872
-2.3585804 0.85718113 -2.4728444 0.14085256 -0.6038908 1.41612 -0.044308446 0.029085092
0.31052962 -2.7278218 0.4361001 -2.343154 1.2272106 2.1662755 0.34290454 2.0090954
-0.03554018 0.11403164 -2.4419463 -0.5250741 0.5092942 1.7238201 0.666822 0.766616
00000000: ee90 17c0 0bb6 c53f a5e7 0a40 62b8 1040
00000010: 049d b6be de43 783f ff00 81bf 4c84 93be
00000020: fbf2 16c0 3970 5b3f 1543 1ec0 a73b 103e
00000030: 9698 1abf 6c43 b53f c67c 35bd dc43 ee3c
00000040: bdfd 9e3e a294 2ec0 8348 df3e 3cf6 15c0
00000050: 3d15 9d3f 42a4 0a40 2f91 af3e 0595 0040
00000060: 9492 11bd 6c89 e93d d948 1cc0 426b 06bf
00000070: 1b61 023f 23a6 dc3f d9b4 2a3f f240 443f

fc_out.weight f4 [9, 32]
0.11473994 -1.8052406 -0.8263939 7.4872327 3.5695617 -1.4456564 0.111122 1.4000742
0.3911305 -0.7702991 -0.4810236 -1.6274889 -0.17865798 -0.0012022986 -0.4242404 -0.6640882
4.4251018 -0.120531715 -0.47327366 0.059710372 -1.7500743 -1.4458345 -0.3548469 -1.3633195
-0.5431358 -2.3351612 0.30339596 0.39644995 -0.763547 -3.9031785 -1.5047514 -1.1048168
-0.12767117 -1.5563716 -0.87035835 6.3582487 1.3741453 -1.4685806 -0.40783846 1.3368359
0.3516389 -0.76225126 -0.20777027 -1.6379188 -0.2597047 -0.17949837 -0.3443569 -0.77251726
3.6529636 -0.0067976224 -0.56776917 0.111255564 -1.6786515 -1.3400837 0.27533564 -1.4296545
-0.46174708 -2.2285724 -0.36598286 0.3523953 -0.70255846 -2.511263 -1.464661 -1.2293062
0.31056067 -1.5166973 -0.937628 6.22875 1.2829523 -1.4771084 0.22155152 1.4116278
0.14439031 -0.7802888 -0.2215149 -1.6653194 -0.20655212 -0.21065031 -0.28707916 -0.97533464
3.691967 -0.083598204 -0.59985876 0.34285706 -1.661578 -1.121405 -0.10936843 -1.6016148
-0.4494367 -2.2083924 -0.51219773 0.23797736 -0.7464743 -2.3875785 -1.4102743 -1.2150097
0.632243 -1.2434248 -0.9140204 4.5344195 1.0838448 -1.3808963 0.5553188 1.7087198
-0.18553361 -0.7223931 0.5893518 -1.9884884 -0.12167323 -0.45406443 -0.45044142 -0.6059351
2.5262423 0.3848129 -0.6195855 -0.25573596 -1.5714637 -0.9458278 0.5149005 -1.7442015
-0.44572073 -2.4199462 0.12674831 -0.0113249365 -0.7703442 -0.41624117 -1.4274904 -1.2488216
0.94732887 -0.9173094 -0.8976468 2.718571 0.18968111 -1.362545 0.7492123 1.9212942
0.6710573 -0.7682949 0.5972815 -2.2397761 -0.013006172 -0.8239622 -0.48257896 -0.4990339
1.4604155 0.7921651 -0.7296383 0.8627573 -1.5298651 -0.72212505 1.008542 -1.9444904
-0.435749 -2.482567 0.4796111 -0.1393042 -0.70293325 1.5380416 -1.4114366 -1.3485051
0.7072133 -0.5096015 -0.86001164 -0.06902574 -0.77475727 -1.2526294 0.3331 2.2846773
0.78013027 -0.73388386 1.565382 -2.501772 -0.045879707 -1.0873665 -0.50093997 -0.35520273
-0.070252456 1.5351528 -0.9081409 2.0833006 -1.4398246 -0.36438358 1.6714984 -2.2216716
-0.45672357 -2.6254733 0.547565 -0.42878017 -0.7682638 4.4917784 -1.3052791 -1.3147315
0.38059163 -0.27953768 -0.7864795 -2.1286206 -1.2283397 -1.1761539 -0.76544183 2.5671215
1.4294797 -0.73012847 2.2040007 -2.7318704 0.04600857 -1.3036846 -0.5439706 0.029138422
-1.2839286 2.7545676 -0.98317146 2.6092072 -1.3926512 -0.114340514 2.016033 -2.4359725
-0.5871894 -2.8360183 0.12900549 -0.5918001 -0.75633293 6.7310157 -1.329433 -1.4142454
1.4268318 -0.10465232 -0.7508863 -3.122018 -1.3833913 -1.1474048 0.043476317 2.7058618
2.1565237 -0.7389728 1.6516883 -2.8406842 0.12583944 -1.4683187 -0.5020244 0.06979027
-1.6579894 2.5117917 -1.0152309 2.1035972 -1.345712 -0.06020347 2.3406162 -2.4637258
-0.50138444 -2.809126 1.6650193 -0.57968324 -0.78252286 7.635151 -1.2373646 -1.5821636
00000000: c6fc ea3d 2012 e7bf 8d8e 53bf 6997 ef40
00000010: b373 6440 450b b9bf ee93 e33d a235 b33f
00000020: 4242 c83e 5232 45bf ba48 f6be 8e51 d0bf
00000030: 1ef2 36be 7296 9dba 0a36 d9be af01 2abf
00000040: 6f9a 8d40 55d9 f6bd ed50 f2be dd92 743d
00000050: 6f02 e0bf 1b11 b9bf 7eae b5be 4181 aebf
00000060: f30a 0bbf 4873 15c0 b756 9b3e 7dfb ca3e
00000070: d177 43bf adcd 79c0 b29b c0bf a36a 8dbf
00000080: 3bbc 02be 2f37 c7bf cecf 5ebf c676 cb40
00000090: fee3 af3f 73fa bbbf 34d0 d0be 701d ab3f
000000a0: 040a b43e e622 43bf bbc1 54be 53a7 d1bf
000000b0: 04f8 84be 6cce 37be 8c4f b0be b1c3 45bf
000000c0: 28ca 6940 97be debb 5259 11bf f5d9 e33d
000000d0: 0dde d6bf dd87 abbf cbf8 8c3e ebfe b6bf
000000e0: 1d6a ecbe eea0 0ec0 1b62 bbbe 286d b43e
000000f0: dfda 33bf 88b8 20c0 037a bbbf e859 9dbf
00000100: cf01 9f3e 2323 c2bf 6308 70bf ec51 c740
00000110: c837 a43f e311 bdbf 67de 623e 38b0 b43f
00000120: 0edb 133e 02c1 47bf cdd4 62be 3029 d5bf
00000130: 6682 53be b7b4 57be 0afc 92be 88af 79bf
00000140: 3049 6c40 8935 abbd 5890 19bf f68a af3e
00000150: 97ae d4bf 338a 8fbf 8efc dfbd b701 cdbf
00000160: 911c e6be 4d56 0dc0 641f 03bf 56b0 733e
00000170: f118 3fbf 16ce 18c0 de83 b4bf 7085 9bbf
00000180: adda 213f 8b28 9fbf 3efd 69bf f719 9140
00000190: 6dbb 8a3f 36c1 b0bf 5f29 0e3f 55b7 da3f
000001a0: 86fc 3dbe c1ee 38bf c2df 163f ca86 febf
000001b0: d02f f9bd 227b e8be 42a0 e6be 901e 1bbf
000001c0: f4ad 2140 3206 c53e 289d 1ebf d3ef 82be
000001d0: b925 c9bf c521 72bf 85d0 033f ff41 dfbf
000001e0: 8235 e4be 66e0 1ac0 4fca 013e 3a8c 39bc
000001f0: 4735 45bf 901d d5be 01b8 b6bf 63d9 9fbf
00000200: 2584 723f cad4 6abf 2ecc 65bf 11fd 2d40
00000210: c43b 423e e067 aebf 61cc 3f3f f8ec f53f
00000220: 69ca 2b3f f9ae 44bf 71e7 183f 7e58 0fc0
00000230: d717 55bc 30ef 52bf 9714 f7be 5f81 ffbe
00000240: e5ee ba3f 55cb 4a3f 93c9 3abf aadd 5c3f
00000250: 9fd2 c3bf 30dd 38bf e717 813f 10e5 f8bf
00000260: 7e1a dfbe 61e2 1ec0 968f f53e c3a5 0ebe
00000270: 6ff3 33bf 8cde c43f f4a9 b4bf d19b acbf
00000280: ee0b 353f 3e75 02bf b929 5cbf 5e5d 8dbd
00000290: 7e56 46bf 2956 a0bf 158c aa3e 2738 1240
000002a0: 9eb6 473f d0df 3bbf 705e c83f 081d 20c0
000002b0: 5cec 3bbd d32e 8bbf 9a3d 00bf 22dd b5be
000002c0: 85e0 8fbd e37f c43f ec7b 68bf cc54 0540
000002d0: 2c4c b8bf 7c90 babe a9f3 d53f de2f 0ec0
000002e0: acd7 e9be c107 28c0 382d 0c3f 1389 dbbe
000002f0: f0ac 44bf a6bc 8f40 6313 a7bf 1f49 a8bf
00000300: e8dc c23e 901f 8fbe b856 49bf 523b 08c0
00000310: 3c3a 9dbf 368c 96bf fff3 43bf b84b 2440
00000320: 31f9 b63f b3e9 3abf 590e 0d40 f7d6 2ec0
00000330: 7b73 3c3d 23df a6bf a841 0bbf b3b3 ee3c
00000340: c657 a4bf d64a 3040 20b1 7bbf 40fd 2640
00000350: 6542 b2bf 5c2b eabd af06 0140 f9e6 1bc0
00000360: 0b52 16bf 5381 35c0 041a 043e 3680 17bf
00000370: 099f 41bf 7b64 d740 dc2a aabf fe05 b5bf
00000380: 6da2 b63f f553 d6bd 163a 40bf 25cf 47c0
00000390: f712 b1bf 29de 92bf 3914 323d d72c 2d40
000003a0: 7c04 0a40 522d 3dbf 866a d33f c5cd 35c0
000003b0: 0edc 003e def1 bbbf ac84 00bf 33ee 8e3d
000003c0: ff38 d4bf 32c1 2040 16f3 81bf 56a1 0640
000003d0: 4a40 acbf ea97 76bd a8cc 1540 afad 1dc0
000003e0: bb5a 00bf b8c8 33c0 5a1f d53f 1f66 14bf
000003f0: 6b53 48bf 2853 f440 f761 9ebf 5684 cabf

fc_out.bias f4 [9]
-2.067675 -2.8075757 -1.6501184 -1.8591605 -1.8054386 -1.7480959 -2.3291173 -3.1263223
-3.8926132
00000000: ca54 04c0 52af 33c0 1437 d3bf f9f8 edbf
00000010: 9d18 e7bf 9bc1 dfbf 4210 15c0 aa15 48c0
00000020: 9320 79c0
