Pendulum_DQN/saved_model/0404/DQN_Q_EP0.pt (torch, 12311 bytes, 6 tensors)

fc_1.weight f4 [64, 3]
000000 1b ab 84 be e0 34 2a be fc 48 9d 3e 22 e5 5d be
       -0.25911793 -0.16621733 0.30719745 -0.21669438
000010 e8 c9 c5 3c 0a a4 4b 3e e8 93 45 3e 21 c1 04 3e
       0.024144128 0.19886795 0.19294703 0.12964298
000020 a0 e3 0a bf f5 29 c8 be 84 da 04 bf 59 70 09 bf
       -0.5425358 -0.3909451 -0.5189593 -0.53687054
000030 1f 27 f7 3e 60 c2 08 3d 84 72 7f be b8 f0 a6 be
       0.48272035 0.033388495 -0.24946028 -0.3260553
000040 5b ab f2 be 35 b3 d0 be 76 e3 f6 be 58 c3 8e be
       -0.4739636 -0.40761724 -0.48220414 -0.2788341
000050 0e b6 d6 3a ff 68 72 3e 3e a9 07 3f 4d ba af bd
       0.0016381161 0.23672865 0.5299262 -0.08580456
000060 72 77 12 3f 8b cc ae 3c 3c 40 06 3e 3b 81 10 be
       0.5721351 0.021337768 0.13110441 -0.14111798
000070 b4 33 08 bf 60 84 b1 3e 88 51 b9 3e 38 e1 8a be
       -0.5320389 0.34671307 0.36195016 -0.27124953
000080 42 22 0c 3f fc c1 f4 bd 0f 0d 02 3f d3 90 13 3f
       0.54739773 -0.11951062 0.50801176 0.5764286
000090 18 51 ce 3e dc 1f ad 3c 6f 0e 4a 3e b1 52 9e 3e
       0.40296245 0.021133356 0.19732068 0.30922464
0000a0 ce 61 49 be 75 80 c3 3e cb 27 a5 3e 99 9c 13 3f
       -0.19666216 0.38183942 0.32256922 0.57660824
0000b0 81 8f ae be 41 66 0a 3c 72 cb 35 be ff eb 38 be
       -0.3409386 0.008447231 -0.1775339 -0.18058775
0000c0 fa 74 8c bd 86 5d bf be cf cf 7c bd 73 c9 88 3e
       -0.06858249 -0.3737604 -0.06172162 0.26716194
0000d0 41 f9 1b bc 54 9e 02 bf 56 84 ac 3d 37 60 43 3e
       -0.009519876 -0.5102284 0.084236786 0.19079672
0000e0 94 a2 7c be f9 d6 bd 3e e9 71 24 be bf 01 84 3e
       -0.24671394 0.37078074 -0.16059078 0.25782582
0000f0 e3 a1 dd 3e 14 8f cd be aa 25 0d 3e 85 43 20 be
       0.43287572 -0.40148222 0.13783899 -0.15650757
000100 2c 49 8c be 76 67 fb be 67 a6 be 3e 5d 42 f8 3e
       -0.27399576 -0.49102372 0.3723633 0.4848813
000110 02 c1 e4 3e c6 fa 07 bf 3a e5 0c bf e3 d5 c5 3e
       0.44678503 -0.53117025 -0.5503727 0.38639745
000120 4f 4e 38 3e af e6 2e 3e e0 10 92 3e 83 37 87 3e
       0.17998622 0.17080186 0.285285 0.2640954
000130 25 75 15 3d 5a 8e a0 3e 17 f3 01 3f e9 ee 02 bf
       0.03648867 0.31358606 0.5076155 -0.511458
000140 54 92 38 3e c2 a6 3f be 35 61 92 3d 52 9f fc be
       0.1802457 -0.18715957 0.07147447 -0.49340302
000150 dd ce 0c bf ff 89 3c 3e 05 32 a2 bd bc 2a 57 3e
       -0.5500315 0.18412016 -0.07919697 0.21012396
000160 bc 8f 01 3f a8 9a a5 be ca 48 09 bf 07 27 b5 3e
       0.50609946 -0.32344556 -0.5362669 0.35381338
000170 9c 2c 56 be 13 a1 72 3e bf 31 04 be a3 5d 2e 3e
       -0.20915455 0.23694257 -0.12909602 0.17027907
000180 42 5b 63 3d 0e fb 85 be 65 a7 8b be d0 96 c5 3c
       0.055506952 -0.26168102 -0.2727615 0.024119765
000190 88 c2 98 bc 40 29 9f be 61 52 10 3f 2c f0 12 3e
       -0.018647447 -0.3108616 0.563757 0.14349431
0001a0 e7 d4 dc be 5c 0b 06 bf 4f 7d f6 3e 8c cf 11 bf
       -0.43131182 -0.52361083 0.48142478 -0.56957316
0001b0 26 13 93 be e8 fc 57 bd b8 a4 dd 3d b7 fc eb 3e
       -0.28725547 -0.052731425 0.10822433 0.46091244
0001c0 f1 a8 b4 be 8a b9 02 3f 23 dc 06 bf aa 89 f6 be
       -0.35285142 0.5106436 -0.5267965 -0.48151904
0001d0 a4 38 c4 be 87 89 0e bf 42 b4 8b be bf 1c ad 3e
       -0.38324463 -0.556786 -0.27285963 0.33810994
0001e0 e9 64 19 bd f2 75 e8 3e b5 9b 13 3f 20 a0 98 be
       -0.03744975 0.45402485 0.57659465 -0.29809666
0001f0 00 4d 91 3e 8d da 06 3f e6 92 98 ba 88 8a a8 be
       0.2837906 0.5267723 -0.0011640459 -0.3291819
000200 fc 93 03 3e 3a 33 92 be ba a7 d2 3e a0 b2 03 bf
       0.1284942 -0.28554708 0.4114359 -0.51444435
000210 f7 01 86 3e d7 82 63 3e 21 c7 2b be cd ba 57 3d
       0.26173374 0.2221788 -0.1677518 0.05266838
000220 23 b0 24 3e 6d 72 e7 3c 36 b0 d8 bd 6b 48 df bc
       0.16082816 0.028252805 -0.105804846 -0.027256211
000230 c7 05 39 3e 79 06 60 3e fe 5e 7e be 8a c1 9b 3d
       0.1806861 0.21877469 -0.24840924 0.07605274
000240 62 20 5e bb 8e 99 c9 bd 81 8d 60 3e e6 01 93 3e
       -0.0033893813 -0.09843741 0.2192898 0.28712386
000250 fc 3b 8d bd 44 94 0b 3f 85 40 8a 3e 7c 5b 09 bf
       -0.06896207 0.5452311 0.2700235 -0.5365522
000260 95 b5 85 3e 24 5c fc be 75 0d c7 be 3d 10 7c be
       0.261151 -0.49289048 -0.38877454 -0.2461557
000270 38 4d a2 be 25 0a 00 3f 3b af 92 be 6b 7f 52 3d
       -0.31699538 0.5001548 -0.28649315 0.051391046
000280 87 0a fb be a5 e9 7c be b3 c2 ed be 01 81 8c 3e
       -0.4903147 -0.24698503 -0.46437606 0.27442172
000290 c1 2a a8 be d7 02 8a be b9 16 b9 be b2 90 03 3f
       -0.3284512 -0.26955292 -0.3615015 0.5139266
0002a0 8a f7 e3 bd 3f f2 73 bc 60 be f2 3d d9 90 d4 be
       -0.11131199 -0.014889299 0.118527174 -0.4151676
0002b0 eb f7 32 bc 2c 4a b4 3d 2b 12 0e bf 0d 28 d5 3e
       -0.010923366 0.0880321 -0.5549647 0.4163212
0002c0 f2 21 b1 3e 99 3f ed be 22 5e d3 bd 9c 8a 0d 3e
       0.3459621 -0.46337584 -0.10320689 0.13822407
0002d0 5a 3d 8b be 86 dd 02 bf 74 00 a9 be f7 51 8b be
       -0.27195245 -0.5111927 -0.33008158 -0.27210972
0002e0 f7 3c e6 3d 0a 78 ec 3e 95 c8 ba 3c fc 76 85 3e
       0.11242097 0.46185333 0.022800723 0.2606734
0002f0 82 36 9a 3e 0a d2 d7 bd c6 76 b4 bd e1 e9 07 3f
       0.3011971 -0.10538109 -0.08811717 0.53091246

fc_1.bias f4 [64]
000000 95 56 ad be 47 12 b3 be 90 23 cc be 3c ef ea be
       -0.3385512 -0.34974882 -0.39870882 -0.45885646
000010 8a bf 9b be 0f 19 af 3e 5d 41 a2 3e 83 11 8f bc
       -0.3041957 0.34198806 0.31690493 -0.017464405
000020 25 6c b0 3e 62 45 8b be 62 b7 1a 3b 9f b9 b4 be
       0.34457508 -0.27201372 0.002360784 -0.35297868
000030 c2 d2 55 be 87 00 dc 3e 68 cf 80 be 0b cb dd 3d
       -0.20881179 0.42969152 -0.25158238 0.10829743
000040 76 f5 12 3f 9e 85 92 3d ac 27 13 bf 8b 53 70 be
       0.57405794 0.07154392 -0.5748241 -0.23469369
000050 fd 22 04 3e 59 c5 84 be d8 96 c3 bd d1 5d c5 3e
       0.12903972 -0.25931814 -0.095502555 0.3854814
000060 2c cf d8 3e 63 30 fc 3e 2c 1e 95 be 6b 6a eb be
       0.4234556 0.49255666 -0.29124582 -0.45979628
000070 7c c1 ff 3e 96 bc c9 be b6 57 11 bf 93 e0 9a be
       0.49952304 -0.39401692 -0.5677446 -0.30249462
000080 66 25 12 be 24 02 b6 3e 92 45 7a 3d c6 50 ec be
       -0.14272079 0.35548508 0.061101504 -0.46155375
000090 59 20 06 bf 1b 6d 9f be b1 dd 9f 3e b2 a9 04 3f
       -0.5239311 -0.31137928 0.31223825 0.51821434
0000a0 8d 25 d4 be 30 80 7a be 88 f3 87 3e 3b 27 c7 be
       -0.414349 -0.24462962 0.26552987 -0.38897118
0000b0 25 6b c1 3d b5 76 6c 3e 32 84 19 3e a1 75 a9 3d
       0.09444264 0.23092158 0.14991835 0.08274389
0000c0 56 01 b1 3e 40 9a fd 3e ca 17 ef 3d c2 05 a6 3e
       0.34571332 0.49531746 0.11674459 0.32426268
0000d0 75 65 09 3e 60 b3 d7 3e 34 84 c7 3e 71 d3 9c 3e
       0.13417609 0.4212904 0.3896805 0.30630067
0000e0 57 ab 12 bf 1d 59 02 bc 14 3b 6f 3e 7d 02 a1 be
       -0.57292694 -0.007955817 0.2336238 -0.3144721
0000f0 f3 96 d4 be c8 6a ae be 92 66 e6 3e fe 2c f5 be
       -0.41521415 -0.34065843 0.4500013 -0.4788589

fc_2.weight f4 [32, 64]
000000 e2 ea 87 3d 12 d8 d5 bd bc 20 ed bd c0 c5 85 bd
       0.06636597 -0.10441603 -0.11578509 -0.065318584
000010 f0 1d 8e 3d 50 f4 43 bd b0 c6 1b 3c 00 06 f4 3c
       0.06939304 -0.047840416 0.00950782 0.029788017
000020 a4 8d 4d bd 46 b2 b2 bd 3c 4c 33 3d fc 60 c0 bd
       -0.050183907 -0.08725409 0.043773875 -0.09393498
000030 b0 ec 53 bc 00 15 00 bd e4 bb a6 3d 20 70 71 3c
       -0.012934849 -0.031270027 0.08141306 0.014736205
000040 22 88 dc bd 00 0b 44 ba 0a 85 a5 3d ee 81 ec 3d
       -0.10768153 -0.0007478446 0.08082016 0.115482196
000050 90 fe d3 3c 8c 14 54 3d 7c 42 b0 3d a4 6f 44 3d
       0.02587822 0.051777408 0.08606431 0.04795803
000060 64 45 c3 bd 10 88 17 3c 30 53 93 bc 98 a9 28 bd
       -0.095347196 0.009248748 -0.017984003 -0.041177362
000070 00 4e 6f 3d 44 b5 a8 bd f8 4e 57 bd 00 4c 6d 39
       0.058423996 -0.08237699 -0.052565545 0.00022630394
000080 f0 eb b3 3d c0 35 e4 bb a8 a8 23 bd b4 b2 d6 bd
       0.08785236 -0.0069644153 -0.039955765 -0.10483304
000090 e2 80 cc bd f8 70 8a 3c 38 ff 92 bd c8 b7 6f bd
       -0.0998552 0.01689957 -0.07177585 -0.058524877
0000a0 a8 62 9c 3c 20 50 0d bc 2a a7 b5 3d de d9 84 bd
       0.019090012 -0.00862506 0.08869775 -0.06486867
0000b0 12 f6 c6 3d 00 2c 0c 3d 3a 37 b5 bd b8 7b db 3d
       0.09714903 0.03422165 -0.08848424 0.10716957
0000c0 90 29 c6 bc b0 cb db bd 14 dc b6 bd 5e 3a d4 bd
       -0.02418974 -0.1073221 -0.08928695 -0.10362695
0000d0 d0 82 b8 3c ac 98 11 bd da 13 fd bd 00 1a 73 bd
       0.022523314 -0.03554599 -0.12357302 -0.059350967
0000e0 dc af 21 3d a0 03 8b bd 10 04 ad 3d e0 93 5c 3d
       0.039474353 -0.06787801 0.084480405 0.053851962
0000f0 78 b7 42 3d 0a 25 de bd 50 db b6 bd 4c 62 ef bd
       0.04753825 -0.108469084 -0.08928549 -0.116886705
000100 94 2b 1f 3d 8a 0e ad 3d 04 09 a2 bd c0 74 d0 3b
       0.03885992 0.08450039 -0.07911876 0.006361574
000110 1c ff f2 3d e6 90 e9 3d d0 34 33 3d bc 19 a7 3d
       0.118650645 0.1140459 0.043751538 0.08159205
000120 7c ec ef bd e8 29 a9 bd 0a 78 d3 bd 88 91 04 bd
       -0.11715028 -0.08259946 -0.1032563 -0.032365352
000130 f8 10 99 bd 3c 51 a4 3d 5a c2 95 bd c8 49 aa bd
       -0.0747394 0.08023307 -0.0731246 -0.08314854
000140 94 32 1f bd 08 16 55 3d 40 8d 12 3d 86 ee d7 bd
       -0.038866594 0.052022964 0.035779238 -0.105435416
000150 2c 22 dd bd e0 28 37 bc 00 20 90 b7 06 2b ee bd
       -0.107975334 -0.011179179 -1.7181039e-05 -0.116293
000160 ac 8f f5 3d c2 87 e8 bd 48 b5 bb bd 4c b7 06 bd
       0.11990294 -0.11354019 -0.09165436 -0.03288965
000170 7a 80 a8 3d 6c 38 cb bd f0 17 57 bd 7c bd 22 bd
       0.0822763 -0.09922871 -0.052513063 -0.039731488
000180 50 7f 21 bd 20 cd c3 bb 72 c0 c5 bd 64 2a 4b 3d
       -0.039428055 -0.0059753805 -0.09655847 0.049600974
000190 a8 67 c2 3d b0 82 27 bc c6 fe d9 3d 40 c1 f9 3b
       0.09492427 -0.010224029 0.10644297 0.007621914
0001a0 f0 4b 33 3d b2 80 f5 bd 48 de c6 3d f0 d3 bb 3d
       0.04377359 -0.11987437 0.097103655 0.09171283
0001b0 7a b9 82 bd 4c 2d 67 3d dc e1 f0 3d 5c 69 f3 3d
       -0.06383033 0.056439683 0.11761829 0.1188533
0001c0 a8 c5 7c 3d c8 30 02 bd c8 65 f4 bc dc 5e 8e bd
       0.061711937 -0.031784803 -0.02983369 -0.06951687
0001d0 e4 ec 2b 3d 50 e8 ea 3c b8 bb 6f 3d 68 25 4c 3d
       0.041973963 0.028675228 0.058528632 0.04984036
0001e0 46 32 9c 3d c0 ca 73 3b 68 39 27 3d 38 b5 cb bc
       0.076267764 0.0037199706 0.04082623 -0.024866685
0001f0 c2 17 f2 3d 84 86 1e bd 00 ae 9b 39 b4 b0 b7 3d
       0.11820938 -0.038702503 0.00029693544 0.0896925
000200 34 59 d0 3d 20 48 db 3c 9c e7 2a 3d d0 e4 46 3d
       0.10173264 0.02676779 0.041724786 0.048558056
000210 d6 70 c7 3d b0 0e 82 bd cc 9b 3a 3d 00 cc 8d 39
       0.097383186 -0.06350458 0.045558736 0.00027045608
000220 68 8b 6c bd 6a bb b0 bd 74 d8 3e 3d 0c 5a fe bd
       -0.057750136 -0.086294964 0.046593145 -0.12419519
000230 f4 5d c3 bd c8 c3 db bd 20 d2 b5 3d 78 3d d0 3c
       -0.095394045 -0.10730702 0.08877969 0.025419936
000240 44 ac 30 3d f0 94 f3 3c 28 cd 62 3d 40 d1 77 3b
       0.043133035 0.029734105 0.055371433 0.0037813932
000250 48 2b e4 3c 88 15 e5 bc c0 ed 07 bc 1a 60 e2 bd
       0.02785267 -0.027964368 -0.00829643 -0.11053486
000260 36 a9 b0 3d 9c 92 95 3d 40 b6 32 bd 48 6e 61 3d
       0.086260244 0.07303354 -0.04363084 0.055036813
000270 88 72 99 bd bc fd d8 3d f8 7e 64 bd 00 65 c6 3c
       -0.07492548 0.10595271 -0.05578515 0.024218082
000280 c8 6e b2 bd d0 75 ac 3d cc 4f 99 3d bc 19 12 3d
       -0.08712536 0.084209085 0.07485923 0.035669073
000290 9c 1b cb bd 00 34 7d 3a d4 a1 31 3d ee 0d e6 3d
       -0.099173754 0.00096589327 0.043367222 0.112331256
0002a0 20 93 bf bc fe c1 c4 bd 38 ff b2 3c f0 1e 2f bd
       -0.023385584 -0.096073136 0.021850213 -0.042754114
0002b0 b8 a1 72 bd 0c 19 e5 bd d0 db 70 bc 18 ba d5 3c
       -0.05923626 -0.11186418 -0.014700845 0.026089713
0002c0 70 a6 e2 bc da ba 90 3d b8 51 f7 3d 88 a7 db 3c
       -0.027667254 0.07066889 0.120761335 0.026813284
0002d0 d8 a7 88 bc 1e 5a ee 3d 58 d7 e9 3c d0 8f c8 bd
       -0.016681597 0.11638282 0.028545067 -0.09793055
0002e0 da 5b f5 3d 48 87 9b 3c 10 4b 8c 3c 24 f8 8d 3d
       0.1198041 0.018985406 0.017125636 0.06932095
0002f0 20 6d 14 3c 32 9a b9 bd 98 b7 8c 3d 2c e9 a2 bd
       0.009059221 -0.090626135 0.06870955 -0.0795463
000300 60 b4 a3 3d 28 20 c0 3c 8e ab fd 3d bc 9e 40 3d
       0.07993388 0.023452833 0.12386237 0.04702638
000310 ce 30 b8 3d fc a9 c8 bd a8 63 e4 3c 26 1a aa bd
       0.08993684 -0.09798047 0.027879551 -0.08305769
000320 ee 6c b6 3d b8 3d ce 3d 18 e2 aa bc fa ba 86 bd
       0.089074954 0.10070366 -0.020859763 -0.06578632
000330 d0 3a d5 3d aa b0 9f bd 36 f9 b4 bd 88 cd fc bc
       0.10411608 -0.07797368 -0.08836596 -0.030859724
000340 fe 40 ae 3d 0e b4 98 bd 14 f6 cf 3d f0 20 91 bd
       0.0850849 -0.07456218 0.101543576 -0.070863605
000350 6c 03 1a bd f0 35 77 bd 00 07 f5 bc f8 6c b9 bd
       -0.03760092 -0.060354173 -0.029910564 -0.09053987
000360 c8 71 c7 bc f6 d9 ef 3d cc 91 10 bd 38 f3 eb 3d
       -0.024346247 0.117114946 -0.035295293 0.11521
000370 9c 20 b7 bd d0 35 36 bd 12 34 9b bd 22 02 dd 3d
       -0.089417666 -0.044484913 -0.07578291 0.107914224
000380 46 7a b7 bd 6c c2 3c 3d 8c 99 5a bd 14 e9 b2 bd
       -0.08958869 0.046083853 -0.05336909 -0.087358624
000390 8c 35 fb 3d d4 cf ba 3d 9c e7 07 bd da 78 ee bd
       0.12266073 0.09121671 -0.033179864 -0.11644144
0003a0 80 a2 94 bd 84 08 32 3d fe b9 e5 bd 50 7d fc bc
       -0.07257557 0.043465152 -0.11217116 -0.030821472
0003b0 70 14 77 3c 18 04 ee 3d b0 f9 f7 bc 58 00 43 bd
       0.015080556 0.116218746 -0.030270427 -0.04760775
0003c0 f6 73 ba bd 98 61 aa 3c 7e 00 fc bd a8 90 de 3d
       -0.09104149 0.02079849 -0.123047814 0.10867435
0003d0 60 66 a0 3c 4a 6f 8a bd b0 71 6c 3d f0 8d 80 3d
       0.019580066 -0.06759508 0.05772561 0.062770724
0003e0 ba 2b db 3d b0 59 e0 bc 80 e2 c9 3d da 6e c0 bd
       0.107016996 -0.027386516 0.098576546 -0.09396143
0003f0 50 07 43 3c 0c 76 11 bd 00 41 a6 3d 84 ef 4c 3d
       0.011903599 -0.03551297 0.081178665 0.050033107

fc_2.bias f4 [32]
000000 c6 50 f7 3d f0 5e 67 3d 9a 55 86 3d 8a e7 86 3d
       0.12075953 0.056487024 0.06559296 0.06587131
000010 32 97 f8 3d dc 5b 2d bd 40 84 6e 3c b6 a1 a6 3d
       0.12138213 -0.042323932 0.014557898 0.08136313
000020 70 42 2b bc 28 57 55 bd f6 cd c1 bd 7c 6d 9b bd
       -0.010452852 -0.05208507 -0.09463112 -0.07589242
000030 5e b4 f0 bd b8 05 c1 bd 46 00 a4 3d d0 b9 5c 3c
       -0.11753152 -0.09424919 0.08007865 0.0134720355
000040 8e c6 da bd 38 a9 85 3c 48 ea ec bd d6 d1 f9 bd
       -0.106824026 0.016316041 -0.11568123 -0.12198226
000050 d4 75 59 3d 60 22 26 3d 94 44 71 3d 6c 46 7c bd
       0.053090885 0.040560126 0.05890329 -0.061590597
000060 9a d9 f8 bd a0 7f da bc 04 75 99 3d f8 e5 30 bd
       -0.12150879 -0.026672184 0.07493022 -0.043188065
000070 10 40 4e 3d c0 13 9e 3d 00 56 cb b9 7c 06 0e 3d
       0.050354064 0.07718611 -0.00038783252 0.034674153

fc_out.weight f4 [9, 32]
000000 08 8a 6d 3d 9f fc 85 bd 97 66 b6 bc 2e fe 2d bd
       0.057992965 -0.06542324 -0.022265716 -0.042478733
000010 8e 71 18 3d d7 52 29 bd aa 6c c3 3d 7f bd 2d 3e
       0.03721767 -0.041338768 0.095422104 0.16966818
000020 a2 30 03 3e 89 ff a5 bd d9 04 85 bc 4f 20 5a 3c
       0.1281152 -0.0810538 -0.016237663 0.013313367
000030 f7 44 91 bd a3 69 82 3d 89 8a 04 be a5 09 72 3c
       -0.07093232 0.06367805 -0.12943472 0.014772807
000040 4d 1d ce 3d 0e 31 21 be 89 40 9e bd d2 78 22 3e
       0.100641824 -0.15741369 -0.07727153 0.15866402
000050 54 c9 eb 3d 7f b5 d4 3c 6d cf 0e 3e ba 03 82 bd
       0.1151301 0.02596545 0.13946314 -0.06348367
000060 d5 e3 09 bb b8 da d6 3d f7 36 22 b9 42 41 6f 3d
       -0.002104034 0.10490936 -0.0001547 0.058411844
000070 ea 27 27 be 09 76 6d 3d 37 b0 04 be e1 89 dc 3d
       -0.1632382 0.057973895 -0.12957846 0.10768486
000080 f4 76 11 3e 7d e3 b1 bd 75 01 57 bd dd c9 96 3d
       0.14205533 -0.08685968 -0.052491624 0.07362721
000090 8b 14 2c 3e e3 5b ea 3c df f8 aa 3d a0 93 94 3b
       0.16804712 0.028608268 0.0834825 0.0045342
0000a0 87 61 2a bc 85 67 25 bd 57 d3 d2 bb 19 18 7a 3d
       -0.010399229 -0.040381927 -0.006433885 0.061058138
0000b0 1d 49 32 3e 23 a8 5b bc ed 32 3f 3d 84 1a ad bc
       0.17410703 -0.013406786 0.046679426 -0.021130808
0000c0 c4 3a 8d bc 72 9c d1 bd 5d 65 2c bb 1a ef dd 3d
       -0.017239936 -0.10234918 -0.0026305534 0.10836621
0000d0 26 2f 43 bd 5d b9 6d bd 2c 70 cd 3d 46 a0 7c 3d
       -0.047652386 -0.058038104 0.10031161 0.061676286
0000e0 85 cc b5 3d 2e 22 0c 3e d1 01 5a 3d 63 77 96 bd
       0.088769 0.13684914 0.05322439 -0.0734699
0000f0 a2 56 ca 3d d6 0e 51 3d fc 45 52 3d 7d 01 c4 bd
       0.09879805 0.05103954 0.051336274 -0.09570596
000100 e0 1d f4 3d ed 22 7e bd e4 80 1e be 99 3f ed 3d
       0.11919761 -0.062045027 -0.15478855 0.11584396
000110 0d 49 ab bd 3a a4 24 be a9 63 9d bd 83 a4 b5 3d
       -0.08363543 -0.16078272 -0.07685024 0.08869269
000120 69 14 95 bc 13 17 6f bc 11 fd e5 bc 27 33 9a bd
       -0.018198209 -0.014592904 -0.028074773 -0.07529288
000130 4b 30 14 be ae 29 b4 bd a0 ce cb bd 88 c0 db bc
       -0.14471547 -0.08797012 -0.0995152 -0.026825204
000140 a1 f4 c5 bd 23 d0 9b 3d 1b b7 ff 3d 34 7e 90 bd
       -0.096658 0.07608058 0.124860965 -0.07055321
000150 8c 8a 29 3e 9a a8 a4 3d f3 ea 25 3e 94 1d 82 bd
       0.16556758 0.08039971 0.16202907 -0.06353298
000160 e0 25 a0 3d 44 5f ed bd 2b f8 15 3e b6 ce 84 bc
       0.07819724 -0.11590436 0.1464545 -0.016211849
000170 ec 45 ff bd 48 bd 33 3e fd d3 c4 3d e5 77 42 bd
       -0.124645084 0.17552674 0.09610746 -0.04747762
000180 2e 5f 40 3d 97 db b7 3c c1 de 22 be fd 82 6c 3d
       0.04696577 0.022443576 -0.15905286 0.057742108
000190 02 c6 68 3d 40 e6 57 bd 6a 27 fe bc b2 72 09 bd
       0.05682946 -0.052709818 -0.031024653 -0.033556648
0001a0 ae 95 20 be 5f 37 1a 3e 78 a2 1e bc 43 e3 1d be
       -0.15682098 0.15060185 -0.00968229 -0.15418725
0001b0 15 ac 20 3e 05 8d 04 be 7c cf aa 3b f3 84 7e 3d
       0.15690644 -0.1294442 0.0052127223 0.06213851
0001c0 77 80 e9 3d d7 63 33 3e 03 db ec bd 5e e1 39 bc
       0.11401456 0.17518555 -0.11565211 -0.011345236
0001d0 36 ad 08 be 9d f0 0d be e8 54 1c 3e 01 99 e9 bd
       -0.13347325 -0.13861318 0.15266764 -0.11406136
0001e0 37 15 13 be 23 41 10 3e db 53 94 bc e8 f1 cc 3b
       -0.14363562 0.14087348 -0.018106392 0.0062544234
0001f0 00 fa 4b 3d 11 a3 15 3d 19 94 34 be ad df 5d bd
       0.049798965 0.036532465 -0.1763462 -0.054168392
000200 c9 b1 b2 bd 24 60 c0 bd 60 a0 de bd 4a 62 e5 3d
       -0.08725316 -0.09393337 -0.10870433 0.11200388
000210 af 08 07 3c 3e 73 26 be fe e3 30 be b5 a4 cf 3d
       0.008241816 -0.16254899 -0.17274472 0.10138837
000220 b6 af 4f 3c 09 b3 ba bd 05 0a 1e 3d 81 9c 0c 3e
       0.01267617 -0.091161795 0.038583774 0.13731577
000230 8e 14 c9 bd f2 fc f0 bc 4b e7 d6 bd 16 b7 97 bd
       -0.098183736 -0.029417489 -0.104933344 -0.07407968
000240 e3 dd 32 be 92 6f 27 3e 0f 06 c5 3c f3 0c 12 3e
       -0.17467456 0.16351154 0.02405074 0.14262752
000250 4d 32 e8 3d 4f e1 05 be 42 b5 be 3c 6d 5c e2 bd
       0.11337719 -0.1307423 0.02327979 -0.11052785
000260 8c ab af bc 77 da 2a be be 39 f8 3d 9e d9 f3 bd
       -0.021444105 -0.166849 0.121203884 -0.119067416
000270 d9 f3 55 bd a3 67 3d 3c e9 fe 35 bb 21 14 96 3d
       -0.052234504 0.011560353 -0.0027770346 0.07328058
000280 da f7 9a bd 7f df 8a bd 36 5e 09 bd fb 3a 30 3d
       -0.07566805 -0.0678091 -0.033537112 0.043025
000290 5b 42 2e 3e a2 cc a6 bc 21 74 2a 3e 8d b5 f6 3d
       0.170175 -0.020361248 0.16645862 0.12046347
0002a0 20 c8 26 bd 5c 1f 88 bd f4 d6 e0 3d ae fa 76 3d
       -0.040718198 -0.06646606 0.10978499 0.06029766
0002b0 72 4d 13 be 86 e8 27 3e 62 0e ec bd c0 fb d7 bd
       -0.14385012 0.16397294 -0.11526181 -0.105460644
0002c0 53 20 29 3e ac 0b 1b 3b 82 55 88 3d eb 95 15 3e
       0.16516237 0.002365808 0.06656934 0.1460797
0002d0 42 48 e3 3d 65 89 9d bd 94 58 a8 3d 74 a4 23 3e
       0.110977665 -0.076922216 0.0822002 0.15980703
0002e0 b5 7c 26 bd ac 6d 24 3e 90 ca af bd d0 f1 ae 3d
       -0.040646274 0.16057462 -0.085835576 0.08542216
0002f0 fe ef 94 bd 39 f8 d3 3d c6 3d b7 3d e9 54 9d bd
       -0.072723374 0.10350079 0.08947329 -0.07682211
000300 60 6c a4 3d a3 30 2b 3e 4a a0 01 3e a2 e9 aa bd
       0.080284834 0.16717772 0.12658802 -0.08345343
000310 ba cd 91 3d e8 96 bc 3d d7 53 5a 3c 9f 22 01 3e
       0.07119317 0.092084706 0.013325653 0.12610863
000320 1f 3b f0 3d 97 f7 ae 3d 2d 77 8e 3d e2 07 36 3d
       0.117300265 0.08543318 0.06956325 0.04444111
000330 cb 24 b9 3c aa 8f f0 bd 96 12 30 3e e4 46 31 be
       0.022600552 -0.11746152 0.1719459 -0.17312199
000340 74 22 06 bd fa 41 f7 bd e7 72 07 3d 6c 6a 25 3e
       -0.0327477 -0.12073131 0.033068564 0.16153878
000350 5d 4b 22 be 66 a3 04 3e 25 44 53 3d e5 70 d0 bd
       -0.15849061 0.12952957 0.05157866 -0.10177783
000360 ca 55 7b 3d e9 a9 ba 3d 40 38 01 3e 58 41 6b 3c
       0.06136111 0.09114439 0.12619114 0.014358841
000370 6c 5c 02 be a6 1f 4d bd 12 c2 e9 bd 17 dc 28 bd
       -0.12730569 -0.05007901 -0.11413969 -0.04122552
000380 c2 8a c4 bc a1 b5 e1 3c 37 f0 c0 3d 89 46 df 3d
       -0.023991946 0.027552428 0.09420817 0.109021254
000390 b3 80 b6 3d 58 ec eb bd 11 65 47 3c 76 f0 b3 3d
       0.08911266 -0.11519688 0.012170092 0.08786099
0003a0 de 4c 00 3d 72 3e 0d be 40 d3 ed bd 88 ac 0a be
       0.031323306 -0.13793352 -0.11612558 -0.13542378
0003b0 7a 33 d4 3a 3f 1b 24 bd 57 0f 86 3c 01 5b 83 3d
       0.0016189658 -0.040065046 0.016364736 0.06413842
0003c0 81 81 d8 3d be d6 30 3c 00 84 00 be 51 15 bf bd
       0.10571576 0.010793386 -0.12550354 -0.09330238
0003d0 c0 db ef bd d5 be f8 bd 79 59 fe bd fe 62 31 3d
       -0.11711836 -0.12145773 -0.12419409 0.043307297
0003e0 39 2f 01 be d3 51 f0 3d 9c e2 c1 3c 70 4e 5c bd
       -0.1261567 0.11734357 0.023667626 -0.05378574
0003f0 79 be 12 be 3a 5e b6 3d cd 39 a9 3d 56 ec 2a 3e
       -0.14330472 0.08904691 0.08262978 0.16691718

fc_out.bias f4 [9]
000000 41 69 a7 3c 5d be 98 bd c5 19 c3 bd 9c 05 f5 bd
       0.020435931 -0.07458184 -0.095263995 -0.119639605
000010 bb 52 d9 bd 58 29 74 3d 2e dc 45 3c 2e 15 9e 3c
       -0.10611483 0.05960974 0.012076421 0.019297209
000020 5e e8 cf 3d
       0.101517424
