Pendulum_DQN/saved_model/0404/DQN_Q_EP30.pt (torch, 12311 bytes, 6 tensors)

fc_1.weight f4 [64, 3]
0.43284276 2.67021 0.48455027 -0.873035 2.3988812 -0.504551 2.2465062 -2.609922
0.06367435 -0.31674373 -2.7700355 -0.13291979 1.9746537 -1.4059567 -0.5557506 -1.4080409
-1.3343148 -0.388905 -0.8974327 -0.334293 -0.053105544 -1.0235716 -1.8540536 -0.34559575
3.9590838 0.5318574 -0.36477488 -0.9509015 1.781602 0.62057877 1.4571565 1.3641008
0.535705 -0.16734421 2.786555 0.50449777 3.027399 0.91640997 0.25646216 1.669911
2.2653587 0.68242776 -0.10124953 -2.199363 -0.7247289 -0.89321303 -1.1352516 -0.32670233
-1.0808821 -0.74413973 -0.16199866 2.5565035 -2.0555685 0.29840487 1.101256 0.4998164
0.58421963 -0.32112616 1.9100964 0.45863023 -0.040421844 1.1614741 0.7763363 0.70600253
-2.6344945 -0.051012684 0.92551416 2.3649957 0.4733325 -1.2734311 0.2759186 0.27424723
-0.3499786 1.5532874 0.15578938 0.17276421 1.7019173 -0.075891994 -0.8249873 -1.6128004
0.5828012 1.4075526 -1.754081 -0.42203218 -0.8792255 1.6956737 -0.015292949 -0.18499759
-2.0924962 -0.62313765 -1.9438765 -1.1358062 0.0564394 1.5565513 1.6181896 0.5010506
0.7826914 -1.8749793 -0.22655681 -1.094435 -0.4316923 -0.25147882 0.53756386 -2.5116608
-0.2760205 0.9679499 -2.1514587 -0.45405167 -2.776443 -1.5836297 -0.35819992 -0.5482049
2.1691124 0.5109731 -1.6568044 -0.7612583 -0.0038006213 -1.1665143 1.4243237 0.39569
0.7045314 2.9005802 0.483882 -0.7806534 2.4871213 0.06817702 -0.85827094 -0.20887287
0.061911076 2.8083053 -1.3206909 -0.60773194 1.6947043 -0.54767364 -0.45568606 -0.6132995
1.3659126 -0.21049586 -0.9657794 0.9841019 -0.018524552 -0.26974902 0.076387726 0.9002707
-0.6513944 1.5018287 -0.14638834 0.48007217 2.2483168 0.47664273 2.9458406 1.5807773
0.9836784 -1.3279916 -1.7206293 0.19296034 -0.9853832 -0.121432416 -0.2022611 -1.1753623
-0.76725304 -0.14134544 -1.090023 0.1040431 -0.3299483 -1.1996868 0.56981385 -0.16916305
-0.58592707 -0.48136997 -0.75578386 -1.2057003 -1.4264864 -0.034816947 -0.94783 1.6351721
0.27292308 -1.8119607 -0.8883323 0.1258625 0.19874395 -2.2646806 -0.40792933 1.0428221
2.48536 0.57332736 -0.49659774 1.7860484 0.13342248 0.6006598 3.1041873 0.49895456
00000000: 919d dd3e b8e4 2a40 f916 f83e 397f 5fbf
00000010: 4587 1940 412a 01bf c2c6 0f40 f608 27c0
00000020: b367 823d 3c2c a2be 4348 31c0 201c 08be
00000030: 74c1 fc3f 64f6 b3bf ac45 0ebf af3a b4bf
00000040: d4ca aabf 8e1e c7be 26be 65bf 7428 abbe
00000050: 3385 59bd 6504 83bf a151 edbf edf1 b0be
00000060: a161 7d40 ce27 083f c6c3 babe 486e 73bf
00000070: 890b e43f 40de 1e3f 1b84 ba3f db9a ae3f
00000080: f623 093f 485c 2bbe eb56 3240 c426 013f
00000090: e8c0 4140 d899 6a3f 024f 833e a5bf d53f
000000a0: a3fb 1040 96b3 2e3f ea5b cfbd 5dc2 0cc0
000000b0: d587 39bf 9ca9 64bf ed4f 91bf 8745 a7be
000000c0: 585a 8abf f17f 3ebf fae2 25be c19d 2340
000000d0: 6f8e 03c0 86c8 983e f5f5 8c3f efe7 ff3e
000000e0: 6b8f 153f a66a a4be 0a7e f43f 95d1 ea3e
000000f0: 6091 25bd 2fab 943f fabd 463f 95bc 343f
00000100: 8f9b 28c0 adf2 50bd 7fee 6c3f 175c 1740
00000110: a358 f23e caff a2bf 3445 8d3e 226a 8c3e
00000120: 6530 b3be 1fd2 c63f 4087 1f3e 1ae9 303e
00000130: 6dd8 d93f 436d 9bbd 5e32 53bf 3e70 cebf
00000140: 7632 153f af2a b43f ba85 e0bf 9a14 d8be
00000150: ec14 61bf d60b d93f 478f 7abc 0270 3dbe
00000160: 75eb 05c0 f385 1fbf f2d0 f8bf 1962 91bf
00000170: 002d 673d 133d c73f d620 cf3f da44 003f
00000180: 775e 483f 52ff efbf 82fe 67be 7216 8cbf
00000190: c606 ddbe d5c1 80be c99d 093f 0dbf 20c0
000001a0: 8f52 8dbe 91cb 773f 80b1 09c0 7679 e8be
000001b0: 3eb1 31c0 61b4 cabf fb65 b7be 2857 0cbf
000001c0: bdd2 0a40 22cf 023f 2b12 d4bf d3e1 42bf
000001d0: d813 79bb 5750 95bf 3d50 b63f e197 ca3e
000001e0: 2b5c 343f 1ba3 3940 62bf f73e e7d8 47bf
000001f0: ff2c 1f40 65a0 8b3d a5b7 5bbf c5e2 55be
00000200: 7896 7d3d 46bb 3340 660c a9bf 5294 1bbf
00000210: 12ec d83f 5734 0cbf af4f e9be 3201 1dbf
00000220: 39d6 ae3f 3a8c 57be 523d 77bf 1aee 7b3f
00000230: cdc0 97bc 8b1c 8abe 2b71 9c3d 2478 663f
00000240: c9c1 26bf ec3b c03f d3e6 15be 05cc f53e
00000250: 6ce4 0f40 840a f43e a788 3c40 e956 ca3f
00000260: 59d2 7b3f a1fb a9bf 953d dcbf 6597 453e
00000270: 1342 7cbf 8fb1 f8bd 891d 4fbe 4672 96bf
00000280: b26a 44bf dcbc 10be e085 8bbf 8c14 d53d
00000290: fcee a8be 568f 99bf 52df 113f 1439 2dbe
000002a0: 51ff 15bf 2076 f6be 0d7b 41bf 6354 9abf
000002b0: 1b97 b6bf 379c 0ebd fda4 72bf 524d d13f
000002c0: 93bc 8b3e 54ee e7bf bf69 63bf 19e2 003e
000002d0: 8983 4b3e 87f0 10c0 1ddc d0be 327b 853f
000002e0: 2310 1f40 95c5 123f 0f42 febe 3c9d e43f
000002f0: e79f 083e d7c4 193f 01ab 4640 f976 ff3e

fc_1.bias f4 [64]
0.6822535 -0.4639682 -0.23560753 -0.5925431 -0.76589656 0.785973 0.8399327 0.8757235
0.7555672 -0.03135002 -1.3661814 0.09548206 -2.1080585 -0.8013345 0.30678877 0.44788286
0.81019646 -0.5385711 -1.6768498 -0.64296615 -0.72482693 -0.8672695 -0.23939738 0.9446602
0.75844616 1.217222 -0.515811 -1.0297095 0.33199772 -0.4514035 -0.7496351 -1.2434739
-0.65974504 1.0721449 0.26318413 -0.6175406 -0.23382682 -0.51360893 1.2415798 1.0675282
-0.6966017 0.41551232 0.7792519 -1.5654879 -1.0449455 0.6088418 0.2986862 -0.84203017
0.5808916 -0.06030899 -0.30090767 0.46953908 1.1204914 1.0218841 1.4992 0.557184
-0.7898088 0.26778007 1.0962903 -0.6067069 -0.33816907 -0.9144388 0.72788644 -0.68987375
00000000: 2aa8 2e3f 3d8d edbe 1a43 71be e8b0 17bf
00000010: cc11 44bf 8735 493f d405 573f 6a2f 603f
00000020: da6c 413f e168 00bd 08df aebf 198c c33d
00000030: 6eea 06c0 4224 4dbf 6b13 9d3e e750 e53e
00000040: 0969 4f3f ccdf 09bf 04a3 d6bf 6e99 24bf
00000050: 428e 39bf 6005 5ebf 9624 75be 40d5 713f
00000060: 8729 423f eecd 9b3f 310c 04bf 85cd 83bf
00000070: 9bfb a93e 5c1e e7be 16e8 3fbf 272a 9fbf
00000080: 0de5 28bf 0b3c 893f 12c0 863e 2417 1ebf
00000090: 4c70 6fbe e07b 03bf 16ec 9e3f c4a4 883f
000000a0: 7d54 32bf 08be d43e 0d7d 473f e861 c8bf
000000b0: c6c0 85bf 0edd 1b3f 66ed 983e 4a8f 57bf
000000c0: 50b5 143f 8f06 77bd 9210 9abe 6d67 f03e
000000d0: 436c 8f3f 19cd 823f c9e5 bf3f 9ca3 0e3f
000000e0: e930 4abf 781a 893e 3e53 8c3f 2551 1bbf
000000f0: 7f24 adbe a918 6abf c456 3a3f 919b 30bf

fc_2.weight f4 [32, 64]
-0.37636888 0.09836026 -1.0789387 -0.6308247 0.29138353 -0.7437306 -0.62023276 0.6086748
-0.7418102 -0.2898518 0.21475263 -0.7460427 -0.31818324 -0.575288 0.39519605 -0.6556931
-0.6920786 -1.5534053 -0.65326226 0.6025487 0.47848636 -0.81323147 -0.58605707 -0.383108
-0.48409694 -0.39579034 -0.31011063 -0.95517397 -0.2703251 -0.047688145 -1.0992491 -0.6087855
-1.2348922 -0.6738282 -0.6874145 -0.82070017 -0.048871275 0.13022457 -0.70783263 -0.6777175
-0.4914481 -0.44747153 -0.2748119 -0.5674963 0.50614554 -0.38510936 -0.45291403 0.44445908
-0.3661989 -0.5424834 -0.14507899 -0.8614114 -0.4874849 -0.6874674 -0.77731884 -0.49614513
0.07289783 -0.37007964 -0.5124539 -0.8963432 -0.9445548 -0.59430593 -0.5213868 -0.5921871
0.32120335 -0.33496004 0.0012898417 0.023641963 -1.3483244 0.6025809 0.551217 -0.87404835
-0.12051861 -0.17234729 -0.16367616 0.34611568 0.91690373 0.73623437 -1.0346167 0.33481002
0.41301772 0.5292691 1.454916 -0.7953624 -0.7793674 0.44162485 0.6275254 0.21114744
0.4369463 0.13981846 -0.18277547 -0.21390373 0.3326499 -0.8889292 0.7409836 0.6150763
0.50881106 0.47558278 -0.30997762 0.05220904 -0.26492172 -0.37247756 0.61018294 0.4245779
0.38772848 0.23992537 0.32183176 -1.3232402 -2.0508823 0.39760306 0.40948808 -0.31850782
0.36463156 0.26013073 -0.15225802 0.46709716 0.364893 0.4930145 0.5345299 0.37575293
-0.5082073 0.28483108 0.45655176 0.80696005 0.55857193 0.3160731 0.33892465 0.3361602
0.56308067 -0.74498034 0.88566005 0.331742 -1.1783671 0.44907546 0.637147 -0.961677
0.0043287147 -0.016933229 -0.114133134 0.34822166 0.30850917 0.41987815 -0.7672184 0.49876887
0.53136677 1.3446952 0.8885191 -0.71871245 -0.62516 0.86336124 0.5454626 0.26575908
0.31136402 0.16093409 0.1852308 0.27094552 0.11559168 -0.23951152 0.7168687 0.5276399
0.7931252 0.5171567 0.42038405 0.41841534 -0.67580444 -0.29706308 0.6048074 0.5925861
0.3912196 0.25109732 0.29373428 -0.53025526 -1.6449738 0.11479131 0.27300635 -0.3531887
0.17642654 0.29623553 0.0072358465 0.7079273 0.27263567 0.65759397 0.45625556 0.22604783
-0.8179277 0.32283387 0.4554361 1.035432 0.6295885 0.36435965 0.341596 0.31405488
-0.19309823 0.2663579 -0.18731606 -1.8401288 2.4873943 -0.9801456 -0.2662423 -0.3150367
1.8267297 -0.85164005 -2.1140175 -3.27807 2.1474364 0.3646352 -0.7820659 -1.3192956
1.3367699 -0.04147083 1.5978622 0.9358419 -0.13161147 -2.4812088 -0.09132596 -1.3125243
0.5050973 0.9110505 0.7122471 -3.9704325 -0.22566932 0.5911157 -1.5099363 -5.258151
0.60771 -0.73861414 0.59304893 -2.6190383 2.4816616 -0.12773404 0.2569196 -1.7120867
-3.1535163 -0.766408 -0.4990705 -4.737078 0.4179552 0.48201567 -0.51390874 0.7080756
0.43086225 0.49955803 1.5200915 0.41924113 -0.65646863 0.19710249 -1.0782372 -0.15262242
0.71050656 0.5265314 -0.28331017 0.70608014 -1.2143993 -3.3591177 0.4747792 -3.088873
00000000: 6cb3 c0be 1b71 c93d aa1a 8abf ba7d 21bf
00000010: 3930 953e 2165 3ebf 93c7 1ebf 1dd2 1b3f
00000020: 46e7 3dbf 7567 94be 1de8 5b3e a8fc 3ebf
00000030: eae8 a2be 1346 13bf 2357 ca3e 81db 27bf
00000040: 102c 31bf fcd5 c6bf 323c 27bf a240 1a3f
00000050: 2afc f43e f02f 50bf d607 16bf bb26 c4be
00000060: 8edb f7be 08a5 cabe d2c6 9ebe 4886 74bf
00000070: 0d68 8abe a554 43bd 32b4 8cbf 5ed9 1bbf
00000080: f310 9ebf 0180 2cbf 66fa 2fbf 6819 52bf
00000090: 3f2d 48bd 9759 053e 8534 35bf e57e 2dbf
000000a0: 169f fbbe fd1a e5be 25b4 8cbe 7047 11bf
000000b0: c192 013f 0e2d c5be 59e4 e7be 2490 e33e
000000c0: 6c7e bbbe 31e0 0abf 968f 14be 7585 5cbf
000000d0: 9f97 f9be ddfd 2fbf 5efe 46bf bc06 febe
000000e0: 754b 953d 147b bdbe 2e30 03bf bf76 65bf
000000f0: 58ce 71bf 6f24 18bf 9b79 05bf 9399 17bf
00000100: c474 a43e e27f abbe e80f a93a caac c13c
00000110: e595 acbf be42 1a3f 8f1c 0d3f a2c1 5fbf
00000120: 76d2 f6bd cf7b 30be b99a 27be 1336 b13e
00000130: 34ba 6a3f db79 3c3f 526e 84bf 386c ab3e
00000140: 0f77 d33e 2e7e 073f b03a ba3f df9c 4bbf
00000150: 9f84 47bf a71c e23e 81a5 203f 0937 583e
00000160: 6db7 df3e 922c 0f3e 7e29 3bbe 9409 5bbe
00000170: 1651 aa3e dd90 63bf 1ab1 3d3f a475 1d3f
00000180: 7141 023f 967f f33e 63b5 9ebe 25d9 553d
00000190: d2a3 87be 61b5 bebe f334 1c3f 4662 d93e
000001a0: 5984 c63e ffae 753e 22c7 a43e ef5f a9bf
000001b0: a841 03c0 a192 cb3e 6ca8 d13e 7513 a3be
000001c0: fdb0 ba3e db2f 853e 87e9 1bbe 5c27 ef3e
000001d0: 41d3 ba3e 666c fc3e f4d6 083f b062 c03e
000001e0: e019 02bf 61d5 913e 27c1 e93e ef94 4e3f
000001f0: 92fe 0e3f 55d4 a13e 8887 ad3e 311d ac3e
00000200: 0e26 103f 08b7 3ebf 9eba 623f 16da a93e
00000210: bcd4 96bf 38ed e53e 111c 233f 7730 76bf
00000220: e4d7 8d3b 8eb7 8abc a2be e9bd 1c4a b23e
00000230: eaf4 9d3e 45fa d63e 6d68 44bf a25e ff3e
00000240: a707 083f f91e ac3f fd75 633f 8afd 37bf
00000250: 7c0a 20bf 3e05 5d3f 70a3 0b3f 9311 883e
00000260: 1b6b 9f3e e8cb 243e 25ad 3d3e 5fb9 8a3e
00000270: 55bb ec3d 8242 75be b584 373f 6913 073f
00000280: 410a 4b3f 6264 043f 943c d73e 893a d63e
00000290: 8501 2dbf a718 98be a8d4 1a3f b9b3 173f
000002a0: ef4d c83e d48f 803e 5764 963e cfbe 07bf
000002b0: 808e d2bf b517 eb3d 7dc7 8b3e 26d5 b4be
000002c0: 29a9 343e 2fac 973e ae1a ed3b b93a 353f
000002d0: e796 8b3e 1458 283f 549a e93e 1579 673e
000002e0: b663 51bf 7b4a a53e ec2e e93e 0989 843f
000002f0: b62c 213f 598d ba3e ace5 ae3e cdcb a03e
00000300: 8bbb 45be 1060 883e c8cf 3fbe 5789 ebbf
00000310: 7831 1f40 d2ea 7abf e950 88be 7e4c a1be
00000320: 47d2 e93f 1505 5abf 104c 07c0 e6cb 51c0
00000330: 996f 0940 77b1 ba3e 7935 48bf aede a8bf
00000340: 471b ab3f 51dd 29bd c086 cc3f 5693 6f3f
00000350: 28c5 06be 20cc 1ec0 1b09 bbbd cc00 a8bf
00000360: 0f4e 013f 9b3a 693f d355 363f 911b 7ec0
00000370: dc15 67be 5c53 173f 9845 c1bf c642 a8c0
00000380: e292 1b3f d115 3dbf 0ed2 173f 539e 27c0
00000390: 8bd3 1e40 b6cc 02be f78a 833e a825 dbbf
000003a0: 36d3 49c0 5133 44bf 2b86 ffbe 2596 97c0
000003b0: 39fe d53e c2ca f63e 868f 03bf 7144 353f
000003c0: fa99 dc3e 12c6 ff3e 5c92 c23f c6a6 d63e
000003d0: 540e 28bf 3cd5 493e ad03 8abf 0d49 1cbe
000003e0: c2e3 353f c3ca 063f 080e 91be abc1 343f
000003f0: 7071 9bbf c9fb 56c0 4216 f33e 18b0 45c0

fc_2.bias f4 [32]
-0.7689613 0.60454977 0.716544 1.7294651 -0.522237 0.49316704 -0.7717986 -0.19914708
-0.73157394 0.6576714 -0.71461964 0.4915999 -0.17091225 0.40755913 0.7687637 0.7045943
0.018035835 -0.69841766 0.40134284 -0.7016988 0.2224211 0.26666853 1.3469802 0.4100635
0.4918243 -0.64194965 -0.44357014 0.59169644 0.69613487 0.80888593 0.73620397 0.52219003
00000000: a6da 44bf c6c3 1a3f 6d6f 373f 1d5f dd3f
00000010: 53b1 05bf 6480 fc3e 9894 45bf 36ed 4bbe
00000020: 6e48 3bbf 275d 283f 50f1 36bf fbb2 fb3e
00000030: 9f03 2fbe 97ab d03e b3cd 443f 4b60 343f
00000040: e3bf 933c 80cb 32bf cf7c cd3e 88a2 33bf
00000050: 5bc2 633e c788 883e d969 ac3f d8f3 d13e
00000060: 65d0 fb3e d056 24bf a01b e3be 6b79 173f
00000070: e535 323f 2613 4f3f dd77 3c3f 3fae 053f

fc_out.weight f4 [9, 32]
0.9707912 -0.73415136 -0.87538135 4.3038235 0.9123639 -0.7414916 0.8441035 1.1711016
0.55947316 -0.5999266 -0.45229164 -0.22933859 1.2776874 -0.35794705 -0.6821117 -0.57975453
2.038066 -0.18549673 -1.1269149 0.11478998 -1.9984236 -0.88445693 2.821453 -1.2796183
-0.35404763 -2.438286 -0.058413804 -0.3641151 -0.46295208 0.91438556 -0.72803175 -0.30059388
1.0351995 -0.7310236 -0.8229504 4.004391 0.6043734 -0.65210056 0.8685413 1.4002032
0.4808234 -0.6436047 -0.3256063 -0.26657835 1.2534778 -0.41436538 -0.52529967 -0.620965
1.4847467 0.10793405 -1.0466928 0.2483437 -1.9557699 -0.76922894 3.256766 -1.3928488
-0.45226964 -2.3797915 0.4791939 -0.56039554 -0.34892276 0.9897074 -0.56324756 -0.4213834
0.8723231 -0.63889194 -0.73212445 3.7258065 0.8375445 -0.689839 0.62173134 1.7133651
0.471443 -0.5587429 -0.082207136 -0.39046195 1.2207433 -0.49136445 -0.6088227 -0.59420913
1.2448453 0.34110123 -1.088592 0.28352404 -1.8984478 -0.73932135 3.383857 -1.4681064
-0.38407102 -2.4950662 0.12205806 -0.5122514 -0.49936432 1.3024846 -0.48118675 -0.46270183
0.66447324 -0.5662852 -0.6481555 3.9649022 0.4985109 -0.6010319 0.54933727 1.7015203
0.39829996 -0.40818557 0.41262215 -0.53779715 1.2235373 -0.5376906 -0.51588315 -0.49293178
1.0301769 0.6013044 -1.1170863 0.49529648 -1.8292023 -0.6831088 3.2609684 -1.5216154
-0.595415 -2.399019 0.40889838 -0.51150537 -0.41643196 1.677967 -0.6634874 -0.5355282
0.09970157 -0.55290526 -0.5543511 3.5280523 -0.02086973 -0.62333953 0.13927045 2.0322785
0.53010315 -0.50866944 0.69527507 -0.4770747 1.1879973 -0.53265214 -0.606341 -0.5054302
0.6487881 0.735766 -1.0892606 0.8254526 -1.7571435 -0.60464126 3.4011443 -1.5774993
-0.5022557 -2.5504 0.21533623 -0.66406894 -0.5390473 1.9251314 -0.44279662 -0.59149456
0.004960239 -0.5686952 -0.4919197 2.9404688 -0.62889445 -0.54489577 0.3552834 2.297412
0.514714 -0.49663696 0.8471433 -0.6217559 1.184736 -0.51898223 -0.5821806 -0.5198358
0.1539381 0.6803105 -1.1227325 0.8766522 -1.6821754 -0.54638046 3.629032 -1.6637956
-0.5325511 -2.5744803 0.20946237 -0.5579244 -0.5857453 2.444619 -0.35274675 -0.7742114
0.23888212 -0.44051024 -0.3169683 2.752372 -0.2788126 -0.47728065 0.2874709 2.6519814
0.6706369 -0.41514874 0.4404981 -0.67348707 1.1675127 -0.78412765 -0.32856745 -0.59551495
-0.1460552 0.67989236 -1.0986351 0.79806554 -1.6753209 -0.5177569 3.698421 -1.7240617
-0.49290484 -2.618328 -0.10683476 -0.6008667 -0.65951204 2.4302661 -0.51810867 -0.82102007
0.36946154 -0.4445358 -0.30665368 2.7496645 -0.81121063 -0.49329132 0.40058434 2.5655131
0.60087144 -0.6040807 0.102479376 -0.7773816 1.1389658 -0.5889904 -0.35797018 -0.42873812
-0.41240734 0.67464906 -1.1410223 0.17762733 -1.5628556 -0.48749292 3.3532948 -1.7915657
-0.60171264 -2.5867608 -0.17840539 -0.6030628 -0.68168527 2.7815382 -0.3208754 -0.8748104
00000000: c685 783f 58f1 3bbf fe18 60bf ecb8 8940
00000010: ae90 693f 65d2 3dbf 2b17 583f a8e6 953f
00000020: a239 0f3f ca94 19bf c592 e7be bcd7 6abe
00000030: 438b a33f d644 b7be df9e 2ebf cb6a 14bf
00000040: ac6f 0240 dbf2 3dbe bf3e 90bf 0217 eb3d
00000050: 58cc ffbf c56b 62bf b092 3440 88ca a3bf
00000060: bb45 b5be e10c 1cc0 5043 6fbd 4b6d babe
00000070: 0e08 edbe 2c15 6a3f 4a60 3abf 71e7 99be
00000080: 6b81 843f 5d24 3bbf e1ac 52bf f923 8040
00000090: 37b8 1a3f 10f0 26bf b958 5e3f dc39 b33f
000000a0: 7c2e f63e 47c3 24bf deb5 a6be f57c 88be
000000b0: f671 a03f b327 d4be 0a7a 06bf 90f7 1ebf
000000c0: 2e0c be3f 870c dd3d 08fa 85bf d04d 7e3e
000000d0: ab56 fabf 30ec 44bf db6e 5040 df48 b2bf
000000e0: e38f e7be 814e 18c0 e758 f53e 1576 0fbf
000000f0: 01a6 b2be 775d 7d3f fe30 10bf 91bf d7be
00000100: 9150 5f3f 6c8e 23bf 826c 3bbf 9d73 6e40
00000110: 5169 563f 4a99 30bf c929 1f3f 8c4f db3f
00000120: fa60 f13e c609 0fbf 375c a8bd a1ea c7be
00000130: 5141 9c3f 1f94 fbbe cedb 1bbf 171e 18bf
00000140: 1757 9f3f d2a4 ae3e fc56 8bbf 102a 913e
00000150: 5600 f3bf 2a44 3dbf 1d91 5840 e9ea bbbf
00000160: f5a4 c4be 2aaf 1fc0 93f9 f93d e822 03bf
00000170: aeac ffbe d1b7 a63f 1c5e f6be 41e7 ecbe
00000180: eb1a 2a3f 11f8 10bf 85ed 25bf f5c0 7d40
00000190: d23c ff3e 3add 19bf 5ea1 0c3f 6bcb d93f
000001a0: f9ed cb3e b3fd d0be 3643 d33e 13ad 09bf
000001b0: df9c 9c3f 17a6 09bf eb10 04bf 8e61 fcbe
000001c0: d6dc 833f 16ef 193f affc 8ebf 8097 fd3e
000001d0: 4d23 eabf 38e0 2ebf b5b3 5040 4bc4 c2bf
000001e0: 1e6d 18bf 8789 19c0 215b d13e 04f2 02bf
000001f0: 9236 d5be 9fc7 d63f 4fda 29bf 6018 09bf
00000200: 5630 cc3d 338b 0dbf f4e9 0dbf 9ccb 6140
00000210: fff6 aabc 2e93 1fbf ea9c 0e3e da10 0240
00000220: d7b4 073f 2938 02bf 8cfd 313f 2343 f4be
00000230: 4c10 983f e45b 08bf 2a39 1bbf e063 01bf
00000240: fa16 263f 295b 3c3f e46c 8bbf dd50 533f
00000250: 14ea e0bf c5c9 1abf 59ac 5940 7feb c9bf
00000260: d493 00bf c139 23c0 1a81 5c3e 6c00 2abf
00000270: 01ff 09bf b56a f63f 3db6 e2be 306c 17bf
00000280: 8089 a23b 0296 11bf e6dc fbbe a430 3c40
00000290: 3aff 20bf 4a7e 0bbf b5e7 b53e cc08 1340
000002a0: 4cc4 033f 3347 febe 62de 583f 652b 1fbf
000002b0: 6ea5 973f 05dc 04bf ca09 15bf f613 05bf
000002c0: f3a1 1d3e d428 2e3f b3b5 8fbf 476c 603f
000002d0: 8651 d7bf 97df 0bbf 0f42 6840 41f7 d4bf
000002e0: 4555 08bf 49c4 24c0 4e7d 563e 22d4 0ebf
000002f0: 67f3 15bf a374 1c40 399b b4be b832 46bf
00000300: 849d 743e 8f8a e1be ab49 a2be dd26 3040
00000310: 86c0 8ebe 215e f4be 632f 933e 10ba 2940
00000320: dcae 2b3f 608e d4be f888 e13e a669 2cbf
00000330: 0e71 953f 97bc 48bf fe39 a8be ab73 18bf
00000340: 7f8f 15be 6d0d 2e3f 13a0 8cbf 064e 4c3f
00000350: ea70 d6bf b78b 04bf eeb2 6c40 0eae dcbf
00000360: 065e fcbe b092 27c0 2fcc dabd 66d2 19bf
00000370: c8d5 28bf 7b89 1b40 c5a2 04bf 5f2e 52bf
00000380: 102a bd3e 329a e3be b601 9dbe 81fa 2f40
00000390: 80ab 4fbf ae90 fcbe 6419 cd3e 5e31 2440
000003a0: b6d2 193f 08a5 1abf b5e0 d13d 7b02 47bf
000003b0: a2c9 913f 13c8 16bf de47 b7be 9083 dbbe
000003c0: 0e27 d3be cdb5 2c3f 050d 92bf f0e3 353e
000003d0: a70b c8bf ac98 f9be 629c 5640 0652 e5bf
000003e0: d709 1abf 7d8d 25c0 e7af 36be 5362 1abf
000003f0: ed82 2ebf b904 3240 c849 a4be 93f3 5fbf

fc_out.bias f4 [9]
-1.0447907 -1.0258673 -0.9095527 -0.7784988 -0.6280531 -0.43982115 -0.34547666 -0.13716775
-0.57528675
00000000: b4bb 85bf 9f4f 83bf 72d8 68bf b34b 47bf
00000010: 17c8 20bf 3d30 e1be 51e2 b0be b475 0cbe
00000020: fe45 13bf
