Pendulum_DQN/saved_model/0404/DQN_Q_EP360.pt (torch, 12311 bytes, 6 tensors)

fc_1.weight f4 [64, 3]
00000000: 0c82 67bd 014a 6d40 b2aa 403f c016 bbbe
00000010: 2ea0 9abf 7ad8 d2be 96d4 f33d d5eb 9cbe
00000020: e38c 4f3f a015 e6be 809a 463f 60bd 273f
00000030: a91f f73f 6cd4 17c0 4c52 38bf ddf6 9dbf
00000040: 939c c2bf 0823 bbbe 33e8 0cc0 239c 74bf
00000050: 62db 6ebd 0130 d2be 1b72 46c0 d74b 6ebe
00000060: d321 8040 1e8e 30c0 3c69 70bf 0aae adbf
00000070: c65f 2240 d9e9 423f 2da1 3c40 78b2 d240
00000080: abb0 d73f 94e5 b0bf 2a4f 9840 a9ba 633f
00000090: c8ac 7840 36a9 f93f ec23 613e fe8f db3f
000000a0: b02c 1740 d883 263f 7533 3abd 95f7 74c0
000000b0: 8ce1 53bf 55f7 5fbe 79af 6fc0 18d5 37bf
000000c0: 70b0 17bd 8aaa 713d 1f11 81bc 8d21 7440
000000d0: a194 da3f 09b1 6c3f 028f 6b40 7f56 b43f
000000e0: 56a6 b33f c61d d6be 0555 4640 b87f 423f
000000f0: 81a9 e03f 36be 8240 e0ef 323f 26a9 853f
00000100: e514 34c0 c78b 293e 34af db3f 4b28 1340
00000110: 7df6 a33e b3bd d7bf 5833 db3e 15b4 8c3e
00000120: b4bb 033c d08c e63f d1b2 903e ef10 db3f
00000130: a42f efbe 4e6e ffbe 4438 31c0 9f00 3f3f
00000140: de9d 093f a433 1540 3de4 3ac0 b494 41bf
00000150: ba26 19c0 67f3 11bf 6c81 e7be bc5e c43f
00000160: 952a bfc0 902e 9cbf 725b 22c0 0545 e0bf
00000170: 50d7 28be 0cc4 0240 cd44 2840 c97c 1f3f
00000180: e4d1 55c0 ff53 7fc0 3c69 b53d c674 b7bf
00000190: 5be6 433e c037 b3be c27d 053e c9ad 34bf
000001a0: 8ff9 203f 8390 db3f 6fda 42c0 1501 1ebf
000001b0: 5e41 58c0 dbbb d8bf 51cd cdbb f07f d6be
000001c0: 7130 cd40 d982 973f 1c73 15c0 bb7a 3dbe
000001d0: a11e 943e 9d4f 17c0 024f 0b40 a66d 163f
000001e0: 81ab 953f c6e6 5a40 9c93 1e3f f7e8 5fc0
000001f0: 0122 2540 c1a9 a5be f282 8ebf 14d9 16bf
00000200: 6e49 0b3d e2cc 3540 5ee1 febf 997e 66bf
00000210: 4ba1 7140 65d8 b2bf d8a9 a2bf 851c 5c3f
00000220: 461e dd3f 1db9 febe e6ad 66bf 2fc8 04c0
00000230: 3f95 b4be 64d3 9bbf 0f37 1140 65b7 713f
00000240: b884 b8be c57d 813d cb9f 43bf 1a67 3dc0
00000250: 549a 9740 69a4 b73e fcb8 3240 74eb 7f40
00000260: f834 973f 04df d6bf 7d3f dabf 737d 703e
00000270: 0b16 933e 1a35 1bbd 1a76 5cbc 4dad 03c0
00000280: d923 a63d 2953 a5bd 9125 84bf d0ca b23e
00000290: 5927 6bbe 6d15 db3e 1aec 483d 7cb4 dbbb
000002a0: 70a5 85be 0c1f adbf 13ba d6be 6352 26c0
000002b0: ba57 27be 660c 253e 766d 4dbf 9640 1940
000002c0: 8acc 023f 213f ffbf ae4b d3be fb8f b23e
000002d0: 59f6 ea3f 18a4 cfc0 5f09 c1bf bd80 d83f
000002e0: c8c9 3e40 274b 493f fdb8 6e3f 4606 af3f
000002f0: 2be3 1b3e 229f ad3f 51c0 c540 f87b 833f
-0.056520507 3.7076418 0.7526046 -0.36540794 -1.2080133 -0.41180784 0.11905782 -0.30648676
0.8107435 -0.44938374 0.775795 0.6552334 1.9306537 -2.3723402 -0.72000575 -1.2340962
-1.5204033 -0.36550164 -2.2016723 -0.95550746 -0.05831469 -0.4105225 -3.1007144 -0.23271118
4.004129 -2.7586741 -0.93910575 -1.3568738 2.5370955 0.76138073 2.9473374 6.5842857
1.685079 -1.3820062 4.7596636 0.88956696 3.8855457 1.9504764 0.2198636 1.7153318
2.3621025 0.6504493 -0.04545923 -3.8276112 -0.8276603 -0.21871693 -3.745085 -0.7180953
-0.0370335 0.05900053 -0.015755234 3.8145478 1.7076608 0.92457634 3.6806035 1.4088897
1.4035137 -0.4181959 3.0989392 0.75976133 1.7551728 4.085719 0.6989727 1.0442245
-2.8137753 0.16557227 1.7162843 2.2993343 0.32023993 -1.6854767 0.4281261 0.27481142
0.008040357 1.8011723 0.28261426 1.7114543 -0.46716034 -0.49888843 -2.7690592 0.7461032
0.5375651 2.331277 -2.9201806 -0.7561753 -2.3929887 -0.5701203 -0.4521593 1.5341411
-5.973948 -1.220171 -2.5368314 -1.7521063 -0.16488385 2.0432158 2.6291993 0.6229978
-3.3409357 -3.9895017 0.088579625 -1.4332511 0.19130842 -0.3500347 0.13036254 -0.70577675
0.62880796 1.7153476 -3.0445821 -0.617204 -3.3789897 -1.6932329 -0.006280579 -0.41894484
6.4121633 1.1836807 -2.3351507 -0.18503849 0.28929618 -2.3642342 2.1766973 0.5876106
1.1692964 3.4203353 0.61943984 -3.498594 2.5802004 -0.32356074 -1.1133711 -0.58924985
0.034005575 2.84063 -1.9912527 -0.9003692 3.7754695 -1.3972288 -1.2708082 0.8598102
1.7274864 -0.49750605 -0.901091 -2.0747182 -0.35270116 -1.2173886 2.2689855 0.9442046
-0.36038756 0.06322817 -0.764157 -2.9594178 4.737589 0.35867622 2.7925406 3.998746
1.181304 -1.6786809 -1.7050625 0.23485355 0.28727755 -0.03789244 -0.013455892 -2.0574524
0.08112306 -0.08072502 -1.0323964 0.3492036 -0.22964229 0.42789784 0.04905329 -0.006704865
-0.2610278 -1.35251 -0.41938838 -2.5987785 -0.16342059 0.16118011 -0.8024515 2.394567
0.5109335 -1.994114 -0.41268677 0.34875473 1.8356429 -6.488781 -1.5080985 1.6914288
2.9810658 0.786303 0.9325102 1.367379 0.15223376 1.3564188 6.179726 1.0272207

fc_1.bias f4 [64]
00000000: d197 783f c55e 08bf 8cd2 7cbf 4882 9dbe
00000010: c4b5 9fbf cece 743f 5f08 b6be 3ebc 32bf
00000020: 5912 5a3f 89ad a7bf 6988 70c0 654e 0f3f
00000030: ad46 fdbf 00f4 9fbf 8981 c6be cabd fcbe
00000040: f034 51bf 32f8 4bc0 d88b a5c0 6b13 5ebf
00000050: 6ef4 2fc0 ee1d b0bf 21cb 25c0 31e8 fd3e
00000060: b7aa b63e d39a c8be 22c6 bfbe 8600 dfbf
00000070: 60ce 0ebf ffa9 27c0 3831 1fc0 2d23 dbbf
00000080: d550 53c0 b91f 963f 6be4 4f3e 6967 9fbf
00000090: 5f48 d1bf a7ea 34bf 471a 7a3f 743f f63f
000000a0: 61dc 50bf 222d 55c0 4cea 533f 334c 1bc0
000000b0: f51b 8cc0 41b0 353f 549b ae3d ecd5 98bf
000000c0: 7632 bdbe 0b93 f8bf 6961 cebf 9a0d 9dbb
000000d0: db75 d1be 4819 fc3e a92c dc3f 3c66 09bf
000000e0: 98b5 febe f42a 3c3f bc5a aa3f 2268 20bf
000000f0: e54a 24c0 50ec 8dbf 804c 81bf 1a4c 17c0
0.97106653 -0.53269607 -0.9875877 -0.3076346 -1.2477345 0.9562806 -0.35553262 -0.69818485
0.85184246 -1.3099834 -3.7583258 0.55978996 -1.9787194 -1.2496338 -0.38770702 -0.49363548
-0.817214 -3.1870236 -5.173321 -0.8674838 -2.7492938 -1.3759134 -2.590523 0.4959121
0.3567712 -0.39180622 -0.3745585 -1.7422035 -0.55783653 -2.6197507 -2.487379 -1.712011
-3.3018086 1.1728431 0.20301978 -1.2453433 -1.6350211 -0.7067055 0.97696346 1.9238114
-0.8158627 -3.3308797 0.82779384 -2.4265258 -4.3784127 0.7097207 0.0852572 -1.1940284
-0.3695256 -1.9419874 -1.6123477 -0.004792881 -0.4091023 0.49238038 1.7201129 -0.5367162
-0.4974792 0.7350304 1.330894 -0.62658894 -2.5670712 -1.1087742 -1.0101471 -2.3640199

fc_2.weight f4 [32, 64]
00000000: 4fc7 dbbf f7bf dfbe de12 c03e ff97 8fbf
00000010: 98aa d33e 6c3f 6abd 73df 6fbf 3f5b 213e
00000020: 21ad cbbf 6f95 e23f e0a3 833f 57d9 fcbe
00000030: a885 bdc0 06f1 80bf 9fc2 2f3f d574 4f3e
00000040: 2303 693f 897e 38c0 be2a cd40 5ae1 db3f
00000050: 994d 143f 4467 14c0 146b ad3f 7f3f ef3e
00000060: d084 acbf 23d7 c4bf af91 c93d 9b1a 13c0
00000070: ae43 803f 31bd 653f 1253 3d40 7f33 9ebf
00000080: 4cee cac0 fc6e 6bbe 8d87 babf 8655 e1be
00000090: e75c 7d3f 3453 083f 6865 08bd c11f b8bf
000000a0: fa75 a8bf d0f4 c43f c9f1 23bf 3615 cabf
000000b0: ad0c a6be 150c 06c0 82a2 58be 3f6b 673f
000000c0: 66ee 9e3f d9ff 1a40 2252 50c0 725b d0bf
000000d0: d151 5f3f df57 bfbf e283 91bf 94e1 173f
000000e0: a1ef 513e 4220 033f c3b3 c7bf 40ff 6fbf
000000f0: 439c bebe d502 c8bf 76cb 27bd ba7a 37bf
00000100: 84e1 953f 1309 4c3d 0182 eabf 59d4 98be
00000110: 66db 2ec0 f4c2 0e3f 0f2d 033f e89c ea3e
00000120: 297b c4bf bcce a5bf fa59 fabf f387 043f
00000130: 680a 2ebe be18 aebf 1afe 4abf f96c 65be
00000140: 07d0 31bd 1f5e ca3f d29e 87c0 6214 d2bf
00000150: 4838 a93d 44ca 31c0 a40d 35be f159 00bf
00000160: 6db0 a43f 28a7 513f 3644 78bf 3731 6c40
00000170: c758 c9bf 98f2 103f 30c9 21bf 696d 2dc0
00000180: cdf5 a13f 2692 913f b195 0bbe 4f21 063d
00000190: 1a3d 033f 2b27 c83d 53cd 2c3f 6357 a43f
000001a0: 129a f63d 2181 13c0 132a 343e 061d 4dc0
000001b0: 86dd bac1 96dc 953f 2cd6 21be 705b aebf
000001c0: c2cd 9b3f 88de 623e 325a 0fbf 64cd fa3f
000001d0: 54f5 223e 85ad 85be 19f3 a73f 0c98 0f3e
000001e0: ebc6 cebd 1055 053f 16af a03f 52ad 753f
000001f0: ab51 e03e f215 55bf 731e c7bd cdab 753f
00000200: ada5 bd3f ab6e e2bd 27f4 9bbe fa70 7ebe
00000210: f223 ecbf daa4 5a3e 1a2a 0dbf b0f4 2a3d
00000220: ca35 3d3f ca66 9abf 78a3 133f 28d9 f03e
00000230: 3cdc e8be 611d 95bb a8a9 2fbe 596a af3e
00000240: b923 073e 62b5 853f 49aa 6f3f e395 92bf
00000250: b258 75bf 3f20 08be 8138 28bf d110 83bf
00000260: 9225 3e3f 1b81 443c 9832 99be 55c7 fbbe
00000270: a716 36bf 0229 d93e 8703 c7bf a51d 1bbe
00000280: 49e8 0c40 49d4 be3f b901 b53f 782c 0bbf
00000290: 6f39 81bf 998e f1bd dce8 adbe 27b2 743f
000002a0: ded6 fa3e 6e1e 39bf cd46 723d 5006 15c0
000002b0: 7641 3fc0 e14c e1be c1dc 3fbf c4b0 a2bf
000002c0: 72b3 bebe 6dcc 9cbf b159 ba3f c7e7 b23e
000002d0: a229 4f3e 0f61 b33f 99b0 843f 8584 c63d
000002e0: 57f7 55bf 7517 79bf 959c a93f 712d 2ebd
000002f0: 7572 303e 78ba 103b 446c 9dbc a37a 193e
00000300: f68f 813f 2b29 ae3f 5a81 953e 332f 3c3e
00000310: 7392 843f 05ac eabf 31eb 163f cd88 b7bf
00000320: 4e7a ef3f 4af1 dabf 7f24 61c1 0e3b e8c0
00000330: 4cfe 5840 61db 8fbf a6d7 56c0 7eb2 76c0
00000340: b41e 07be 63ce b93f 449f 8240 e859 9abf
00000350: 0652 43c0 f30d edbf b82f 2dbf 05b3 d4bc
00000360: d16e 923e 9a08 9f3f ddaa be3f 4f12 0bc1
00000370: 2712 193f 6c78 54bf bd5d af3f 8d78 c4c0
00000380: 2f3b 2bc0 383e 663f 4e82 603d 1709 a8c0
00000390: eb99 803f 6dc3 fcc0 9e3a 633f 42fb 84c0
000003a0: 7e86 8dc0 6fa9 b5bf 6f06 12bf c111 84c0
000003b0: 7279 f9bf 5dec 923f fc83 5dbf 1b89 0740
000003c0: d1c2 b03f bb10 aec0 ef3a 2b40 dab0 593f
000003d0: 2aa4 c53e b93e e3be b93b d13e 2f71 033e
000003e0: bf81 88be e4dd 933f 7d6d 4bbf 59b8 ba3f
000003f0: d76c 2ac1 5b60 abc0 22b7 9d3d 2a22 a6c0
-1.7170199 -0.43701145 0.37514395 -1.121826 0.4134109 -0.05718939 -0.9370033 0.15757464
-1.591221 1.7701854 1.0284386 -0.49384567 -5.9225655 -1.0073555 0.68656343 0.20259412
0.9102041 -2.882723 6.4114676 1.7178147 0.57930905 -2.3188028 1.3548303 0.4672813
-1.3478031 -1.5378155 0.0984224 -2.2984989 1.0020654 0.8974181 2.9581952 -1.2359465
-6.341589 -0.22991556 -1.4572617 -0.44010562 0.9896988 0.5325196 -0.033299834 -1.438469
-1.3161004 1.5387211 -0.6404081 -1.5787723 -0.32431546 -2.0944874 -0.21155742 0.9039802
1.2416503 2.4218657 -3.255013 -1.6277907 0.87234217 -1.4948691 -1.1368372 0.5932858
0.20501567 0.51221097 -1.5601734 -0.93748856 -0.37228593 -1.5625864 -0.04096552 -0.7167164
1.1709447 0.04981334 -1.8320924 -0.29849508 -2.732141 0.55766225 0.5124063 0.45822835
-1.5350085 -1.2953715 -1.9558709 0.5176994 -0.16996157 -1.3601301 -0.7929398 -0.22404851
-0.04341128 1.5809973 -4.2381372 -1.641247 0.08262688 -2.7779703 -0.17680985 -0.5013724
1.2866341 0.81895685 -0.9697908 3.6905038 -1.5730218 0.5662017 -0.6319761 -2.7098029
1.2653137 1.1372726 -0.13631321 0.03274661 0.5126511 0.09773096 0.675008 1.2839168
0.12041105 -2.3047564 0.17594175 -3.2048965 -23.358166 1.1707942 -0.15804356 -1.3621655
1.2172167 0.22155201 -0.55997 1.959393 0.15913898 -0.26108947 1.3121063 0.14022845
-0.10096534 0.5208292 1.2553432 0.9596759 0.43812308 -0.8323661 -0.097226046 0.9596527
1.4816185 -0.110562645 -0.3045971 -0.24847785 -1.844847 0.21351948 -0.55142367 0.04173726
0.739102 -1.2062619 0.5767131 0.47040677 -0.45480525 -0.0045506214 -0.17154562 0.34260824
0.13197221 1.0445979 0.9361921 -1.1451992 -0.95838463 -0.13293551 -0.6571122 -1.0239507
0.7427608 0.011993672 -0.29921412 -0.49175516 -0.71128315 0.424141 -1.5547951 -0.15148027
2.2016776 1.4908534 1.4141151 -0.5436473 -1.0095652 -0.117947765 -0.3396672 0.9558434
0.48992056 -0.72312057 0.059149552 -2.3285103 -2.9883704 -0.44003966 -0.7494622 -1.2710195
-0.3724628 -1.2249886 1.4558622 0.34942457 0.20230725 1.4013995 1.0366393 0.09693245
-0.83580536 -0.9730142 1.325091 -0.042523805 0.17231162 0.00220838 -0.019216664 0.14988188
1.0122058 1.3606313 0.2920025 0.1837738 1.0357193 -1.8333746 0.58952624 -1.4338623
1.87092 -1.7104886 -14.07141 -7.257209 3.390521 -1.1238824 -3.3569121 -3.8546443
-0.13195306 1.4516109 4.0819416 -1.2058687 -3.0518813 -1.8519882 -0.6765094 -0.02596427
0.2860017 1.24245 1.4895893 -8.69197 0.59793323 -0.8299625 1.3700482 -6.1397157
-2.6754873 0.8993869 0.05481177 -5.2511096 1.0046972 -7.8988557 0.8876132 -4.155671
-4.4226675 -1.4192332 -0.57041067 -4.127167 -1.9490187 1.1478382 -0.8652952 2.1177433
1.3809453 -5.4395423 2.675472 0.8503548 0.3860181 -0.4438379 0.40865877 0.12836145
-0.26661488 1.1552091 -0.7946394 1.4587508 -10.651572 -5.355512 0.077009454 -5.1916704

fc_2.bias f4 [32]
00000000: e6e8 7dc0 d202 0740 370f 1a40 01c6 1240
00000010: 33b2 0abf fc67 b93f 24e7 01c0 79d6 32bf
00000020: 51e7 7ec0 fdd2 853f 1ae7 83c0 3522 793e
00000030: dea3 c8bf 9531 fc3f ac1f 393c b61e 0e3e
00000040: 3082 b13e b100 8fc0 5407 1a3f adbc 85c0
00000050: 2d9b 0840 326e 5d40 c01b 5cbe 0771 4740
00000060: f0ed 30bd ff20 1f3f 9f34 77c0 64bd 18bf
00000070: ff6e f03e b9d7 f63f bb8d 833f 86ec d73f
-3.96734 2.1095471 2.4071786 2.2933352 -0.5417816 1.4484859 -2.0297327 -0.6985851
-3.9828684 1.0455014 -4.1219606 0.24329455 -1.5675008 1.9702631 0.011299055 0.13878903
0.34669638 -4.4688344 0.6016743 -4.1792817 2.1344712 3.4598508 -0.21494961 3.1162736
-0.043195665 0.62159723 -3.8625867 -0.5966399 0.46959683 1.9284583 1.0277628 1.6869056

fc_out.weight f4 [9, 32]
00000000: 4128 4e3e 2953 dfbf 8f44 55bf 7f0d e440
00000010: e2ce 9340 e764 c9bf 9b20 c13d fa76 9a3f
00000020: 19d6 e13e 7b4f 36bf 42e9 fdbe c643 04c0
00000030: 0eac 903e ee58 6c3e b101 c3be 44c3 68bf
00000040: d7a3 7f40 76e0 1dbe e1dd c9be 49a3 dc3d
00000050: 5939 debf 1999 e3bf 6a2d 7cbf 0c94 a2bf
00000060: cc93 f8be ff52 09c0 7198 043f 9920 d03e
00000070: 5b6b 4dbf d147 88c0 bd4a c6bf 6a57 75bf
00000080: 4bb5 8b3d aaa4 cebf 7749 53bf 7745 c040
00000090: 3182 5840 cfec c4bf 4822 8e3c 8f8f 983f
000000a0: af4c a13e 60da 31bf 8145 3abd 5969 06c0
000000b0: 115f 013e 2ff4 a33d e3a1 e3be e48f 68bf
000000c0: 00c9 5940 32e4 093d f210 dcbe eb57 5bbe
000000d0: f2e7 d5bf e59c d2bf 89bc 27bf fc6e a9bf
000000e0: 06ca efbe 83b7 07c0 ec02 91be c3b0 953e
000000f0: a4a8 48bf 412e 3bc0 12f8 bfbf d99f 80bf
00000100: 3843 873f 786e bebf c948 62bf f346 c240
00000110: bbc2 5f40 bee7 c9bf 011b d23f 799d a63f
00000120: a412 bc3e 06dd 46bf 109e 2bbd 7036 08c0
00000130: bd72 5bbd 5ac5 f2bc 56f7 babe c868 87bf
00000140: bcad 6140 6e65 47be eee1 cdbe 1c54 373f
00000150: b21e d5bf 914a bebf edf1 44bf 02c4 bebf
00000160: f3ba c2be e782 07c0 34aa 31be 4fc8 683e
00000170: bc99 48bf 3171 42c0 0d9e b8bf 680f 86bf
00000180: 1606 3b3f e55c 9ebf 5e13 59bf 2a3b 8340
00000190: 08fe 1b40 8599 cbbf e18a 553f 25c2 b63f
000001a0: c075 ac3c bb7b 3dbf 75f6 aa3f 599d 11c0
000001b0: d786 f2bd e469 81be c0d4 f4be 10dd 50bf
000001c0: 9821 1f40 5b07 8f3f b739 e8be d614 0d3f
000001d0: b839 c8bf e66f a7bf 7548 46be 54fc d4bf
000001e0: 4504 cebe 5c6c 0bc0 e949 253d 13fc ea3c
000001f0: a905 55bf 94f9 53bf 3bef acbf 20cc 84bf
00000200: 316d af3f 2cd8 61bf a4ac 52bf c409 0440
00000210: 9022 9c3f 5ed2 c4bf af65 6d3f 1845 c83f
00000220: 974d 843f 9598 44bf e028 ae3f 46e1 1cc0
00000230: 2af8 d1be b3e5 22bf 7601 06bf 129c 45bf
00000240: e147 c33f ea6e be3f adf5 0cbf 3162 873f
00000250: bbf9 b8bf 628f 6bbf c8b2 013e 1655 fbbf
00000260: b480 e6be 0ed8 09c0 4446 213f 6ea0 22be
00000270: 4b3a 56bf f86b b93f 7ac1 a0bf 1f34 91bf
00000280: 9179 853f cf71 d2be 14e7 4bbf 8fe2 7abf
00000290: 5e7c dcbe 3a47 c0bf 5d87 bfbd 1a9b da3f
000002a0: 6137 a03f 791e 48bf ba95 1540 4d33 2cc0
000002b0: 86f2 1fbe 296e 83bf 8b74 24bf 2307 fabe
000002c0: de8d aa3d fa7b 1c40 4c5f 2bbf c18c 4240
000002d0: fc48 aabf 4bfa 0fbf 3653 273f 0852 14c0
000002e0: 7679 eebe 9116 0dc0 d716 413f 69b9 d5be
000002f0: 195e 5bbf e3ea 9a40 09f3 8fbf 2184 92bf
00000300: a247 7c3f 7ecb 3fbe 5252 3bbf b086 41c0
00000310: 63fd c1bf 2c05 c1bf 15b9 0bbf c9c0 eb3f
00000320: f55d 1340 9965 4cbf b1f2 3940 e546 33c0
00000330: a4fa ee3d d12b aabf bce4 1ebf 9ae4 6ebe
00000340: 1cd5 7dbf f2b1 6140 75ca 30bf d9b2 6f40
00000350: 8ace 9fbf 0079 c3be b555 843f 5751 1ec0
00000360: fd86 1ebf 3250 0ec0 de34 0f3f 1afc 14bf
00000370: cddc 6cbf cdfd e340 db4f 88bf eaaa 97bf
00000380: 6369 1040 49f7 7fbb 86af 38bf 46a9 68c0
00000390: c19a c5bf 6e7f bdbf 710f d23e 5a97 f63f
000003a0: 3cb5 2740 760f 41bf da7e 0c40 d9c1 42c0
000003b0: 0d30 c83e f91f bebf d8a2 2abf 1041 f4bd
000003c0: 3c6e 8fbf 7eb3 3f40 a7d3 2abf 9d7b 1c40
000003d0: 6a8b 97bf 5581 a1be ce3b 8a3f 3e2a 22c0
000003e0: 9980 eebe c45a 10c0 5099 1a40 ed24 20bf
000003f0: b540 68bf bbb2 f540 cb9a 7bbf 68a7 a3bf
0.20132543 -1.7447253 -0.8330774 7.1266475 4.6190042 -1.5733918 0.09430047 1.2067559
0.44108656 -0.7121503 -0.49592024 -2.0666366 0.28256267 0.23080799 -0.38087228 -0.9092295
3.994375 -0.15417656 -0.39427093 0.10773332 -1.7361251 -1.7781097 -0.98506796 -1.270143
-0.4855026 -2.1456907 0.5179511 0.4064987 -0.80241936 -4.2587667 -1.5491558 -0.9583651
0.06821688 -1.6144001 -0.82533973 6.0084796 3.3829463 -1.5384768 0.017350331 1.1918811
0.31503817 -0.6947384 -0.04547644 -2.10018 0.12633921 0.08005559 -0.44459447 -0.9084456
3.402893 0.03366489 -0.42981678 -0.21420257 -1.6711409 -1.645413 -0.65522057 -1.3236995
-0.4683382 -2.1205757 -0.28322542 0.2923642 -0.78382325 -2.924698 -1.499758 -1.0048782
1.0567389 -1.4877462 -0.8839231 6.071161 3.4962604 -1.5773847 1.6414491 1.3016807
0.36732972 -0.77681005 -0.041898787 -2.1283226 -0.05357622 -0.02963512 -0.36516827 -1.0578852
3.526229 -0.19472286 -0.40211433 0.71612716 -1.6649992 -1.4866506 -0.7693165 -1.4903567
-0.38033256 -2.1173646 -0.17350084 0.22732662 -0.7835958 -3.0381587 -1.4423233 -1.0473452
0.7305616 -1.2372099 -0.84795177 4.100972 2.4373798 -1.5906225 0.8341504 1.4277998
0.021052241 -0.7401692 1.3356463 -2.2752287 -0.11842125 -0.252761 -0.47818565 -0.81587315
2.4864254 1.117412 -0.45356533 0.5510992 -1.5642614 -1.3081024 -0.19363578 -1.6639504
-0.40237632 -2.1784887 0.04035369 0.028684651 -0.8321176 -0.828027 -1.3510507 -1.0374794
1.3705198 -0.8822048 -0.8229468 2.063096 1.2198048 -1.5376699 0.9273328 1.5646086
1.0336179 -0.7679532 1.3606224 -2.4512496 -0.41009647 -0.63631743 -0.5234598 -0.7719127
1.5256311 1.4877598 -0.5506237 1.0576841 -1.4451212 -0.9201566 0.12665856 -1.9635341
-0.45020068 -2.153812 0.6299784 -0.15881512 -0.836827 1.4486074 -1.2559044 -1.1344031
1.0427724 -0.41102454 -0.7964947 -0.9800195 -0.43063635 -1.5021737 -0.0935199 1.7078583
1.25169 -0.781715 2.3372636 -2.6906312 -0.15619859 -1.0267993 -0.6424033 -0.4883357
0.0832784 2.445067 -0.66942286 3.039841 -1.3303523 -0.5624129 0.65361345 -2.3175068
-0.46577042 -2.2045023 0.75425476 -0.4174302 -0.85690457 4.8411727 -1.1246043 -1.1446573
0.98546803 -0.1872997 -0.73172486 -3.0238457 -1.5155452 -1.5079703 -0.5457929 1.8418208
2.3026097 -0.79842526 2.9054377 -2.801202 0.116689 -1.3294622 -0.6206777 -0.23329392
-0.99153304 3.526486 -0.69058925 3.745291 -1.2484906 -0.38178253 1.0338656 -2.4737146
-0.61924726 -2.2236447 0.55940044 -0.58197176 -0.92524415 7.1247315 -1.064937 -1.1849034
2.2564323 -0.0039057306 -0.7214283 -3.6353316 -1.5437852 -1.4804513 0.41027406 1.9264939
2.6204367 -0.75414217 2.1952424 -3.0430815 0.3909916 -1.4853507 -0.6665473 -0.11926472
-1.1205516 2.9953303 -0.66729206 2.4450448 -1.1839421 -0.31543985 1.0799501 -2.5338283
-0.46582487 -2.25554 2.4156075 -0.62556344 -0.90723735 7.6780677 -0.9828307 -1.2785463

fc_out.bias f4 [9]
00000000: d61c 30c0 fbfe 7dc0 458e 26c0 8afd 34c0
00000010: 6e77 51c0 24aa 61c0 4a13 74c0 04f2 9ac0
00000020: 2890 9dc0
-2.75176 -3.9686878 -2.6024334 -2.8279748 -3.2729144 -3.5260096 -3.8136773 -4.842043
-4.923847
