Pendulum_DQN/saved_model/0404/DQN_Q_EP10.pt (torch, 12311 bytes, 6 tensors)

fc_1.weight f4 [64, 3]
0	0xbe7f93b4	-0.24958688
1	0x3f8fdcc5	1.1239249
2	0x3eb89f55	0.3605906
3	0xbef5ec32	-0.48031765
4	0x3f98cdcb	1.1937803
5	0x3d86ee24	0.065883905
6	0x3efe577e	0.49676126
7	0xbfda3496	-1.7047298
8	0xbed369b0	-0.4129157
9	0xbf3b4558	-0.73152685
10	0xc019d6e6	-2.4037414
11	0xbeb5af74	-0.35485423
12	0x3fcd785e	1.6052358
13	0x3f3778ab	0.716685
14	0xbeb544eb	-0.35404143
15	0xbf7e5c27	-0.99359363
16	0xbfb746ee	-1.4318521
17	0xbe91eb06	-0.2849962
18	0xbf419e96	-0.7563261
19	0xbde556d1	-0.111981995
20	0x3e2115fa	0.1573104
21	0xbec9e725	-0.39434162
22	0x3f17add6	0.5924963
23	0xbf1cbbcc	-0.61224055
24	0x3fc78af3	1.5589279
25	0x3fb16ff1	1.3862287
26	0xbd7e123d	-0.062029112
27	0xbf3362ca	-0.70072615
28	0xbdf6237b	-0.12018486
29	0x3eee96c9	0.46599415
30	0x3ebc0751	0.36724332
31	0x3f5fe4f7	0.8745875
32	0x3ed720ac	0.42017114
33	0xbe289f5c	-0.16467041
34	0x4006c47a	2.105742
35	0x3ee302dd	0.44338122
36	0x402da342	2.7130895
37	0x3ea5411c	0.32276237
38	0x3e8a3dee	0.27000374
39	0x3f3a6c60	0.7282162
40	0x3f77ca52	0.9679309
41	0x3e87a72c	0.2649473
42	0xbeb888af	-0.3604178
43	0x3f28a545	0.6587718
44	0xbf3b7b5f	-0.73235124
45	0xbf1b0df1	-0.6056815
46	0xbf8ca232	-1.0986998
47	0xbe8047ee	-0.25054878
48	0xbf101b59	-0.5629173
49	0xbec46441	-0.38357738
50	0xbe00ca3b	-0.12577145
51	0x3ec8c75c	0.392146
52	0xbfba5980	-1.4558563
53	0xbeceb407	-0.40371725
54	0x3fb39c72	1.4032118
55	0xbf978b9f	-1.1839484
56	0xbe65b960	-0.22433996
57	0xbe898034	-0.26855624
58	0xbf896e42	-1.0736773
59	0x3ed63da5	0.41843906
60	0xbde2e140	-0.11078119
61	0xbfad0d0b	-1.3519605
62	0x3eef81e8	0.46778798
63	0xbe4ffaf1	-0.2031057
64	0xc00e098e	-2.2193332
65	0xbe9ccfc2	-0.30627257
66	0x3ee19ae7	0.44063494
67	0x3ffc47d6	1.9709423
68	0x3ebebb27	0.3725216
69	0xbf82361c	-1.0172763
70	0x3ebc3d62	0.3676558
71	0x3e88918c	0.26673543
72	0xbe3c532d	-0.18391104
73	0x3f9b7d2b	1.2147573
74	0x3de8d7b5	0.11369268
75	0x3d91ba9e	0.071156725
76	0x3fb9cb26	1.4515121
77	0x3e4724dc	0.19447654
78	0xbe61ff1b	-0.22069971
79	0xbfca6d92	-1.5814688
80	0x3cce6cf9	0.025198447
81	0xbf2762f5	-0.6538537
82	0xbfb451ae	-1.4087427
83	0xbea886ed	-0.3291544
84	0xbf5c09ed	-0.85952646
85	0x3faf9323	1.3716778
86	0xbb9063d6	-0.0044064326
87	0xbeb0de9d	-0.3454484
88	0x3e6099cc	0.21933669
89	0xbf2dd657	-0.6790518
90	0xbfadb053	-1.3569435
91	0xbf106f50	-0.5641985
92	0xbd5d4406	-0.05401995
93	0x3eb3ba5d	0.3510312
94	0x3f3925b8	0.7232318
95	0x3e6a4e93	0.22881536
96	0xbe21fc8f	-0.15819
97	0xbfef5c29	-1.87
98	0xbdbf6438	-0.09345287
99	0xbf284d4c	-0.65742946
100	0xbe53e87f	-0.20694159
101	0xbe64c356	-0.2234014
102	0x3f82daa1	1.022297
103	0xbf594a81	-0.8487931
104	0xbf1ea635	-0.6197236
105	0xbf668b49	-0.9005628
106	0xbfa15100	-1.2602844
107	0xbec46cea	-0.38364345
108	0xbf2c912d	-0.6740902
109	0x3f791b00	0.97306824
110	0xbdc2ec4a	-0.09517725
111	0x3e07dcf7	0.13267885
112	0x3d16de46	0.03683307
113	0x3f1d814e	0.6152543
114	0xbfb10709	-1.3830272
115	0xbf8aeff6	-1.085448
116	0xbe6ea304	-0.23304373
117	0xbf89e3a9	-1.0772601
118	0x3f2f8e62	0.68576634
119	0x3eb17bbe	0.3466472
120	0xbd915d75	-0.07097904
121	0x40096b05	2.147157
122	0x3f03387b	0.5125806
123	0xbefe5a25	-0.4967815
124	0x3ff552b8	1.9165869
125	0x3ed8999f	0.42304704
126	0xbf0b0b65	-0.5431426
127	0x3ed6de89	0.41966656
128	0x3deb2adb	0.114827834
129	0xbecb0a4b	-0.3965629
130	0xbf92856e	-1.144697
131	0xbea952b1	-0.330709
132	0x3ef5adae	0.4798407
133	0x3f96e54e	1.1788728
134	0xbeeca119	-0.46216658
135	0xbeb60a19	-0.3555458
136	0x3faa725d	1.3316151
137	0x3cf0ad22	0.029379431
138	0xbefe0cee	-0.4961924
139	0x3f3e7ae7	0.74406284
140	0x3e42752d	0.18990012
141	0xbe39028c	-0.18067378
142	0xbf957830	-1.1677303
143	0x3e817ca4	0.25290406
144	0xbf0204ec	-0.5078876
145	0x3f83e6d3	1.0304817
146	0x3e104911	0.14090373
147	0x3e003681	0.12520792
148	0x3fcc40aa	1.5957234
149	0x3ea2bcb2	0.31784588
150	0x3e0b4c7b	0.13603394
151	0xc003c25c	-2.0587378
152	0x3e06326e	0.13105175
153	0xbf945da5	-1.1591078
154	0xbf859ce8	-1.0438509
155	0xbe05b4cb	-0.13057248
156	0xbf86bf8a	-1.0527203
157	0x3e0a42f5	0.13502105
158	0xbe5a9538	-0.21345985
159	0xbf57d474	-0.8430855
160	0xbf511393	-0.8167049
161	0xbe4fa06c	-0.2027604
162	0xbf9717cb	-1.1804136
163	0x3c7d2d4e	0.015452696
164	0xbe8dbab0	-0.27681494
165	0xbf0e968b	-0.5569846
166	0x3f5e293f	0.86781687
167	0x3e5cdcb5	0.21568568
168	0xbf057ba6	-0.521418
169	0x3f9a716e	1.2065866
170	0x3d3c843d	0.04602455
171	0xbf8e8cdd	-1.1136738
172	0xbf0f26ad	-0.5591839
173	0xbe1d1045	-0.15338238
174	0xbf6e5922	-0.93104756
175	0x3fc68dd0	1.5512028
176	0x3e8b8d6a	0.27256328
177	0xbf96d43e	-1.1783521
178	0xb9b5b330	-0.00034656515
179	0xbcb2962e	-0.021800127
180	0xbf2877c7	-0.65807766
181	0xc003b124	-2.0576868
182	0xbe3ce37a	-0.1844615
183	0xbe641540	-0.22273731
184	0x3fb87651	1.4411107
185	0x3edc463d	0.43022338
186	0xbef59cce	-0.47971195
187	0x3f9e0ad4	1.2347054
188	0x3e10ce46	0.14141187
189	0xbe749137	-0.2388352
190	0x3f831b08	1.0242624
191	0x3ef42bd4	0.47689688

fc_1.bias f4 [64]
0	0xbe8fd271	-0.28090242
1	0xbe9ef321	-0.31044868
2	0xbea9fe89	-0.33202007
3	0xbeb5c9f3	-0.35505638
4	0x3ca19738	0.019725427
5	0x3f323492	0.69611466
6	0x3f1c4a73	0.610511
7	0x3e274d82	0.1633816
8	0x3f08d7be	0.53454196
9	0xbe9bc261	-0.30421737
10	0xbe87e7f0	-0.26544142
11	0xbdfd5220	-0.1236918
12	0xbf80b45d	-1.0055043
13	0x3e794faf	0.24346803
14	0x3c49c29a	0.012314463
15	0x3eb17820	0.3466196
16	0x3f536257	0.8257193
17	0x3e5c8ffe	0.21539304
18	0xbf73657c	-0.9507673
19	0xbf441a16	-0.76602304
20	0xbe4653da	-0.19367924
21	0xbec2bdfa	-0.38035566
22	0x3bb1e962	0.0054294327
23	0x3f2d8289	0.67777306
24	0x3f3e23ca	0.7427336
25	0x3f5ae5d8	0.85506964
26	0xbec8e676	-0.39238328
27	0xbe4d94e6	-0.20076331
28	0x3f1634aa	0.5867411
29	0xbf4dbcab	-0.8036601
30	0xbf23ba0a	-0.6395575
31	0xbf040030	-0.51562786
32	0xbe610d52	-0.21977738
33	0x3f85e4f4	1.0460496
34	0x3cc9bb33	0.024625396
35	0xbe0adccb	-0.13560788
36	0xbf2e9530	-0.6819639
37	0xbf2d6190	-0.67726994
38	0x3f611ecb	0.8793761
39	0x3f5624ed	0.83650094
40	0xbea57677	-0.32316944
41	0x3d88c51f	0.06678223
42	0x3f11fc52	0.57025635
43	0xbe702e3d	-0.23455139
44	0xbdf73c7b	-0.120720826
45	0x3ee6455b	0.4497479
46	0x3e8be4e4	0.27323067
47	0xbe22b90c	-0.15890902
48	0x3f29a4f3	0.6626732
49	0x3f1e888d	0.6192711
50	0xbc5b9ac7	-0.013403601
51	0x3ec59a5a	0.38594323
52	0x3f3f1e63	0.7465574
53	0x3f715a8d	0.94278795
54	0x3f8dfb11	1.1092244
55	0x3e985961	0.2975569
56	0xbf1fd18e	-0.6242913
57	0x3a6778eb	0.0008829969
58	0x3f16afd1	0.58862025
59	0xbf1de8de	-0.6168345
60	0xbf1b1502	-0.6057893
61	0xbeb1b445	-0.34707847
62	0x3f468cbb	0.7755849
63	0xbf28a5d5	-0.6587804

fc_2.weight f4 [32, 64]
0	0xbe6139bc	-0.2199468
1	0xbea467ea	-0.3211053
2	0xbeb3b11a	-0.35096055
3	0xbf1a5823	-0.60290736
4	0xbe63f99d	-0.22263189
5	0xbf1b1822	-0.605837
6	0xbf008723	-0.502062
7	0x3eeb77b9	0.4598978
8	0xbdfca9d7	-0.12337082
9	0xbe95afdd	-0.29235736
10	0xbd5d5bbb	-0.05404256
11	0xbec20f65	-0.3790237
12	0xbe7ddb68	-0.24790728
13	0xbdd7149e	-0.10501979
14	0x3e938888	0.28815103
15	0xbf0a0db0	-0.53927135
16	0xbf180b9e	-0.59392726
17	0xbeb8e55a	-0.3611248
18	0xbffc0620	-1.9689369
19	0x3e9ff04d	0.31238022
20	0xbd393968	-0.045220762
21	0xbf1d48ff	-0.6143951
22	0xbd79dc50	-0.061001122
23	0xbe99f71e	-0.30071348
24	0xbe985fcf	-0.29760596
25	0xbe2b2ba6	-0.1671587
26	0xbee285a6	-0.4424259
27	0xbe8a73e4	-0.27041543
28	0xbe9a5b1d	-0.3014764
29	0x3ebd613d	0.3698825
30	0xbe85f933	-0.26166686
31	0xbe3a7c0c	-0.18211383
32	0xbf4811f8	-0.7815242
33	0xbf0f5880	-0.55994415
34	0xbe8f4d18	-0.27988505
35	0xbe55c13d	-0.20874496
36	0xbf0560cb	-0.5210082
37	0x3c9e5ff5	0.019332865
38	0xbf2154f2	-0.6302024
39	0xbece4b9d	-0.40292063
40	0xbe68ae9a	-0.22722855
41	0xbe928344	-0.28615773
42	0xbe1331ee	-0.14374515
43	0xbe11d3c6	-0.14240941
44	0x3f0775d4	0.52914166
45	0xbe98d8bd	-0.29852858
46	0xbebb2011	-0.36547902
47	0xbebcd413	-0.3688055
48	0xbe8b551c	-0.2721337
49	0xbe61318e	-0.2199156
50	0xbf2d46c8	-0.6768613
51	0xbf31611b	-0.69288796
52	0xbec99ffe	-0.39379877
53	0xbf1ce391	-0.6128474
54	0xbf1c67ef	-0.6109609
55	0xbea00407	-0.31253073
56	0xbecb3797	-0.3969085
57	0xbee24d1b	-0.44199452
58	0xbe8b4edf	-0.2720861
59	0xbe9d6dd8	-0.30747867
60	0xbf3ef742	-0.74596035
61	0xbec37357	-0.38173935
62	0xbea93e00	-0.33055115
63	0xbea9b152	-0.33143097
64	0x3e8f84a3	0.2803088
65	0x3e716072	0.23571947
66	0x3dbe9421	0.09305597
67	0x3eeb0e66	0.45909423
68	0x3e667fae	0.22509643
69	0x3f1d2dec	0.61398196
70	0x3eff26e1	0.4983435
71	0xbef0f864	-0.47064507
72	0x3a147c83	0.00056643056
73	0x3d74ca17	0.05976304
74	0xbcdca209	-0.026932733
75	0x3e8428f8	0.25812507
76	0x3f40cc50	0.75311756
77	0x3e0fa024	0.14025933
78	0xbec683f5	-0.3877255
79	0x3ecfe904	0.40607464
80	0x3ec06b5f	0.37581918
81	0x3ea582c2	0.32326323
82	0x4006eb1b	2.1080997
83	0xbed43f40	-0.41454506
84	0xbe718d46	-0.23589048
85	0x3f144489	0.57917076
86	0x3e26e8d1	0.1629975
87	0x3e37dcc1	0.17955305
88	0x3e954a32	0.2915817
89	0x3cf42c4a	0.029806275
90	0x3e2daca0	0.16960382
91	0x3e0388b9	0.12845124
92	0x3ec79c99	0.38986662
93	0xbf1d7c6b	-0.6151797
94	0x3db8614c	0.09002933
95	0x3e12cac9	0.14335169
96	0x3f357d82	0.70894635
97	0x3eec53a5	0.46157566
98	0x3d2592d8	0.040423244
99	0x3da01f6c	0.07818493
100	0x3edff688	0.43742776
101	0xbcbfbd76	-0.023405772
102	0x3f1b20d1	0.6059695
103	0x3e9b8945	0.30378166
104	0x3e90f753	0.28313693
105	0x3e10ce77	0.1414126
106	0x3e92fa21	0.28706458
107	0x3db5174e	0.08842336
108	0xbf201438	-0.6253085
109	0x3eab2e9a	0.33433992
110	0x3eb652b3	0.3560997
111	0x3efe1e76	0.49632615
112	0x3e89ee71	0.2693973
113	0x3d6e900c	0.058242843
114	0x3ef065e6	0.46952742
115	0x3f01eb56	0.5074972
116	0x3ec436d5	0.38323084
117	0x3f04dfb6	0.51903856
118	0x3ef38aa8	0.47566724
119	0x3e81c773	0.2534748
120	0x3ebd168e	0.3693127
121	0x3ec51e5e	0.3849973
122	0x3eb6cc66	0.3570282
123	0x3ea7140e	0.32632488
124	0x3f4ff846	0.8123821
125	0x3e547128	0.2074629
126	0x3e4ff482	0.20308116
127	0x3e8c3cc7	0.2739012
128	0x3ed1246b	0.40848097
129	0x3e63a9b4	0.22232705
130	0x3e6bacf2	0.23015192
131	0x3ee6cd36	0.4507844
132	0x3edd4e74	0.43223917
133	0x3edc8806	0.43072528
134	0x3f09a52b	0.5376765
135	0xbf17caf5	-0.5929406
136	0xbd8a258e	-0.06745444
137	0x3e05b4af	0.13057207
138	0x3dff89c3	0.12477448
139	0x3e0ff3a4	0.14057785
140	0x3e9a6c00	0.30160522
141	0xbdb1e55e	-0.086863264
142	0xbe59ec9b	-0.21281664
143	0x3ef8f517	0.4862449
144	0x3ef3a9dd	0.47590533
145	0x3eb809aa	0.35944873
146	0x400d8f06	2.2118545
147	0xbe922f05	-0.28551498
148	0xbcf1e4d0	-0.029528052
149	0x3f0673db	0.5252053
150	0x3da2be1c	0.07946417
151	0x3e568031	0.20947339
152	0x3e60f286	0.21967515
153	0x3e296b1d	0.16544767
154	0x3e995631	0.2994857
155	0x3e434bb9	0.19071855
156	0x3e840a9a	0.25789338
157	0xbe833076	-0.2562291
158	0x3d38dbb3	0.045131397
159	0x3e3a2e51	0.18181731
160	0x3f1fb5c1	0.6238671
161	0x3f0cf765	0.55064994
162	0x3e9a7a38	0.3017137
163	0x3d9cf6e8	0.07664281
164	0x3e8ca534	0.2746979
165	0xbc7a7104	-0.015285734
166	0x3f097218	0.5368972
167	0x3ed60728	0.41802335
168	0x3e4f2101	0.20227434
169	0x3e331e21	0.17491962
170	0x3e5ba104	0.21448141
171	0xbcba1517	-0.022715135
172	0xbf093edf	-0.5361156
173	0x3e2816cd	0.16414948
174	0x3e791921	0.24325992
175	0x3f030c6f	0.5119085
176	0x3e2d3639	0.16915216
177	0x3e025f9c	0.12731785
178	0x3f306c88	0.68915606
179	0x3f158ec5	0.58420974
180	0x3eac61a7	0.33668253
181	0x3f1d8329	0.6152826
182	0x3ee807da	0.4531849
183	0x3e01d108	0.12677395
184	0x3ec3f68d	0.3827404
185	0x3eb43ffb	0.35205063
186	0x3eb0a853	0.3450342
187	0x3ecccbe9	0.3999932
188	0x3f21bf46	0.63182485
189	0x3e4ef92d	0.2021224
190	0x3e8149bc	0.25251567
191	0x3e206642	0.15664008
192	0xbf907b8e	-1.1287706
193	0x3e0ee20f	0.13953422
194	0x3e0abab2	0.13547781
195	0xbf2a2721	-0.66465956
196	0x401ec893	2.480992
197	0xbf523d43	-0.8212473
198	0xbe8b539b	-0.27212223
199	0xbf5a2bf7	-0.85223335
200	0x3f86219d	1.0479008
201	0xbf8d0b23	-1.1019024
202	0xbc5deddc	-0.01354548
203	0xbf3a25fd	-0.72714216
204	0x3f697a36	0.91202104
205	0x3ec5e974	0.38654673
206	0xbfbaf88c	-1.46071
207	0xbf4d90c6	-0.8029903
208	0x3f8a763f	1.0817336
209	0xbdccf86c	-0.1000832
210	0x3f919097	1.137225
211	0xbf049c15	-0.5180066
212	0x3d969f2c	0.073545784
213	0xbf87cc6f	-1.0609263
214	0xbe19e49a	-0.15028611
215	0xbebf65b9	-0.37382296
216	0x3e7730be	0.24139687
217	0x3f07a39d	0.5298403
218	0x3f596367	0.849173
219	0xbf24b404	-0.6433718
220	0xbf11d903	-0.5697176
221	0xbf244215	-0.64163333
222	0xbf3fb56b	-0.74886197
223	0xbf96b0ea	-1.177274
224	0x3f227bb5	0.6347001
225	0xbea826bf	-0.3284206
226	0x3ee2ad91	0.44273046
227	0xbf132e79	-0.57492787
228	0x3f56ff28	0.8398309
229	0xbe2f7deb	-0.17137878
230	0xbede063b	-0.43364128
231	0xbe8a2777	-0.26983234
232	0xbf28f96f	-0.66005605
233	0xbf170429	-0.5899072
234	0xbd6a806c	-0.05725138
235	0xbf1a09e2	-0.6017133
236	0x3ea34d67	0.3189499
237	0xbce6fc0e	-0.02819636
238	0xbec39c66	-0.3820526
239	0x3f6da880	0.92835236
240	0x3d487a4e	0.048944764
241	0x3eaafbb2	0.33395153
242	0x3f95b532	1.1695921
243	0xbe5ba4d6	-0.21449599
244	0xbe46a88b	-0.19400232
245	0xbe8feafe	-0.28108972
246	0xbf0d8419	-0.5527969
247	0xbe5bd77e	-0.21468922
248	0x3e614d17	0.22002064
249	0xbeddf8c2	-0.4335385
250	0xbe9f7552	-0.31144196
251	0xbf57a874	-0.84241414
252	0xbf8d3543	-1.1031879
253	0xbf7e2b39	-0.992847
254	0x3e7f130b	0.24909608
255	0xbf5db57b	-0.8660504

fc_2.bias f4 [32]
0	0xbe9bcbfe	-0.3042907
1	0x3eca9a36	0.3957078
2	0x3ec310fd	0.380989
3	0x3fa22ef3	1.2670578
4	0x3cde38ed	0.027126754
5	0x3e8ed0ee	0.27893776
6	0xbebe0731	-0.37114862
7	0xbdbabc88	-0.09117991
8	0xbedb4493	-0.42825755
9	0x3ea5c1a4	0.323743
10	0xbe8fef2a	-0.28112155
11	0x3e6cfe19	0.23143806
12	0x3e5c5357	0.21516167
13	0x3e432a59	0.19059123
14	0x3ed768d2	0.4207216
15	0x3ebf2eec	0.37340486
16	0xbe8189a4	-0.25300324
17	0xbeea291a	-0.45734483
18	0x3d114d5c	0.035474166
19	0xbeba4386	-0.3637964
20	0x3e23bffd	0.15991206
21	0x3ea4507a	0.3209265
22	0x3ed5dd49	0.4177039
23	0x3cbcc186	0.023041498
24	0x3e5a56c8	0.21322167
25	0xbdde2c2c	-0.10848269
26	0xbb9e8907	-0.0048381123
27	0x3e985273	0.29750404
28	0x3ed71ff0	0.42016554
29	0xbc3dd781	-0.011587025
30	0x3ec3c2d0	0.38234568
31	0x3e9024e4	0.28153145

fc_out.weight f4 [9, 32]
0	0x3f099fbb	0.53759354
1	0xbf0c290f	-0.5475015
2	0xbf089732	-0.53355706
3	0x3fca02aa	1.5782063
4	0xbc3785c6	-0.011201328
5	0xbee32f20	-0.4437189
6	0x3f02fb5e	0.51164806
7	0x3ef4d2d6	0.47817105
8	0x3ee39916	0.44452733
9	0xbeb9c8b2	-0.3628593
10	0xbb9cde76	-0.0047872616
11	0xbe25e607	-0.1620103
12	0x3f51d8d4	0.8197148
13	0xbe75f602	-0.24019626
14	0xbef2ab53	-0.47396335
15	0xbeb006f7	-0.34380314
16	0x3eab39b2	0.33442456
17	0xbdb0b01c	-0.0862734
18	0xbf1afc1a	-0.60540926
19	0x3e4ab18f	0.19794296
20	0xbf7857f8	-0.9700923
21	0x3cdb596f	0.026776044
22	0x3f8bd2fd	1.0923764
23	0xbf3acd82	-0.7296983
24	0xbe330cec	-0.17485398
25	0x3e0b01f6	0.13574967
26	0x3caca0b9	0.021072732
27	0xbe081231	-0.1328819
28	0xbebed724	-0.37273514
29	0x3d888dfc	0.06667706
30	0xbf0807ca	-0.53136885
31	0xbe44d367	-0.19221269
32	0x3f249c03	0.64300555
33	0xbf125336	-0.5715822
34	0xbf119138	-0.5686221
35	0x3fc7a7b4	1.5598054
36	0x3e1fa45e	0.15590045
37	0xbed78f99	-0.42101744
38	0x3f09a3d8	0.5376563
39	0x3e68c1ef	0.2273023
40	0x3ea49912	0.32148033
41	0xbebd4ec7	-0.36974165
42	0xbcf09d70	-0.029371947
43	0xbe16ad8f	-0.14714645
44	0x3f43ca08	0.7648015
45	0xbead36c6	-0.3383085
46	0xbeaffbc1	-0.3437176
47	0xbed41256	-0.4142024
48	0x3e28095f	0.16409825
49	0x3d69029b	0.05688725
50	0xbf1add26	-0.60493696
51	0x3e61aa61	0.2203765
52	0xbf7a0d51	-0.9767657
53	0xbd659178	-0.056046933
54	0x3f426b1b	0.7594468
55	0xbf20c933	-0.62807006
56	0xbe3a22d0	-0.18177342
57	0x3e2eb046	0.1705943
58	0x3d78a463	0.060703646
59	0xbea67acf	-0.3251557
60	0xbe43ed76	-0.19133553
61	0x3d772814	0.060340956
62	0xbec1fb9f	-0.37887284
63	0xbeb44d51	-0.35215238
64	0x3eff0d49	0.49814823
65	0xbee71da4	-0.45139802
66	0xbf04df78	-0.51903486
67	0x3fd031ca	1.6265194
68	0xbdde57d7	-0.10856598
69	0xbeed9bf5	-0.46408048
70	0x3e914cb6	0.28378838
71	0x3e84a4ec	0.25907075
72	0x3e92c5f8	0.28666663
73	0xbe9fa376	-0.31179398
74	0x3c796db3	0.015223908
75	0xbe982e33	-0.29722747
76	0x3f07829f	0.52933687
77	0xbeaa7478	-0.33291984
78	0xbec9789d	-0.39349833
79	0xbebd5008	-0.36975121
80	0x3e882912	0.26593834
81	0x3e92510f	0.28577468
82	0xbf1cef04	-0.6130221
83	0x3d9d1045	0.07669119
84	0xbf725c27	-0.94671863
85	0xbe1b0c53	-0.1514142
86	0x3f56ef02	0.83958447
87	0xbf1df32f	-0.61699194
88	0xbe2e4052	-0.17016724
89	0xbdadf775	-0.08494464
90	0x3dc1fcbf	0.094720356
91	0xbe8bc1ab	-0.27296194
92	0xbebf9258	-0.3741634
93	0x3e3297ea	0.17440763
94	0xbe7fe3f7	-0.24989305
95	0xbeb082ab	-0.34474692
96	0x3ed0e5fd	0.40800467
97	0xbeadc89c	-0.33942115
98	0xbefb4273	-0.49074134
99	0x3fdb46c2	1.7130969
100	0x3d41d73a	0.047324397
101	0xbeb8d7c6	-0.36102122
102	0x3ea0817e	0.31348795
103	0x3e1b3604	0.15157324
104	0x3e34df92	0.1766341
105	0xbe2d3b88	-0.1691724
106	0xbbe5ba5b	-0.0070107407
107	0xbebfa546	-0.3743078
108	0x3ed10e42	0.4083119
109	0xbec4ba63	-0.38423452
110	0xbe9bd20b	-0.30433688
111	0xbe94e76b	-0.29082808
112	0x3e9b1a41	0.30293468
113	0x3ee56906	0.4480669
114	0xbf24ca23	-0.64370936
115	0x3e8bab7b	0.27279267
116	0xbf777bf6	-0.96673524
117	0xbe96a804	-0.2942506
118	0x3f25178e	0.64489067
119	0xbf1efd41	-0.62105185
120	0xbed31bbb	-0.41232094
121	0x3e0f65d9	0.14003696
122	0x3d394a1a	0.045236684
123	0xbe93bfe9	-0.28857353
124	0xbe73fdbe	-0.23827264
125	0xbc0bbccd	-0.0085289
126	0xbef5ba3e	-0.47993654
127	0xbeb57cd9	-0.35446814
128	0x3e229349	0.15876497
129	0xbec3a705	-0.38213363
130	0xbe9ea2bd	-0.30983534
131	0x3fd813ae	1.6881006
132	0xbc91f961	-0.017819108
133	0xbed76b5d	-0.420741
134	0x3db8714b	0.09005984
135	0x3e20473f	0.15652178
136	0x3ead847c	0.3389014
137	0xbec56564	-0.38553917
138	0x3e301cef	0.17198537
139	0xbe37622a	-0.1790854
140	0x3e7a8f02	0.24468616
141	0xbe9fee2e	-0.31236404
142	0xbec002a2	-0.3750201
143	0xbeb53c4e	-0.3539757
144	0xbd2a1b5f	-0.04153001
145	0x3f03761f	0.51352113
146	0xbf29d126	-0.6633476
147	0x3ee04c1d	0.4380807
148	0xbf6ee43e	-0.9331702
149	0xbecc9216	-0.39955205
150	0x3f4a7290	0.7908106
151	0xbf19bb36	-0.60051286
152	0xbea5f2cd	-0.32411805
153	0xbe3dab06	-0.18522272
154	0x3e1c7682	0.15279582
155	0xbed96872	-0.42462498
156	0xbeb76848	-0.35821748
157	0xbd4d29c9	-0.050088678
158	0xbe907ee9	-0.28221825
159	0xbea1d49c	-0.3160752
160	0x3e418251	0.18897368
161	0xbeb54bac	-0.35409296
162	0xbe80fb76	-0.2519185
163	0x3fd29815	1.6452662
164	0x3e07f147	0.13275634
165	0xbe9ca294	-0.30592787
166	0x3ee2832e	0.44240707
167	0x3e23067a	0.1592044
168	0x3eae2898	0.34015346
169	0xbed11cdc	-0.4084233
170	0x3e9e3c2f	0.3090529
171	0xbea204a0	-0.31644154
172	0x3d8342d1	0.064092286
173	0xbe2af12c	-0.16693562
174	0xbece324d	-0.4027275
175	0xbede11f7	-0.4337308
176	0x3d86feb0	0.065915465
177	0x3edfb7bf	0.43694875
178	0xbf2b339b	-0.6687562
179	0x3f0c4b30	0.5480223
180	0xbf62e94e	-0.88637245
181	0xbf028125	-0.5097831
182	0x3f27e552	0.6558429
183	0xbf10af3f	-0.56517404
184	0xbecdcdb0	-0.4019599
185	0x3e09246f	0.13392805
186	0xbd699d0f	-0.05703455
187	0xbe9c10cb	-0.30481562
188	0xbed2c77e	-0.41167825
189	0x3cda1374	0.026620604
190	0xbe7023de	-0.23451182
191	0xbed1fef8	-0.41014838
192	0x3eb8115d	0.35950747
193	0xbe3ca30c	-0.18421572
194	0xbe25dc66	-0.16197357
195	0x3fe0dd1d	1.7567478
196	0x3d279bad	0.04091995
197	0xbe72610d	-0.23669834
198	0x3ea3643b	0.31912407
199	0x3e641f9f	0.22277687
200	0x3f04ac0d	0.5182503
201	0xbe910b56	-0.2832896
202	0xbcbb1d1c	-0.022841029
203	0xbec88d71	-0.3917041
204	0xbdd8b526	-0.10581426
205	0xbedfc657	-0.4370601
206	0xbe369a59	-0.17832316
207	0xbf000406	-0.5000614
208	0xbe2174d5	-0.15767224
209	0x3ea83aaa	0.32857257
210	0xbf2da699	-0.6783233
211	0x3efb5b39	0.49093035
212	0xbf592c23	-0.8483297
213	0xbf0f2505	-0.5591586
214	0x3f121386	0.5706104
215	0xbf0fb306	-0.56132543
216	0xbea4f875	-0.32220808
217	0x3d8985f6	0.06715004
218	0x3de9b5d0	0.11411631
219	0xbecac8d9	-0.3960636
220	0xbef39edb	-0.47582135
221	0xbe053191	-0.1300719
222	0xbee3a25b	-0.44459805
223	0xbeca2eb1	-0.39488748
224	0x3e6f4405	0.23365791
225	0xbe80c433	-0.25149688
226	0xbe0b4ea9	-0.13604225
227	0x3fd76502	1.68277
228	0x3d57124f	0.052507695
229	0xbebc28d3	-0.36749896
230	0x3e94f350	0.29091883
231	0x3e079a75	0.13242514
232	0x3ec8131b	0.39077076
233	0xbee88bc8	-0.45419145
234	0x3db06188	0.086123526
235	0xbef54502	-0.4790421
236	0xbe8b722c	-0.27235544
237	0xbea4633b	-0.32106957
238	0xbe878fb5	-0.26476827
239	0xbe873777	-0.26409504
240	0xbd75ee1d	-0.060041536
241	0x3ed28c86	0.41122836
242	0xbf31c91e	-0.69447505
243	0x3e3109e5	0.1728893
244	0xbf61c85d	-0.88196355
245	0xbf2143c3	-0.6299402
246	0x3e638ef6	0.22222504
247	0xbf0c3197	-0.5476317
248	0xbef267f0	-0.47344923
249	0x3da20c7f	0.0791254
250	0xbb96f96d	-0.0046073706
251	0xbed6c3d7	-0.4194629
252	0xbef02e07	-0.46910116
253	0xbbfa4f56	-0.007638852
254	0xbe563c47	-0.20921431
255	0xbe9d3af8	-0.30709052

fc_out.bias f4 [9]
0	0xbee5f839	-0.4491594
1	0xbeb7e0e0	-0.35913754
2	0xbeb7f35a	-0.3592785
3	0xbebdfcc9	-0.37106922
4	0xbeb3b1e6	-0.35096663
5	0xbe984bbf	-0.2974529
6	0xbeb11527	-0.3458645
7	0xbe877250	-0.264544
8	0xbe82c63f	-0.25541875
