Pendulum_DQN/saved_model/0404/DQN_Q_EP420.pt (torch, 12311 bytes, 6 tensors)

fc_1.weight f4 [64, 3]
-0.090442866 3.8043346 0.7914143 -0.2513489 -1.3182297 -0.47582716 0.015740322 -0.3340482
0.72696346 -0.42831394 0.89709634 0.60851276 1.9812334 -2.3708458 -0.7217127 -1.23862
-1.5499389 -0.29345942 -2.5409007 -0.98543805 -0.078279056 -0.31476948 -2.752332 -0.22546986
3.862213 -2.7132301 -0.89313334 -1.2437316 2.6522129 0.7662063 3.0607111 7.1594143
1.7694268 -1.4063456 4.8599167 0.8728567 3.9489546 2.055045 0.09500847 1.6337458
1.9862204 0.63597035 0.14630133 -4.138122 -0.91484267 -0.39771232 -4.1230984 -0.72498715
0.30502674 -0.058590353 -0.017732782 4.0591965 2.0238426 0.9018572 3.9646192 1.4761553
1.4953016 -0.3117251 3.1209013 0.67818147 1.8916488 4.3004293 0.83164936 1.0536824
-2.601251 0.16204008 2.0235279 2.947933 0.31591076 -1.3597078 0.45250937 0.2760379
-0.2920217 1.521087 0.20169775 2.1853464 -0.58904946 -0.63259196 -2.884064 0.785941
0.5573639 2.3605027 -2.9544039 -0.75430125 -2.2549906 -1.127002 -0.46388808 1.6696953
-6.2488084 -1.2608446 -2.8957803 -2.2677171 -0.227376 2.085317 2.449071 0.63083893
-3.6337304 -4.1534843 0.08817212 -1.444446 0.16737857 -0.36568984 0.25030848 -0.6886003
0.6329148 1.7391379 -3.0669258 -0.74872893 -3.3945572 -1.5675212 -0.017715275 -0.4037923
6.921108 1.2518277 -2.4226573 -0.31760457 0.2504916 -2.4186866 2.13522 0.6063742
1.232468 3.1599898 0.50935054 -3.7065618 2.3541267 -0.35897598 -1.2304265 -0.33201137
0.049191743 3.1423097 -1.809294 -0.68870705 3.8349855 -1.480653 -1.4184505 0.93968314
1.5623945 -0.541472 -0.7155238 -2.0887334 -0.36217314 -1.117262 2.4333117 0.9440774
-0.5791322 -0.18971096 -0.76685274 -3.1088655 4.9074264 0.40575922 2.992258 3.6462967
1.153975 -1.7746485 -1.6922907 0.2716952 0.165848 -0.052082997 -0.019236006 -2.065889
-0.014327226 -0.028990077 -1.1359068 0.21779907 -0.17139249 0.13347457 0.12680292 0.015921459
-0.18751141 -1.5290655 -0.40975487 -2.7317662 -0.16093673 0.14219125 -0.7345828 2.5716825
0.52763736 -1.8653117 0.04258791 0.39496133 2.104832 -6.723724 -1.5709655 1.7207747
2.9259834 0.77367777 1.1266031 1.4766414 0.028962664 1.3742379 6.5901933 1.0469601
00000000: 1c3a b9bd 387a 7340 219a 4a3f ceb0 80be
00000010: c0bb a8bf 9e9f f3be d9f1 803c 5e08 abbe
00000020: 471a 3a3f f74b dbbe 1ba8 653f 7ec7 1b3f
00000030: 0e99 fd3f f0bb 17c0 2ac2 38bf 1a8b 9ebf
00000040: 6664 c6bf 5040 96be 1e9e 22c0 ab45 7cbf
00000050: c550 a0bd 7729 a1be 3526 30c0 92e1 66be
00000060: 7f2e 7740 90a5 2dc0 63a4 64bf 9932 9fbf
00000070: dbbd 2940 1926 443f b1e2 4340 ec19 e540
00000080: 947c e23f 2203 b4bf 7084 9b40 8973 5f3f
00000090: acbb 7c40 db85 0340 cd93 c23d 951e d13f
000000a0: 783c fe3f f4ce 223f 04d0 153e 7f6b 84c0
000000b0: 2133 6abf f3a0 cbbe 6cf0 83c0 c298 39bf
000000c0: 772c 9c3e 70fc 6fbd 5744 91bc f0e4 8140
000000d0: a386 0140 1de0 663f 52bc 7d40 a8f2 bc3f
000000e0: 0b66 bf3f 6f9a 9fbe d9bc 4740 4d9d 2d3f
000000f0: 8c21 f23f 1e9d 8940 f9e6 543f 11df 863f
00000100: e57a 26c0 d6ed 253e 7b81 0140 efaa 3c40
00000110: 0ebf a13e e80a aebf 4faf e73e d754 8d3e
00000120: de83 95be fbb2 c23f db89 4e3e b7dc 0b40
00000130: f2cb 16bf 8cf1 21bf 8194 38c0 6e33 493f
00000140: 67af 0e3f 7a12 1740 f414 3dc0 e319 41bf
00000150: c451 10c0 9a41 90bf bd82 edbe 93b8 d53f
00000160: 3df6 c7c0 5b63 a1bf 7754 39c0 4722 11c0
00000170: 41d5 68be d575 0540 94bd 1c40 a97e 213f
00000180: 0a8f 68c0 58e9 84c0 9693 b43d 9be3 b8bf
00000190: 4a65 2b3e b33b bbbe 6f28 803e 1c48 30bf
000001a0: b406 223f 129c de3f 8348 44c0 b3ac 3fbf
000001b0: 6d40 59c0 89a4 c8bf a01f 91bc ddbd cebe
000001c0: b779 dd40 e43b a03f d10c 1bc0 119d a2be
000001d0: 6f40 803e c3cb 1ac0 72a7 0840 573b 1b3f
000001e0: 83c1 9d3f 463d 4a40 cc64 023f 4f38 6dc0
000001f0: 03aa 1640 b3cb b7be 9e7e 9dbf 65fd a9be
00000200: 487d 493d 9a1b 4940 f296 e7bf 1b4f 30bf
00000210: 6770 7540 0a86 bdbf c98f b5bf 138f 703f
00000220: 8bfc c73f e99d 0abf 912c 37bf cfad 05c0
00000230: c26e b9be 7102 8fbf 61bb 1b40 0eaf 713f
00000240: 0242 14bf 9743 42be 7650 44bf a7f7 46c0
00000250: a309 9d40 acbf cf3e 2881 3f40 ed5c 6940
00000260: 74b5 933f af27 e3bf fb9c d8bf a21b 8b3e
00000270: 0fd4 293e fb54 55bd d494 9dbc 8637 04c0
00000280: bebc 6abc 997c edbc 6565 91bf b806 5f3e
00000290: 8381 2fbe 8fad 083e a0d8 013e b86d 823c
000002a0: fe02 40be 6bb8 c3bf 64cb d1be 42d5 2ec0
000002b0: 99cc 24be 959a 113e 9e0d 3cbf 7296 2440
000002c0: 3e13 073f 89c2 eebf a970 2e3d 5f38 ca3e
000002d0: 91b5 0640 bf28 d7c0 6615 c9bf 5842 dc3f
000002e0: 5043 3b40 bf0f 463f 8834 903f 9602 bd3f
000002f0: 1c43 ed3c 07e7 af3f dde2 d240 ca02 863f

fc_1.bias f4 [64]
1.0351493 -0.66939247 -0.90372884 -0.35940686 -1.2997742 0.93813866 -0.3808106 -0.7509023
0.83106107 -1.3295985 -3.9641547 0.5847291 -1.9906975 -1.336648 -0.63941354 -0.56242335
-0.6267804 -3.3689792 -5.4867396 -0.9594176 -3.1199086 -1.3033085 -3.0736666 0.3267835
-0.05544351 -0.6526456 -0.3674485 -1.7535375 -0.8503291 -2.838423 -2.8253157 -1.8445667
-3.4114263 1.1505446 0.36552095 -1.2077558 -1.7472812 -0.8224245 0.98054194 1.95815
-0.8334263 -3.3747838 0.52348757 -2.7390666 -4.8829875 0.4797421 -0.15693235 -1.1285039
-0.5775084 -2.249935 -1.8246558 -0.009594692 -0.4924739 0.47334096 1.7163237 -0.4487292
-0.6069209 0.7100893 1.3236008 -0.6958432 -2.8424315 -1.1554903 -1.1414165 -2.4782457
00000000: c67f 843f 4e5d 2bbf c65a 67bf 2d04 b8be
00000010: 005f a6bf db29 703f 9bf9 c2be 223b 40bf
00000020: 6bc0 543f 4930 aabf b6b4 7dc0 ceb0 153f
00000030: 2dcf febf 4817 abbf 9bb0 23bf fafa 0fbf
00000040: ae74 20bf 5b9d 57c0 5f93 afc0 649c 75bf
00000050: 95ac 47c0 d0d2 a6bf f4b6 44c0 2b50 a73e
00000060: bc18 63bd c813 27bf 3622 bcbe eb73 e0bf
00000070: 2baf 59bf b9a8 35c0 f9d1 34c0 c31a ecbf
00000080: cf54 5ac0 0c45 933f 9025 bb3e be97 9abf
00000090: e9a6 dfbf 698a 52bf cc04 7b3f a9a4 fa3f
000000a0: 6d5b 55bf 75fc 57c0 4803 063f de4c 2fc0
000000b0: 6f41 9cc0 c2a0 f53e e0b2 20be d172 90bf
000000c0: 97d7 13bf effe 0fc0 528e e9bf 0e33 1dbc
000000d0: 8a25 fcbe bf59 f23e 7fb0 db3f d5bf e5be
000000e0: 2b5f 1bbf 6ac8 353f c06b a93f c822 32bf
000000f0: 66ea 35c0 1be7 93bf f019 92bf 949b 1ec0

fc_2.weight f4 [32, 64]
-2.0170605 -0.80170536 0.5553655 -1.2696252 0.38307327 -0.14806193 -1.1281878 0.3351832
-1.7778913 1.7613808 0.9123696 -0.59579706 -6.4206758 -1.2388035 0.41888753 -0.02791377
1.204676 -3.1039476 7.2302504 1.6041602 0.46888152 -1.5945537 1.1597328 0.576149
-1.3052475 -1.4998757 0.023966977 -2.4816334 0.58604395 0.90372926 2.9335666 -1.4062152
-6.9036117 -0.6939418 -1.5461873 -0.40003031 0.73501253 0.44592604 -0.06200569 -1.5965482
-1.6055126 2.0056005 -0.672647 -1.8604958 -0.08914405 -1.7540628 -0.37447658 0.7895232
1.2208015 2.508294 -3.8062515 -1.2140267 0.97077906 -1.664491 -1.3485397 1.0774903
-0.18900698 0.4551226 -1.6776394 -0.42130044 -0.37076047 -1.8255087 0.017318102 -0.9127214
1.1797583 0.41870856 -1.9824046 -0.52652127 -3.1005404 0.527531 0.8096877 0.4907197
-1.515828 -1.3673475 -1.7600521 0.3467983 -0.66946626 -0.70751536 -0.6583794 -0.13089791
0.22843072 2.2266467 -4.5552816 -1.7056639 -0.2353763 -3.4795012 -0.766404 -0.8598894
1.1496172 0.5158515 -1.3573828 3.3093317 -1.4488058 0.46490017 0.8172377 -2.018629
1.0913323 1.215848 -0.34342858 -0.300407 0.85324264 -0.013627972 0.7656135 1.1892182
0.090089716 -2.941034 0.019249402 -9.06633 -23.965109 1.3563193 -0.26477817 -1.309788
1.7118711 0.3289867 -0.6995096 2.053598 0.23113196 -0.23203687 1.3613734 0.11537315
0.2453031 0.61488444 1.1811985 1.1371894 0.3033041 -1.1010165 -0.59561825 0.8860302
1.6543405 -0.40207326 -0.6035345 -0.26854223 -1.7810061 0.2542147 -0.42273605 0.21729465
0.79697883 -1.1718173 0.6241822 0.49223992 -0.49283794 -0.047164604 0.08932082 0.54959506
0.12204952 0.98531294 0.56968427 -1.0549128 -1.1139497 -0.36925358 -0.44525626 -1.2195425
0.590021 -0.11573326 -0.24662746 -0.72519183 -0.8729395 0.26777402 -2.269151 -0.20776035
2.285923 1.6617496 1.2836186 -0.6622817 -0.95456064 -0.07685799 -0.4172149 1.0079784
0.49370208 -0.24895284 -0.0885249 -2.2870243 -3.4792163 -0.6021311 -0.6342904 -1.2206727
-0.5675484 -1.3502558 1.6172593 0.19240944 0.1827974 1.4481388 1.0902147 0.1082665
-0.74142456 -1.0619191 1.3529918 -0.4552036 -0.09888587 -0.10128125 0.046214614 0.083689846
1.0098798 1.405353 0.3794135 0.41627607 0.66488 -2.1124208 0.35582215 -1.4396161
1.8769164 -1.5796558 -15.053879 -7.4356713 3.4150865 -1.2646059 -3.5923893 -4.6104484
-0.09414374 1.4985694 3.8631423 -0.861947 -2.9670017 -1.7925047 -0.6358933 0.19877996
0.2595099 1.2807498 1.8067355 -8.377834 0.67515284 -1.4480689 1.3649236 -5.9547706
-2.6955135 0.89155984 0.07620725 -5.351668 0.9557405 -8.848638 1.1654719 -4.2131853
-4.33355 -1.4169743 -0.5648196 -4.242747 -2.4105678 1.1953111 -1.3428725 1.9925315
1.3012363 -5.346864 2.686792 0.9252461 0.22710781 -0.106431186 0.52490664 0.004372114
-0.08963169 0.9707272 -0.7538938 1.8332325 -11.042606 -5.321323 -0.02145496 -5.94462
00000000: 8517 01c0 903c 4dbf 6f2c 0e3f 1483 a2bf
00000010: 2e22 c43e 8c9d 17be 7568 90bf 229d ab3e
00000020: f191 e3bf ed74 e13f 0e91 693f 2886 18bf
00000030: 2d76 cdc0 1d91 9ebf 6d78 d63e 6bab e4bc
00000040: d332 9a3f 14a7 46c0 365e e740 1f55 cd3f
00000050: 3d11 f03e 561a ccbf 2072 943f 807e 133f
00000060: 5a12 a7bf edfb bfbf 6556 c43c 15d3 1ec0
00000070: fa06 163f cd5a 673f 8ebf 3b40 dcfe b3bf
00000080: 63ea dcc0 2ba6 31bf 77e9 c5bf c6d0 ccbe
00000090: c829 3c3f 6b50 e43e aef9 7dbd b15b ccbf
000000a0: 7081 cdbf c25b 0040 9832 2cbf ba24 eebf
000000b0: 2891 b6bd 2185 e0bf 65bb bfbe 311e 4a3f
000000c0: 3943 9c3f e487 2040 a099 73c0 3a65 9bbf
000000d0: fa84 783f 0b0e d5bf f39c acbf 34eb 893f
000000e0: 0c8b 41be d405 e93e e3bc d6bf b1b4 d7be
000000f0: 51d4 bdbe 45aa e9bf b1de 8d3c 1ca8 69bf
00000100: 5202 973f f860 d63e 6fbf fdbf 19ca 06bf
00000110: 416f 46c0 460c 073f b147 4f3f 9d3f fb3e
00000120: a706 c2bf 3e05 afbf 6349 e1bf 8c8f b13e
00000130: 2462 2bbf ba1f 35bf 8d8b 28bf 1a0a 06be
00000140: bee9 693e 6181 0e40 dec4 91c0 3253 dabf
00000150: 7c06 71be 26b0 5ec0 0d33 44bf b621 5cbf
00000160: a826 933f d80e 043f b8be adbf 17cc 5340
00000170: 7872 b9bf 6507 ee3e 7d36 513f 3831 01c0
00000180: c7b0 8b3f e8a0 9b3f dfd5 afbe f2ce 99be
00000190: 1c6e 5a3f dc47 5fbc 3fff 433f 4d38 983f
000001a0: f580 b83d e739 3cc0 ecb0 9d3c b00f 11c1
000001b0: 8bb8 bfc1 df9b ad3f 0191 87be 22a7 a7bf
000001c0: 981e db3f f270 a83e 1013 33bf 266e 0340
000001d0: dbad 6c3e 139b 6dbe 7c41 ae3f c248 ec3d
000001e0: bc30 7b3e 1169 1d3f 8331 973f 6c8f 913f
000001f0: ad4a 9b3e 1cee 8cbf 707a 18bf e0d2 623f
00000200: 6ec1 d33f 8cdc cdbe 3d81 1abf 5e7e 89be
00000210: 02f8 e3bf 6e28 823e dc70 d8be 7d82 5e3e
00000220: ce06 4c3f 1cfe 95bf 68ca 1f3f df06 fc3e
00000230: 4155 fcbe ac2f 41bd d6ed b63d 43b2 0c3f
00000240: 19f5 f93d 783d 7c3f d4d6 113f 6207 87bf
00000250: e795 8ebf ce0e bdbe a1f8 e3be f819 9cbf
00000260: 9e0b 173f 8f05 edbd e98b 7cbe 2ca6 39bf
00000270: f778 5fbf ad19 893e c539 11c0 21bf 54be
00000280: 904c 1240 36b4 d43f 9d4d a43f 4b8b 29bf
00000290: 165e 74bf b967 9dbd 319d d5be 7005 813f
000002a0: 85c6 fc3e 7eed 7ebe 8b4c b5bd 9b5e 12c0
000002b0: 7bab 5ec0 4425 1abf db60 22bf 013f 9cbf
000002c0: da4a 11bf 2fd5 acbf 5a02 cf3f fb06 453e
000002d0: 3e2f 3b3e 9d5c b93f 288c 8b3f d4ba dd3d
000002e0: 00ce 3dbf f7ec 87bf d62e ad3f 7210 e9be
000002f0: ad84 cabd 8b6c cfbd 894b 3d3d 9565 ab3d
00000300: be43 813f 9be2 b33f 7c42 c23e 2322 d53e
00000310: 9335 2a3f e731 07c0 522e b63e 5745 b8bf
00000320: cc3e f03f 2932 cabf b0dc 70c1 05f1 edc0
00000330: c790 5a40 9bde a1bf b5e9 65c0 cb88 93c0
00000340: 6fce c0bd 1fd1 bf3f b93d 7740 8fa8 5cbf
00000350: 5be3 3dc0 cb70 e5bf e7c9 22bf f98c 4b3e
00000360: 7bde 843e 9cef a33f 1c43 e73f 9c0b 06c1
00000370: d1d6 2c3f 525a b9bf d1b5 ae3f 7b8d bec0
00000380: 4b83 2cc0 443d 643f 8c12 9c3d dd40 abc0
00000390: 69ab 743f 0594 0dc1 2f2e 953f 6ad2 86c0
000003a0: 71ac 8ac0 6a5f b5bf 0498 10bf 95c4 87c0
000003b0: be46 1ac0 f4ff 983f 3fe3 abbf 460b ff3f
000003c0: e98e a63f 8319 abc0 66f4 2b40 eedc 6c3f
000003d0: f38e 683e 98f8 d9bd 4860 063f f343 8f3b
000003e0: d290 b7bd 9481 783f 2fff 40bf 5da7 ea3f
000003f0: 84ae 30c1 4748 aac0 50c2 afbc 543a bec0

fc_2.bias f4 [32]
-4.5627475 2.259395 2.6581697 2.30399 -0.7312038 1.8392589 -2.618628 -0.9254977
-4.6098704 1.0726881 -4.733491 0.3314916 -2.0846944 2.1996586 0.08962297 0.1522032
0.3560955 -5.116731 0.6151148 -4.890804 2.608994 3.809063 -0.14086281 3.4065747
-0.065774344 0.7321849 -4.3922343 -0.60764354 0.4766236 1.961307 1.1766694 2.069788
00000000: 0702 92c0 ed99 1040 741f 2a40 9274 1340
00000010: 2c30 3bbf d66c eb3f 9a97 27c0 6bed 6cbf
00000020: 0f84 93c0 d84d 893f c278 97c0 44b9 a93e
00000030: a26b 05c0 35c7 0c40 3f8c b73d 28db 1b3e
00000040: 2652 b63e 43bc a3c0 2a78 1d3f 7781 9cc0
00000050: c2f9 2640 b0c7 7340 573e 10be 5205 5a40
00000060: b3b4 86bd 7870 3b3f 2f8d 8cc0 878e 1bbf
00000070: 0208 f43e 1c0c fb3f 1a9d 963f 6877 0440

fc_out.weight f4 [9, 32]
0.26232293 -1.8493289 -0.8657904 7.0022006 5.040744 -1.7012211 0.025230186 1.1823848
0.59460676 -0.65389794 -0.3648787 -2.0965245 0.41219565 0.09836998 -0.49089617 -0.8679439
4.003752 0.0020147865 -0.2421836 0.30456394 -1.6786617 -1.7801355 -0.8596288 -1.1869369
-0.45305005 -2.0714352 0.7373111 0.31766737 -0.8659451 -4.3302135 -1.362595 -0.8626883
0.3074178 -1.7039701 -0.84565645 5.820347 4.065243 -1.7062155 0.40457034 1.1723945
0.35732582 -0.676952 0.20369755 -2.0355458 0.12005865 -0.05103411 -0.5019101 -0.830669
3.42662 0.116437115 -0.281781 -0.07002806 -1.6332362 -1.6790028 -0.6550923 -1.2191094
-0.23982671 -2.023886 -0.15477642 0.22220036 -0.84507716 -3.030242 -1.3152751 -0.96105564
1.202865 -1.6201319 -0.90466106 5.975066 4.061777 -1.7141191 1.710637 1.226505
0.40359268 -0.7202919 0.109559424 -2.1201866 0.2917747 -0.14005849 -0.4311112 -0.9384473
3.5886223 -0.1272537 -0.19439907 0.7932896 -1.5702238 -1.5708148 -0.5961559 -1.358738
-0.09643402 -2.0382216 -0.261048 0.20352124 -0.83373433 -3.2023509 -1.2885671 -1.0117614
0.6933483 -1.2833956 -0.94341743 3.9824758 2.7860985 -1.7166255 1.0386196 1.3200762
-0.050306518 -0.6827366 1.4644364 -2.365466 -0.6264611 -0.43715024 -0.55151474 -0.7280835
2.58789 1.2429985 -0.347925 0.766868 -1.4624124 -1.2860997 -0.26660833 -1.6265162
-0.23294649 -2.0814285 -0.17404002 -0.014200119 -0.83879393 -0.9030281 -1.2324469 -0.99471605
1.6555088 -0.9966131 -0.8138721 1.829591 1.7776384 -1.6344292 1.4645056 1.4374518
1.1382794 -0.7264876 1.6151303 -2.367091 -0.52265364 -0.7405692 -0.71530783 -0.67009276
1.5525994 1.6533282 -0.40706688 1.2652882 -1.374368 -0.9999578 -0.10592538 -1.9134523
-0.27133778 -2.0469615 0.59880996 -0.2129026 -0.82572305 1.4876482 -1.1082944 -1.0431374
1.2629204 -0.5753546 -0.7896423 -1.1861746 -0.19275674 -1.6329 0.20262116 1.4768057
1.3769567 -0.7106184 2.5676973 -2.6461937 -0.16825214 -1.1604054 -0.7141695 -0.37855202
0.097256556 2.6483738 -0.49461016 3.411892 -1.2029964 -0.6249747 0.40813792 -2.2301838
-0.36385 -2.0297732 0.9418352 -0.3925183 -0.87814957 4.9148536 -0.99470484 -1.106456
1.1844623 -0.27551296 -0.7567441 -3.195685 -1.2353965 -1.6379526 -0.6438085 1.558547
2.5992973 -0.7429689 3.0681047 -2.8182788 0.60454494 -1.4582632 -0.7784161 -0.25634617
-0.9134179 3.728996 -0.51532215 3.954194 -1.1133024 -0.43311685 0.59835595 -2.4565096
-0.40729493 -2.0150428 0.6666356 -0.5922905 -0.8996371 7.244685 -0.9220558 -1.1173629
2.629566 -0.12168193 -0.72634834 -3.750431 -1.4160818 -1.6081282 0.6592392 1.6368399
2.7373512 -0.7154801 2.3547406 -2.9047785 0.6169307 -1.6132226 -0.8543751 -0.10752746
-0.98243815 3.0871575 -0.55087745 2.6081426 -1.0761952 -0.3308114 0.61111265 -2.4770145
-0.24112935 -2.062531 2.6498923 -0.5545348 -0.90755785 7.6756353 -0.8480441 -1.2202067
00000000: 314f 863e cfb6 ecbf 71a4 5dbf 0712 e040
00000010: c64d a140 9dc1 d9bf 89af ce3c 6358 973f
00000020: 2638 183f db65 27bf 62d1 babe 752d 06c0
00000030: 4f0b d33e 3376 c93d be56 fbbe 9231 5ebf
00000040: bd1e 8040 820a 043b fafe 77be ceef 9b3e
00000050: 63de d6bf 7bdb e3bf a210 5cbf 8ced 97bf
00000060: 2df6 e7be 6592 04c0 6cc0 3c3f 4ca5 a23e
00000070: 94ae 5dbf 1c91 8ac0 8369 aebf 24d9 5cbf
00000080: de65 9d3e b11b dabf f17c 58bf 4840 ba40
00000090: 7816 8240 4565 dabf d823 cf3e 0611 963f
000000a0: 69f3 b63e ba4c 2dbf 1796 503e 6246 02c0
000000b0: 4fe1 f53d 2509 51bd 2e7d 00bf b9a6 54bf
000000c0: be4d 5b40 9576 ee3d 9945 90be df6a 8fbd
000000d0: e20d d1bf 90e9 d6bf 21b4 27bf c70b 9cbf
000000e0: 2295 75be 5987 01c0 b67d 1ebe 7e88 633e
000000f0: fa56 58bf 7cef 41c0 ef5a a8bf be07 76bf
00000100: 7bf7 993f 7b60 cfbf de97 67bf be33 bf40
00000110: 14fa 8140 4168 dbbf 27f6 da3f 1efe 9c3f
00000120: b3a3 ce3e 0d65 38bf b160 e03d 23b1 07c0
00000130: 7e63 953e 7e6b 0fbe 9bba dcbe 153e 70bf
00000140: fdab 6540 cb4e 02be 8d10 47be 0715 4b3f
00000150: 18fd c8bf 7610 c9bf ac9d 18bf 20eb adbf
00000160: 337f c5bd 3972 02c0 15a8 85be df67 503e
00000170: 9d6f 55bf 51f3 4cc0 c4ef a4bf 6681 81bf
00000180: 467f 313f 4f46 a4bf ce83 71bf e2e0 7e40
00000190: 704f 3240 62ba dbbf 7df1 843f 42f8 a83f
000001a0: 350e 4ebd d3c7 2ebf a772 bb3f cc63 17c0
000001b0: c15f 20bf 28d2 dfbe 1230 0dbf ae63 3abf
000001c0: fd9f 2540 931a 9f3f 3a23 b2be 7651 443f
000001d0: 5430 bbbf ea9e a4bf e380 88be af31 d0bf
000001e0: 8689 6ebe 2036 05c0 8c37 32be 9ea7 68bc
000001f0: 33bb 56bf d92c 67bf d2c0 9dbf b6a5 7ebf
00000200: b6e7 d33f 0922 7fbf ec59 50bf 0a30 ea3f
00000210: a889 e33f fa34 d1bf eb74 bb3f 6cfe b73f
00000220: 24b3 913f 17fb 39bf 97bc ce3f 6b7e 17c0
00000230: a1cc 05bf f195 3dbf 6a1e 37bf 338b 2bbf
00000240: 94bb c63f 42a0 d33f 126b d0be f7f4 a13f
00000250: 4aeb afbf 3cfd 7fbf 68ef d8bd 01ec f4bf
00000260: c9ec 8abe 6b01 03c0 9c4b 193f 2403 5abe
00000270: 9662 53bf 426b be3f 97dc 8dbf 8785 85bf
00000280: 60a7 a13f 704a 13bf ff25 4abf 92d4 97bf
00000290: 0662 45be de02 d1bf ec7b 4f3e f807 bd3f
000002a0: 1e40 b03f 16eb 35bf 2755 2440 3d5b 29c0
000002b0: 4a4a 2cbe 2a88 94bf d0d3 36bf 92d1 c1be
000002c0: 722e c73d f57e 2940 8b3d fdbe 705c 5a40
000002d0: c9fb 99bf 58fe 1fbf 74f7 d03e 55bb 0ec0
000002e0: 8c4a babe cee7 01c0 1d1c 713f 29f8 c8be
000002f0: 69ce 60bf 7b46 9d40 faa4 7ebf 5aa0 8dbf
00000300: 769c 973f 0910 8dbe fbb9 41bf 1a86 4cc0
00000310: 7921 9ebf 6ea8 d1bf a2d0 24bf 787e c73f
00000320: e35a 2640 3633 3ebf d45b 4440 ae5e 34c0
00000330: 75c3 1a3f 5ea8 babf 4746 47bf ce3f 83be
00000340: c1d5 69bf dfa7 6e40 27ec 03bf 8411 7d40
00000350: b180 8ebf 7ec1 ddbe db2d 193f 7437 1dc0
00000360: f688 d0be 76f6 00c0 a1a8 2a3f 5aa0 17bf
00000370: 9e4e 66bf 76d4 e740 d90b 6cbf bf05 8fbf
00000380: cf4a 2840 6034 f9bd f7f1 39bf 1007 70c0
00000390: 2b42 b5bf 25d7 cdbf e6c3 283f f883 d13f
000003a0: c330 2f40 b429 37bf 12b4 1640 e4e7 39c0
000003b0: 2cef 1d3f 147e cebf 54b8 5abf 5b37 dcbd
000003c0: 1181 7bbf fd93 4540 4e06 0dbf cfeb 2640
000003d0: c4c0 89bf 1d60 a9be e171 1c3f 6887 1ec0
000003e0: 9dea 76be 8200 04c0 d697 2940 fef5 0dbf
000003f0: b655 68bf ce9e f540 6b19 59bf bc2f 9cbf

fc_out.bias f4 [9]
-3.0456185 -4.258209 -3.0959034 -3.2648313 -3.7548118 -4.304214 -4.443512 -5.4016337
-5.3606286
00000000: 6aeb 42c0 4043 88c0 4823 46c0 fff2 50c0
00000010: d64e 70c0 1fbc 89c0 4031 8ec0 2fda acc0
00000020: 458a abc0
